results/ppo/My Behavior/checkpoint.pt (torch, 707591 bytes, 33 tensors)

network_body._body_endoder.seq_layers.0.weight f4 [128, 93]
0	0xbdb0df94	-0.08636394
1	0xbd6648e0	-0.056221843
2	0x3e0cd7b0	0.13754153
3	0x3db0a7ad	0.086257316
4	0x3cfa3bfb	0.030546179
5	0xbda89492	-0.082314625
6	0x3d58ce0a	0.05293087
7	0x3d37008c	0.044678256
8	0xba6f3c17	-0.00091260805
9	0xbbfb3318	-0.007666003
10	0x3d348b21	0.044077996
11	0x3d1fc30d	0.039004374
12	0xbde9c8ce	-0.114152536
13	0x3dc4a1ab	0.09601148
14	0xbd8f4ab8	-0.06996673
15	0x3d80d292	0.06290163
16	0x3e3ec489	0.1862966
17	0x3db56fbe	0.08859204
18	0xbabebcc8	-0.0014552111
19	0xbe1079d4	-0.14108974
20	0x3dbf755d	0.09348557
21	0x3e0fe678	0.1405276
22	0xbd8cdc48	-0.06877953
23	0xbd13b093	-0.036057066
24	0x3ddb5843	0.10710194
25	0x3ce50de8	0.027960733
26	0x3bb5ca93	0.0055478304
27	0xbd4b1c74	-0.049587682
28	0xbd31b4a7	-0.043385174
29	0x3e08268c	0.13295954
30	0xbd5ce817	-0.053932276
31	0xbcd3b4fd	-0.025843138
32	0x3c23614e	0.00997193
33	0x3d80e81f	0.062942736
34	0x3d76984f	0.060203847
35	0xbea5e9dd	-0.32404986
36	0x3cc00e96	0.023444455
37	0xbd83d4b2	-0.06437053
38	0xbd88762b	-0.06663164
39	0xbc5c41c5	-0.013443415
40	0x3de37d7c	0.111079186
41	0x3dac4133	0.08410873
42	0xbdce9e57	-0.10088795
43	0x3e080b14	0.13285476
44	0xbc1873cb	-0.009304951
45	0xbde2b554	-0.11069742
46	0x3cd55f4e	0.026046421
47	0xbe45b105	-0.19305809
48	0xbde96021	-0.11395288
49	0x3ddefddb	0.10888263
50	0x3d666678	0.056250066
51	0x3d4ca64c	0.04996328
52	0xbe297ff8	-0.16552722
53	0x3da3fac8	0.08006817
54	0xbe3e4a85	-0.18583114
55	0xbe081f2b	-0.1329314
56	0x3ddec4ea	0.10877402
57	0xbd90d67a	-0.07072158
58	0x3d642e1f	0.055708047
59	0x3def9cd9	0.11699838
60	0xbc75b7c0	-0.014997423
61	0xbcb8d035	-0.022560218
62	0xbe1b543f	-0.15168856
63	0xbd6a4543	-0.05719496
64	0xbe2a4aed	-0.16630144
65	0x3c685ebf	0.0141827455
66	0x3db52f78	0.088469446
67	0xbdb06bb3	-0.08614292
68	0x3e0f7b39	0.1401185
69	0xbda2e9a7	-0.07954722
70	0xbdf13983	-0.117785476
71	0xbd7c791c	-0.061638936
72	0x3cfada10	0.030621558
73	0xbd98d613	-0.074627064
74	0x3d84bfcb	0.06481894
75	0xbe70f12a	-0.23529497
76	0xbdcb9c0f	-0.09941875
77	0xbdf5f3a7	-0.120093636
78	0xbd2eb51a	-0.04265318
79	0x3d4180d9	0.04724202
80	0x3c3b06ed	0.011415225
81	0xbdfe3241	-0.12411929
82	0xbe1391cd	-0.14411087
83	0xbda7fab5	-0.082021154
84	0xbcf92b27	-0.030416084
85	0xbc59420e	-0.013260378
86	0x3d398681	0.04529429
87	0x3dbba70b	0.0916272
88	0x3cd2d951	0.02573839
89	0x3dd25bcb	0.10271414
90	0x3dff2d41	0.124598034
91	0xbc74d905	-0.01494432
92	0x3d97e9be	0.0741763
93	0x3c8ff759	0.017574
94	0x3c2953e3	0.010334942
95	0x3da6b0ad	0.08139167
96	0xbe184f84	-0.14874083
97	0x3e2ca26d	0.16858836
98	0x3b3633da	0.0027801902
99	0xbdd2970e	-0.10282718
100	0x3e6d19f4	0.23154432
101	0xbdd80b60	-0.105490446
102	0x3e371010	0.17877221
103	0x3ca0ac1b	0.019613316
104	0x3d18c9f8	0.037301987
105	0x3d4ed1d9	0.050493095
106	0x3b4bdeda	0.0031108172
107	0x3da33e92	0.07970919
108	0xbe599544	-0.21248347
109	0xbddc7219	-0.1076395
110	0xbbc94d32	-0.0061432356
111	0xbdc0fdd1	-0.09423412
112	0xbc0e431d	-0.008682993
113	0x3ce12539	0.02748357
114	0x3dd22270	0.10260475
115	0xbd48bc92	-0.04900796
116	0xbd9e4b6b	-0.077292286
117	0x3e45d171	0.19318177
118	0xbdb2a407	-0.08722692
119	0xbe535014	-0.20636016
120	0x3e9a0833	0.3008438
121	0x3ba98f4e	0.005174554
122	0xbe0ca47f	-0.13734625
123	0x3b5485e3	0.0032428436
124	0xbe014827	-0.1262518
125	0x3b36e90a	0.0027909898
126	0x3d5dc51d	0.05414306
127	0x3e2dd81e	0.16976973
128	0xbdc2ef99	-0.09518356
129	0xbd2d72e5	-0.0423459
130	0xbd46b722	-0.048514493
131	0x3e2f375b	0.1711096
132	0xbd9c0486	-0.0761805
133	0x3bba626a	0.0056880014
134	0xbca56395	-0.020189086
135	0xbc418924	-0.011812482
136	0xbe2a3b34	-0.16624147
137	0xbe44b591	-0.19209887
138	0x3d659375	0.05604883
139	0xbd269e33	-0.040678214
140	0x38f93f5f	0.00011885049
141	0xbcb1c0c7	-0.021698369
142	0x3dcc2430	0.0996784
143	0xbd62c52c	-0.05536382
144	0x3c4af7ad	0.012388152
145	0xb957530d	-0.00020534937
146	0xbd514263	-0.051088702
147	0x3e07e976	0.13272652
148	0x3db89082	0.09011938
149	0xbd2a47c2	-0.04157234
150	0xbe6f88db	-0.2339205
151	0xbdb2c3ec	-0.087287754
152	0xbdc9025e	-0.09814905
153	0xbe02f0e0	-0.12787199
154	0xbdd58898	-0.10426444
155	0xbdad27a2	-0.08454825
156	0x3db1e259	0.086857505
157	0x3d6d7e19	0.057981584
158	0x3e254c86	0.16142473
159	0xbd4ade58	-0.04952845
160	0x3ce2e677	0.027697785
161	0x3e04754a	0.12935367
162	0xbdde3b7f	-0.10851192
163	0xbdbb04ad	-0.09131751
164	0x3d74565b	0.059652667
165	0xbe060895	-0.13089211
166	0xbb8e09b3	-0.0043346523
167	0x3c0a1a33	0.008429098
168	0xbdd5fb4b	-0.10448321
169	0xbce1b6b7	-0.027552946
170	0xbe472926	-0.1944929
171	0xbcba69e9	-0.02275558
172	0x3dec8ba3	0.11550071
173	0xbd8adcc2	-0.067803875
174	0x3e00cf4c	0.12579077
175	0xbaa23c2c	-0.0012377552
176	0xbe637f1f	-0.22216462
177	0xbdbc1c64	-0.091851026
178	0xbda45573	-0.08024111
179	0x3b6760ed	0.0035305575
180	0x3df43f7b	0.119261704
181	0xbdad0d9c	-0.084498614
182	0x3e5aa22d	0.21350928
183	0xbe201622	-0.15633443
184	0x3e266e0b	0.16252916
185	0x3e5ab6af	0.21358751
186	0xbea3fc9c	-0.32028663
187	0xbdbedbe0	-0.093192816
188	0xbe53c9a0	-0.20682383
189	0x3e14a240	0.14515018
190	0xbc8bb7cf	-0.01705542
191	0xbcd63222	-0.026146952
192	0x3c9856cf	0.018596081
193	0xbd088994	-0.03333433
194	0x3e02b338	0.12763679
195	0xbced9f03	-0.029006487
196	0x3e2e6828	0.1703192
197	0x3dcf8a61	0.101338156
198	0xbd76dcbb	-0.0602691
199	0x3e5a791c	0.21335262
200	0x3d065860	0.032799125
201	0xbe1d09d4	-0.1533578
202	0x3da0a430	0.07843816
203	0x3d1e85e6	0.038701914
204	0xbd3ba587	-0.045812156
205	0xbc485cfa	-0.012229199
206	0xbe007a91	-0.12546755
207	0xbcbf611a	-0.023361731
208	0xbb8936ac	-0.0041874256
209	0xbdc8b193	-0.097994946
210	0xbd350f5e	-0.04420411
211	0xbe05fdfe	-0.13085172
212	0x3ccfcb04	0.02536536
213	0x3c868d08	0.01642467
214	0x3dd219f3	0.10258856
215	0x3d87178e	0.065962896
216	0x3c25b4b6	0.010113886
217	0x3c01603c	0.007896479
218	0xbb059703	-0.00203842
219	0x378eb35e	1.7011243e-05
220	0xbe63863b	-0.22219174
221	0xbc729af3	-0.014807451
222	0x3e3b59dd	0.18295999
223	0x3e3d07d7	0.18460022
224	0xbe2f6b9b	-0.17130892
225	0x3e0bf5b0	0.13667941
226	0xbe15ac97	-0.14616619
227	0xbd39bbdd	-0.045345176
228	0xbdc94da1	-0.0982926
229	0x3d7215d3	0.059102844
230	0xbcfd9622	-0.030955378
231	0xbcea577c	-0.028606169
232	0xbc160ab7	-0.009157828
233	0xbdc458d0	-0.09587252
234	0x3d866017	0.065612964
235	0x3d7c68a9	0.06162325
236	0xbcb04202	-0.02151585
237	0xbdc4a5f8	-0.096019685
238	0xbb365d51	-0.0027826617
239	0x3e47e7a8	0.19521964
240	0x3db0ebd7	0.08638733
241	0xbda1323d	-0.0787091
242	0xbde5c363	-0.11218908
243	0x3d995c33	0.07488289
244	0x3e455cb6	0.19273648
245	0x3e7eac17	0.24870335
246	0x3e40c5e4	0.1882549
247	0xbd8bcb78	-0.06825918
248	0xbdb1f13c	-0.0868859
249	0xbc960ea6	-0.018317532
250	0x3e1396a0	0.14412928
251	0xbdcd416d	-0.100222446
252	0xbdabcea1	-0.08389021
253	0xbbe83b3a	-0.0070871385
254	0xbd7e7a34	-0.06212826
255	0x3e4f4440	0.20240879

network_body._body_endoder.seq_layers.0.bias f4 [128]
0	0x3b4b86a5	0.0031055596
1	0x3afd325b	0.0019317375
2	0x3b8098af	0.0039244513
3	0xb9e138a7	-0.00042957554
4	0x3b655198	0.003499126
5	0x3bc33d1b	0.005958212
6	0xbb837002	-0.004011155
7	0x3b597f31	0.0033187384
8	0xbb6f7c00	-0.0036542416
9	0x3b02bc82	0.0019948785
10	0x3b22c7dd	0.0024838366
11	0xbb650911	-0.003494803
12	0x3b0c56bd	0.0021414005
13	0xbab1272f	-0.0013515706
14	0x3b83c4cc	0.0040212628
15	0xbb1fda3b	-0.002439155
16	0x3ba85037	0.0051365155
17	0x3b8f4996	0.004372786
18	0x3b91fa73	0.0044549047
19	0xbb8aa22f	-0.0042307596
20	0x3bd34df6	0.0064485027
21	0x3b5df073	0.0033865243
22	0xbb46e714	-0.0030350136
23	0x3adee128	0.0017004358
24	0xbb4b2004	-0.0030994425
25	0x3b971c1a	0.0046115043
26	0x3aabc806	0.0013105876
27	0x3b723b45	0.0036961597
28	0xbb821139	-0.0039693383
29	0xbb457052	-0.0030126763
30	0xbbabfa25	-0.0052483254
31	0xbbbeec8e	-0.0058265394
32	0xbb3ffe6f	-0.0029295941
33	0xbb90f660	-0.0044239014
34	0xbb7d6d0e	-0.0038669738
35	0xbba2d3e7	-0.0049691084
36	0xbb0089f4	-0.0019613476
37	0xb9cff2a4	-0.00039662898
38	0xbaca9ee2	-0.0015458728
39	0x3a53b5b6	0.0008076088
40	0x3b3c1431	0.0028698558
41	0x3af39223	0.0018582981
42	0x3b334a2d	0.0027357445
43	0x3bac7c87	0.0052638683
44	0x3ade6eec	0.0016970313
45	0xb95fcd9e	-0.00021343536
46	0x3bab1547	0.0052210423
47	0x3a5b0faf	0.0008356524
48	0x3bccc9b0	0.006249629
49	0x3b8446fa	0.0040367814
50	0xbb65d79c	-0.003507114
51	0x3bb99e24	0.005664604
52	0xbb6d7b70	-0.0036236905
53	0xbb86b13b	-0.004110483
54	0x3a9409fa	0.0011294477
55	0xb9fdc630	-0.00048403582
56	0x3b3a32fd	0.002841174
57	0x38223a7f	3.867829e-05
58	0x3b45d05b	0.0030184004
59	0xbba8862a	-0.0051429467
60	0xbbb23848	-0.005438838
61	0xbb8abfdb	-0.0042342967
62	0x3b134673	0.002247241
63	0xb93a4868	-0.00017765316
64	0x3b401d98	0.0029314514
65	0xbb3714ec	-0.0027936054
66	0x3b19ce1f	0.0023468805
67	0xbb8ea2e9	-0.0043529165
68	0x3b8b8a9a	0.004258466
69	0xba8cacd1	-0.0010732656
70	0x3970d2ac	0.00022966665
71	0xbb2cea43	-0.0026384748
72	0x3b8d0788	0.0043038763
73	0xb883878b	-6.2718136e-05
74	0xbb4bf69d	-0.0031122335
75	0xb97a1c68	-0.0002385244
76	0xb98d32f6	-0.00026931585
77	0x3b372e3e	0.0027951146
78	0xbafcbedb	-0.0019282954
79	0xbb702f4d	-0.0036649287
80	0xbad9a148	-0.0016603852
81	0x3bb0e1ea	0.005398025
82	0x38f406b6	0.00011636077
83	0x39f07185	0.00045860946
84	0xbb4ae3fb	-0.003095864
85	0x3b30ed33	0.002699685
86	0xbb6d2910	-0.0036187805
87	0x3b668271	0.0035172964
88	0x3bace482	0.0052762637
89	0x3b5b940b	0.0033504989
90	0xbbebfaae	-0.007201514
91	0x38dbd7e7	0.00010482949
92	0xbad7bc88	-0.0016459385
93	0x3b62bd11	0.0034597556
94	0xba5c8070	-0.00084114727
95	0xbb747d1b	-0.0037306014
96	0x398c7b10	0.0002679457
97	0xbb472864	-0.0030389065
98	0x3b69196b	0.0035568129
99	0x3bb72c14	0.0055899713
100	0xbb43cab2	-0.0029875454
101	0xbba7d811	-0.0051221927
102	0x3ac9d1f5	0.0015397655
103	0xbb156a78	-0.0022799056
104	0xbb91369b	-0.0044315583
105	0x3b80664f	0.003918446
106	0x3bbc2adf	0.0057424153
107	0x3ba757d6	0.0051069064
108	0xbb685df8	-0.00354564
109	0x3b0c5d61	0.0021417963
110	0x3b8f5560	0.004374191
111	0x3b5ea1d2	0.0033970964
112	0xbb2faf76	-0.0026807464
113	0x3ac9b557	0.0015389126
114	0x3a444b35	0.00074880134
115	0x3b30f521	0.0027001577
116	0x3b8c944d	0.00429014
117	0x3b894d0e	0.004190094
118	0xb8f5c6bc	-0.000117195275
119	0x3b92368e	0.00446207
120	0xbb701d21	-0.0036638456
121	0xbb03365e	-0.002002142
122	0x3b491187	0.0030680613
123	0x3b1adc0c	0.0023629693
124	0xb9694d95	-0.00022249513
125	0xbb04b9f0	-0.002025243
126	0xbabd3c17	-0.0014437464
127	0xbad90482	-0.001655713

network_body._body_endoder.seq_layers.2.weight f4 [128, 128]
0	0xbd9c8f5f	-0.07644533
1	0x3e2f5430	0.17121959
2	0x3e5da7eb	0.21646087
3	0xbda7e112	-0.08197226
4	0x3cf33b15	0.029691258
5	0x3e55dbef	0.2088468
6	0x3de7420b	0.112918936
7	0x3a8a7675	0.0010563867
8	0x3cf5f56b	0.030024251
9	0x3dd4b884	0.10386756
10	0xbd85e854	-0.06538454
11	0xbc80b7a5	-0.015712569
12	0xbd6aead5	-0.05735286
13	0xbc9c7add	-0.019101555
14	0xbda55889	-0.08073527
15	0x3daec2a9	0.08533222
16	0xbcabd018	-0.02097325
17	0xbda2f70b	-0.07957276
18	0xbd8eb37e	-0.06967829
19	0x3d957446	0.07297568
20	0xbd3415c1	-0.04396606
21	0x3ca475a4	0.020075627
22	0x3de5ec23	0.1122668
23	0xbd0c4fea	-0.0342559
24	0xbd61e732	-0.055152126
25	0xbbd3d5c8	-0.0064646937
26	0xbdec8beb	-0.11550125
27	0xbded4d4d	-0.115870096
28	0xbcf834a9	-0.030298548
29	0x3d25cdce	0.040479474
30	0x3d7f823a	0.062380053
31	0x3e125d5e	0.1429343
32	0xbdb4fabf	-0.088368885
33	0xbd5b64cf	-0.053562935
34	0x3d2e25f8	0.04251668
35	0xbd8b02c1	-0.06787635
36	0xbdfd4cdd	-0.12368176
37	0x3c051133	0.008121776
38	0x3de52601	0.11188889
39	0x3da2bc0c	0.07946023
40	0xbdb13ef4	-0.086545855
41	0xbd1d6052	-0.038421936
42	0xbd82bd2d	-0.06383739
43	0x3d80b429	0.06284363
44	0xbc918115	-0.017761746
45	0x3cddacd8	0.027059957
46	0xbd944174	-0.07239047
47	0x3b8a3bbb	0.004218546
48	0x3d664eb8	0.056227416
49	0xbb47eba3	-0.003050544
50	0xbd0240fd	-0.03180026
51	0x3e162d52	0.14665726
52	0x3d048336	0.032351695
53	0xbdffd322	-0.12491442
54	0x3d2d89d2	0.042367764
55	0xbd0b68e9	-0.034035597
56	0xbcc5f60e	-0.02416518
57	0x3deb81ff	0.11499404
58	0x3ce22e7a	0.027610052
59	0x3dce2547	0.10065704
60	0x3d7323e3	0.059360396
61	0x3d80b1e1	0.06283928
62	0x3e27a34b	0.16370885
63	0xbc0f3eef	-0.008743032
64	0x3c73ccca	0.0148803685
65	0x3d8244a3	0.06360748
66	0x3d71c9f9	0.059030507
67	0x3d8c23bd	0.06842754
68	0xbd36028a	-0.044436015
69	0xbda70451	-0.0815512
70	0x3bd9d904	0.0066481847
71	0xba6c2cf2	-0.0009009383
72	0xbdb2a3dc	-0.0872266
73	0xbcc5ff68	-0.024169639
74	0xbd56bc84	-0.052425876
75	0xbe20e312	-0.1571162
76	0xbd8cf977	-0.06883519
77	0x3c8c01a9	0.017090635
78	0xbdf0f788	-0.11765963
79	0x3deac462	0.11463238
80	0x3cfbbb63	0.030729001
81	0x3c85b3c6	0.016321074
82	0xbd045b27	-0.032313492
83	0xbe26438f	-0.16236709
84	0x3e13bfeb	0.1442868
85	0x3ce70427	0.028200222
86	0xbb83e0ab	-0.0040245852
87	0xbdf1cc45	-0.118065394
88	0x3d84b6b3	0.064801596
89	0x3d952f59	0.072844215
90	0xbcb954c9	-0.022623437
91	0xbbab3114	-0.0052243564
92	0x3cb49e78	0.02204822
93	0x3daa26fd	0.08308218
94	0xbb0b8987	-0.002129169
95	0xbe63b996	-0.22238764
96	0x3c81dd4e	0.015852597
97	0xbd081e33	-0.033231925
98	0x3dafdb4c	0.085867494
99	0xbda15c24	-0.078789026
100	0x3c2555d0	0.01009126
101	0xbe0c5e95	-0.13707955
102	0xbc3d22ee	-0.011543972
103	0xbdb14589	-0.08655841
104	0xbd3e7e42	-0.046507128
105	0xbdcdd635	-0.100506224
106	0x3d82bdba	0.06383844
107	0xbc3d1def	-0.011542781
108	0x3e080d68	0.13286364
109	0xbe0d89f2	-0.13822153
110	0x3c0f8b25	0.008761202
111	0xbd9bd369	-0.07608683
112	0x3d9171ca	0.07101782
113	0x3d68761b	0.05675326
114	0xbd414969	-0.04718915
115	0xbd86c3ca	-0.065803126
116	0xbde35df3	-0.11101904
117	0x3d041175	0.03224321
118	0xbbd5f9dc	-0.0065300297
119	0x3ddba60f	0.107250325
120	0xbd8a4fc7	-0.067534976
121	0x3cdaa3bd	0.026689405
122	0x3de5b071	0.11215294
123	0xbd60bd2c	-0.05486791
124	0xbd9c8a59	-0.07643575
125	0x3e0994c0	0.1343565
126	0xbb2f00c2	-0.0026703333
127	0x3d753add	0.05987059
128	0x3e3c2c93	0.18376379
129	0xbe28c760	-0.16482306
130	0xbce78fe4	-0.028266855
131	0xbd3d12fd	-0.046160687
132	0x3d5a3372	0.05327172
133	0xbd05203a	-0.032501437
134	0xbd9739c8	-0.07384068
135	0x3db5d286	0.08878045
136	0xbd5bbaec	-0.05364506
137	0xbe00e529	-0.12587418
138	0x3d52455b	0.051335674
139	0xbdaaddd4	-0.083430916
140	0x3cc0a813	0.023517644
141	0xbd9c1df4	-0.076229006
142	0xbc4d829c	-0.012543347
143	0xbe3387ef	-0.17532323
144	0xbe6a0af3	-0.2285574
145	0xbbefa4ce	-0.0073133474
146	0xbdca0e0a	-0.09865959
147	0xbcdf3bcb	-0.027250191
148	0xbcdc6ae2	-0.026906434
149	0x3d64f8e7	0.055901434
150	0xbd4c47e9	-0.049873266
151	0xbd0730b9	-0.03300545
152	0xbd6e2857	-0.05814394
153	0x3bd188ba	0.006394473
154	0xbd83874b	-0.064222895
155	0x3d573b50	0.0525468
156	0xbd8a07a3	-0.06739738
157	0x3daa4b3d	0.08315132
158	0x3d10284e	0.035194688
159	0x3c456f0f	0.012050404
160	0xbe065e75	-0.1312197
161	0x3ca2f817	0.01989369
162	0xbccbb674	-0.024867274
163	0x3dbb4cc0	0.09145498
164	0x3c9cbc9c	0.019132905
165	0x3cbc47fa	0.02298354
166	0x3d5ecc8c	0.05439429
167	0x3d15a892	0.036537714
168	0x3d85ffac	0.06542906
169	0x3d0501af	0.03247231
170	0x3c861e2f	0.016371815
171	0x3bea4aa8	0.007150013
172	0xbde63585	-0.11240677
173	0xbe6abeb6	-0.22924313
174	0x3df0bb5d	0.11754487
175	0x3d508ac3	0.050913583
176	0xbe4cfb94	-0.20017844
177	0x3dbb6aee	0.091512546
178	0x3de1847f	0.110116
179	0xbd966c7c	-0.073449105
180	0x3da5ff7e	0.08105372
181	0xbd72ce76	-0.059278928
182	0x3d09976f	0.033591684
183	0xbb4edb86	-0.0031563952
184	0x398a13f9	0.00026336292
185	0x3e014c02	0.12626651
186	0x3db0c4db	0.08631297
187	0x3dc7a39e	0.097480044
188	0xbd860841	-0.06544543
189	0xbd154d84	-0.036450878
190	0xbc9a7d7a	-0.01885866
191	0x3c204a8c	0.009783398
192	0xbd3aad6c	-0.045575544
193	0x3e05035e	0.12989566
194	0x3dd3a9dd	0.10335133
195	0x3ce756fa	0.028239716
196	0xbd991858	-0.07475346
197	0x3c9619de	0.018322881
198	0x3d8fe73b	0.070265256
199	0xbc3cbdd5	-0.011519869
200	0x3d53c352	0.051699944
201	0xbddc7fd6	-0.1076657
202	0xbe12dc56	-0.14341864
203	0xbcdfb4f8	-0.027307972
204	0x3e8d846f	0.276401
205	0x3e11b5cb	0.14229505
206	0x3bc6498f	0.0060512493
207	0x3dc6af23	0.097013734
208	0x3cf10c30	0.029424757
209	0xbd198714	-0.037482336
210	0xbe2bd198	-0.16779172
211	0x3dca4a35	0.09877435
212	0x3d5401a0	0.051759362
213	0xbd0df9ba	-0.034661986
214	0x3cec335b	0.028833082
215	0x3dc66229	0.09686691
216	0xbddcf895	-0.10789601
217	0xbde62b9f	-0.11238789
218	0xbde1ffbc	-0.110351056
219	0x3e42564d	0.18978234
220	0x3da02507	0.078195624
221	0x3dd17b06	0.10228543
222	0xbd440a58	-0.047861427
223	0x3dc94f0b	0.098295294
224	0xbe33ae28	-0.17546904
225	0x3e1fdf70	0.15612578
226	0xbe3d6720	-0.1849637
227	0xbd169a44	-0.036768213
228	0x3db6c8ac	0.08924994
229	0xbdc754ef	-0.09732997
230	0x3b913295	0.0044310787
231	0x3d08c795	0.03339346
232	0xbd497fe1	-0.04919422
233	0xbd7a1342	-0.061053522
234	0x3c47f06d	0.012203318
235	0xbc714e8e	-0.014728202
236	0xbcd1cd79	-0.025610672
237	0xbdf059f4	-0.11735907
238	0x3d11a00c	0.035553023
239	0xbd494360	-0.04913652
240	0xbddd4fb8	-0.10806221
241	0xbc347fd1	-0.011016802
242	0x3d3c896e	0.0460295
243	0xbdd1bf50	-0.10241568
244	0xbe2f3d43	-0.17113213
245	0x3cfdf7c9	0.031001942
246	0x3e38077c	0.17971605
247	0x3cfe2557	0.031023664
248	0x3c85ac06	0.016317379
249	0xbd0bb810	-0.034111083
250	0x3d4f1047	0.050552633
251	0x3dd3c38b	0.10340031
252	0x3d3ced26	0.0461246
253	0xbd969df2	-0.073543444
254	0xbc855138	-0.01627408
255	0x3da57e65	0.080807485

network_body._body_endoder.seq_layers.2.bias f4 [128]
0	0xbb712ab3	-0.0036799132
1	0x3b1d279b	0.0023979906
2	0xbb1d8111	-0.0024033228
3	0xbb6674c7	-0.003516482
4	0xbae1fcd8	-0.0017241491
5	0xbb092df3	-0.002093193
6	0x3ab70b18	0.0013965098
7	0xbb35737a	-0.0027687238
8	0xba677f19	-0.000883089
9	0x3a823769	0.0009934726
10	0xbb637006	-0.0034704222
11	0xbb54eb73	-0.0032488971
12	0xb7b100e0	-2.1100452e-05
13	0xba1579cd	-0.00057020487
14	0x3ad22d54	0.0016035237
15	0x3b4e4b8c	0.0031478135
16	0x3b74adb1	0.0037334973
17	0xbb5b91d6	-0.0033503673
18	0x3b864edb	0.004098756
19	0xbb1b4e7b	-0.00236979
20	0x3b4a3ac3	0.0030857779
21	0xbb2855c1	-0.002568588
22	0xbb5a66c1	-0.0033325406
23	0x3b80bafa	0.0039285393
24	0xbb3ce84d	-0.0028824985
25	0x3b3de466	0.0028975247
26	0xba0fac00	-0.0005480647
27	0x3ba4d291	0.0050299843
28	0x3a11681c	0.00055468245
29	0xbb3b76f3	-0.0028604835
30	0x3b8ab2cc	0.00423274
31	0x393076f7	0.00016828986
32	0xbb733011	-0.0037107507
33	0xbadc2707	-0.0016796299
34	0xbb68678a	-0.0035462105
35	0x3b4c3976	0.003116218
36	0x39e79e7e	0.0004417784
37	0x3b21c68d	0.0024684996
38	0x3b32453e	0.0027201916
39	0xbb6d261e	-0.003618605
40	0xbae91695	-0.0017783219
41	0x3b5dda6d	0.0033852116
42	0x39c5438d	0.00037625097
43	0xbb6c8685	-0.0036090922
44	0xbb68cc05	-0.0035521996
45	0xbb6ea663	-0.0036415092
46	0x3b698147	0.0035630034
47	0x3b2e1434	0.0026562335
48	0x3b4d57e1	0.0031332897
49	0x3ab3007d	0.0013656762
50	0x3b8b47cf	0.0042505036
51	0xbb6fca69	-0.0036589152
52	0x3b8f8e0c	0.004380947
53	0x3b28a522	0.0025733192
54	0xbb208c72	-0.0024497774
55	0x3b8123b4	0.0039410237
56	0xbb99cd56	-0.0046936674
57	0xbb32deaf	-0.0027293374
58	0xbb46332e	-0.0030242908
59	0x3b91c70c	0.004448777
60	0x3aea8fcb	0.0017895637
61	0x3b1eff7e	0.0024261172
62	0xbb448ffb	-0.0029993046
63	0x3b6ac595	0.0035823334
64	0xbb22009c	-0.0024719601
65	0x3ba39306	0.004991892
66	0x3b8d0ef4	0.004304761
67	0xbabcc8e7	-0.0014403135
68	0x3b502ea1	0.0031766074
69	0x3b786634	0.0037902715
70	0xbabdbccf	-0.0014475825
71	0xbabf1677	-0.0014578839
72	0x3af071a7	0.0018344418
73	0x3b294f0c	0.002583447
74	0xbb3c7cbd	-0.0028760873
75	0x3b8e9f7a	0.004352507
76	0x3b289665	0.0025724408
77	0x3a5092fd	0.0007956473
78	0x39feda97	0.00048609517
79	0x3b9d20b5	0.0047951587
80	0xbb75d8dc	-0.0037513291
81	0xba6b451a	-0.00089748355
82	0xbbac4617	-0.005257379
83	0xbb89095b	-0.0041820235
84	0xbb898856	-0.0041971607
85	0x3b7160fb	0.0036831487
86	0x3b60c256	0.003429552
87	0xba8a4606	-0.0010549433
88	0xba9e0cd7	-0.001205827
89	0xbb7b77c7	-0.0038370953
90	0xbb49e9e0	-0.0030809566
91	0xbb99cf25	-0.004693883
92	0xbb90aee1	-0.0044153784
93	0x3b397ebb	0.0028304297
94	0x3ad56c4c	0.0016282885
95	0x3b864528	0.0040975995
96	0x39fd180e	0.00048273843
97	0xbb0c1497	-0.0021374577
98	0x3b740bc3	0.0037238456
99	0xbb2afbc2	-0.002609
100	0xbb67430d	-0.0035287768
101	0xbb8c6163	-0.0042840703
102	0x3b8a0114	0.0042115543
103	0x3b07625c	0.0020657992
104	0x3b54d42d	0.00324751
105	0x3a2f500e	0.00066876493
106	0x3abf2a12	0.0014584681
107	0xbab450d3	-0.0013756998
108	0xbaff9f4c	-0.001950243
109	0x3b5d210e	0.0033741626
110	0xbb27db48	-0.002561288
111	0x3add885a	0.0016901598
112	0x3b99b304	0.00469053
113	0x3b9522bc	0.00455126
114	0x3a1c4b4a	0.00059621467
115	0x3b8e149e	0.004335954
116	0xbae63b8f	-0.0017565357
117	0x3b50237f	0.0031759439
118	0xbb1a6bd2	-0.00235628
119	0xbb70603d	-0.0036678456
120	0xbb38c3fd	-0.002819299
121	0xb9981483	-0.00029006982
122	0xbb632968	-0.0034662131
123	0xbaf11dc6	-0.0018395714
124	0xbb94c8ad	-0.004540524
125	0x3b067f87	0.002052279
126	0x3b9c4ccd	0.0047698976
127	0xbae0c9ad	-0.0017149948

action_model._discrete_distribution.branches.0.weight f4 [3, 128]
0	0xbc01649a	-0.00789752
1	0xbbb4e350	-0.005520262
2	0x3af8c871	0.0018980635
3	0xbb1e62b9	-0.002416773
4	0x3b1cfc01	0.0023953917
5	0xbcc82632	-0.024432275
6	0x3c92065c	0.017825298
7	0xbc355783	-0.011068228
8	0x3a79497e	0.00095095474
9	0xbae47612	-0.0017430207
10	0xbc810605	-0.01574994
11	0xbb8f5126	-0.0043736873
12	0xbc11538d	-0.008870018
13	0xbb2e98b4	-0.002664131
14	0x3bde4c90	0.0067840293
15	0x3bbc211f	0.005741253
16	0x3c02c9c1	0.007982672
17	0xbc27aedc	-0.010234561
18	0x3b3d09c0	0.0028844923
19	0xbc1e7213	-0.009670752
20	0x3b143213	0.0022612854
21	0xbb4b8afd	-0.0031058185
22	0xbc2075b8	-0.009793691
23	0x3c43ba77	0.011946312
24	0x3aa56415	0.0012618328
25	0x3c69ff0b	0.014281998
26	0x3b872992	0.0041248286
27	0x3c6dd2d4	0.014515597
28	0x3b7397d2	0.003716935
29	0xbc01352c	-0.007886212
30	0x3b8c7956	0.0042869253
31	0x3c8c52d1	0.017129334
32	0x39c425d0	0.00037412206
33	0x3ba1a3dd	0.004932864
34	0xbc6d7063	-0.014492127
35	0xb9f39014	-0.00046455918
36	0xbc4e609d	-0.012596277
37	0x3bae2ea0	0.0053156167
38	0x3b8f87b4	0.0043801907
39	0x3bc8048c	0.0061040577
40	0xbb87d25c	-0.00414495
41	0x3bcaadae	0.006185255
42	0x3c17c2ae	0.009262724
43	0xb9165001	-0.00014334919
44	0xbc8b3063	-0.016990846
45	0xbbb5bd18	-0.0055462234
46	0x3c4231d8	0.011852704
47	0x3bae4140	0.005317837
48	0xbc2bcc22	-0.010485681
49	0xbc5aa9fb	-0.013346191
50	0x3c269100	0.010166407
51	0xbb4c0151	-0.0031128714
52	0x3c53319f	0.012890249
53	0x3c242de9	0.010020711
54	0x3b332be4	0.0027339393
55	0x3c09cfc7	0.008411354
56	0xbc9012dd	-0.01758712
57	0xbbec1348	-0.007204447
58	0xbc00167c	-0.007817861
59	0x3c27ca31	0.010241077
60	0x3ae46554	0.0017425218
61	0x3bcc6b7b	0.0062383986
62	0x3a8584fe	0.001018673
63	0x3bb76a32	0.0055973763
64	0x3b861039	0.0040912894
65	0x3cf2f663	0.029658502
66	0x3c28f21d	0.010311631
67	0x3b90f83e	0.004424124
68	0x3c404018	0.011734031
69	0x3b92cff9	0.0044803587
70	0xbb95036e	-0.004547528
71	0x3b08f39f	0.0020897163
72	0xba33be1a	-0.00068566354
73	0x3b37b4c6	0.0028031333
74	0xbc7aff1b	-0.015319611
75	0x3c661a71	0.01404439
76	0x3c1432bd	0.0090453
77	0xbbcb797a	-0.0062095495
78	0x38d4104e	0.00010111985
79	0xbb79fcdb	-0.0038145098
80	0xbc0144e2	-0.007889958
81	0xba05cf0a	-0.00051043986
82	0xbc9a9824	-0.018871374
83	0xbc9d9324	-0.019235201
84	0xbb9cd748	-0.0047864057
85	0x3c53ff9d	0.012939361
86	0x3c4645a8	0.012101568
87	0xbc44894d	-0.011995626
88	0x3bfde31f	0.007748022
89	0xbc0e0d24	-0.008670125
90	0xbc81affb	-0.015830984
91	0xbc315f2a	-0.010825912
92	0xbb5d5251	-0.0033770988
93	0x39a75b58	0.0003192078
94	0x3b3540a0	0.0027656928
95	0x3c81c97a	0.015843142
96	0xbbc45db9	-0.005992618
97	0xbbcb7db8	-0.006210055
98	0x3bf348d2	0.0074244523
99	0x39c435cd	0.00037424118
100	0xbbacf728	-0.0052784868
101	0xbc0835b7	-0.008313588
102	0x3c81620e	0.015793826
103	0xbc0909c8	-0.008364148
104	0x3c071e19	0.008246922
105	0xba77905f	-0.0009443815
106	0xbc03916b	-0.008030276
107	0xbcb3d941	-0.02195418
108	0xbc246e1f	-0.010036021
109	0xbb425d52	-0.0029657674
110	0xbbc1c789	-0.005913679
111	0xbb1a89dd	-0.0023580708
112	0x3cba8b22	0.022771422
113	0x3cb3af52	0.021934185
114	0xba0cd225	-0.000537189
115	0x3c726231	0.0147939185
116	0x3b056d6a	0.0020359405
117	0x3c4ba3cd	0.01242919
118	0xbc4e5015	-0.012592335
119	0xbbe61d7b	-0.0070225573
120	0xbaa1e204	-0.0012350683
121	0xb8aef370	-8.34231e-05
122	0x3b9d39c3	0.0047981455
123	0xba5e0a51	-0.0008470165
124	0xbb922854	-0.004460374
125	0x3c38eb34	0.011286546
126	0x3c34063e	0.010987816
127	0xbc0e4d5b	-0.008685435
128	0xbb36734b	-0.0027839716
129	0xbbbe1106	-0.005800369
130	0x3c90202c	0.017593466
131	0x3b6c6cf1	0.0036075676
132	0xbc7a5aec	-0.0152804665
133	0xbbd3434c	-0.0064472314
134	0xbbd2f514	-0.006437907
135	0xbc0ba765	-0.008523797
136	0x3c8a4159	0.016876863
137	0x3bf18e67	0.007371712
138	0x3bb778d0	0.005599119
139	0xbb6e606d	-0.0036373392
140	0x3cc48213	0.023987805
141	0x3bae9bdf	0.00532864
142	0xbc7e586b	-0.01552401
143	0x3b1d42d7	0.0023996138
144	0x3be591d3	0.007005909
145	0xbc493aad	-0.012282056
146	0xbc22095f	-0.00988993
147	0xbc4f89d3	-0.012667137
148	0x3c5ddefb	0.013541932
149	0x3c4f1268	0.012638666
150	0x3b982cc8	0.00464401
151	0xbc63c87a	-0.013902778
152	0x3c8ca8aa	0.017170269
153	0x3c788e9d	0.01517072
154	0x3c0d5e80	0.008628488
155	0xbb12b57a	-0.0022386
156	0x3c26f626	0.010190522
157	0xbbe14cc7	-0.0068756077
158	0xbb017f26	-0.0019759624
159	0xbbfbeabe	-0.0076878956
160	0xba8ee989	-0.0010903339
161	0x3c8728af	0.016498892
162	0xba9711ef	-0.001152573
163	0x3ba12e01	0.004918814
164	0xbb53ea92	-0.003233586
165	0x3b3146ef	0.0027050336
166	0x3b9352ab	0.004495939
167	0x3c0f06f0	0.008729681
168	0xbc406396	-0.011742493
169	0xb96cc402	-0.00022579732
170	0xba94937b	-0.0011335457
171	0x3bb88743	0.005631359
172	0xbc4a5d18	-0.012351297
173	0xbb125881	-0.0022330584
174	0x3b9de3a5	0.004818397
175	0x3b81e93b	0.003964571
176	0xbb8a5c3a	-0.00422242
177	0xbb9f39b2	-0.0048591727
178	0xba92de2a	-0.0011205126
179	0x3bd5c7e2	0.006524072
180	0xbb810ec2	-0.003938527
181	0xbb88ec9f	-0.004178598
182	0x3bf2c56b	0.007408788
183	0xbb9950ed	-0.0046788366
184	0xb9d78de6	-0.00041113718
185	0xbb914bfc	-0.004434107
186	0xbbe79f7b	-0.007068572
187	0x3ba700e2	0.005096541
188	0x3c2c852b	0.010529797
189	0xba66ef40	-0.0008809455
190	0xbaca2582	-0.0015422555
191	0xbabfe453	-0.001464019
192	0x3c00cfc5	0.007862036
193	0x3c24b07a	0.010051841
194	0x3a664112	0.00087835
195	0x3cb21743	0.021739608
196	0x3c40434a	0.011734793
197	0x38145369	3.536363e-05
198	0xbb34271c	-0.0027489131
199	0xbb1c0ad3	-0.0023810163
200	0x3c2f9989	0.010717758
201	0x3ae39a38	0.0017364686
202	0x3bae2708	0.0053147115
203	0xbc4d9b86	-0.012549287
204	0x3c343649	0.010999271
205	0x3b3aceba	0.0028504566
206	0x3bc04eab	0.005868753
207	0xbc30d2df	-0.010792463
208	0xbc5a933a	-0.013340766
209	0xbc09615a	-0.008385027
210	0xbb4165e3	-0.0029510192
211	0xbc3123e7	-0.010811782
212	0x3af8883b	0.0018961498
213	0x3c1d2a77	0.009592644
214	0x3c190129	0.0093386555
215	0x3bdc4ae2	0.006722794
216	0x3c43102d	0.011905712
217	0x383a53f4	4.4424043e-05
218	0x3c04fe92	0.008117335
219	0x3b260ba7	0.0025336535
220	0xbbb53755	-0.0055302777
221	0xba9b166f	-0.0011832247
222	0x3c77a12e	0.015114112
223	0x3bcc1efe	0.0062292805
224	0x3b9b8a64	0.004746722
225	0x3ba25d54	0.0049549732
226	0x3a8c1fdf	0.0010690651
227	0x3b796da8	0.0038059745
228	0x39921ead	0.00027870145
229	0x3a6def1b	0.0009076462
230	0xbaab9748	-0.001309135
231	0x3c8d32a5	0.017236063
232	0x3bc2d7b8	0.005946126
233	0xbc24cb11	-0.01005818
234	0xbc23ddfc	-0.010001656
235	0xb9f24978	-0.00046212575
236	0x3bf11872	0.0073576504
237	0xbbd06c54	-0.00636057
238	0xbb942bbc	-0.004521815
239	0x3c3115b4	0.010808397
240	0xbb8aaa87	-0.004231754
241	0x3be88c59	0.007096809
242	0x3ad84dd5	0.0016502688
243	0xbbcbef9b	-0.0062236316
244	0xbb9e4afa	-0.0048307152
245	0xbbdce77e	-0.006741463
246	0x3c46c725	0.012132441
247	0xbb2bbbac	-0.002620439
248	0xbbe82476	-0.0070844246
249	0x3cb7528e	0.022378232
250	0x3b480980	0.003052324
251	0xbc02b021	-0.007976563
252	0x3844acf0	4.6891102e-05
253	0xbb25ea8b	-0.00253168
254	0xbc496b56	-0.012293657
255	0xbc64c707	-0.013963467

action_model._discrete_distribution.branches.0.bias f4 [3]
0	0x3b75dbd3	0.0037515059
1	0xb92168bd	-0.00015393175
2	0xbb60f703	-0.0034326918

exp_avg f4 [128, 93]
0	0xb76fdb5e	-1.42965855e-05
1	0xb7b9be67	-2.2142382e-05
2	0x35ce58e8	1.5374071e-06
3	0x00000000	0.0
4	0xb6f4bdbf	-7.293856e-06
5	0xb7859259	-1.5922984e-05
6	0xb7b847ba	-2.196791e-05
7	0x36489c6a	2.9893367e-06
8	0x00000000	0.0
9	0xb71609c5	-8.942971e-06
10	0xb7aefc36	-2.0859861e-05
11	0xb7852274	-1.5870879e-05
12	0x35f5825f	1.8291865e-06
13	0x00000000	0.0
14	0xb73ecc97	-1.1372517e-05
15	0xb79d35ee	-1.8740971e-05
16	0xb7107777	-8.610884e-06
17	0x358b68cc	1.0386807e-06
18	0xb71016d6	-8.588386e-06
19	0xb7a093e6	-1.9142357e-05
20	0xb72384aa	-9.746445e-06
21	0x00000000	0.0
22	0xb6ae9b44	-5.2036794e-06
23	0xb7a75d5f	-1.995143e-05
24	0xb7da7dfa	-2.6046288e-05
25	0x376ec73e	1.4232295e-05
26	0xb80c440b	-3.344197e-05
27	0x354d849c	7.6561423e-07
28	0xb78a0e2d	-1.6457483e-05
29	0xb80e0264	-3.3857665e-05
30	0x380b1bb0	3.316597e-05
31	0xb883f219	-6.291661e-05
32	0xb6acd612	-5.1509205e-06
33	0x00000000	0.0
34	0xb7dc4286	-2.6257021e-05
35	0x37cab585	2.4164803e-05
36	0xb8701e5f	-5.7248744e-05
37	0xb5f3f479	-1.8176062e-06
38	0x00000000	0.0
39	0xb79c250a	-1.8613897e-05
40	0x378b7e0a	1.6628783e-05
41	0xb85dd597	-5.2889427e-05
42	0x35b669ef	1.3590887e-06
43	0x00000000	0.0
44	0xb788f5ea	-1.6326976e-05
45	0xb78d9cbc	-1.6881495e-05
46	0xb7876504	-1.6140293e-05
47	0x367e0f09	3.78577e-06
48	0x00000000	0.0
49	0xb7a25b0a	-1.9354298e-05
50	0xb77e38ee	-1.5152835e-05
51	0xb6fef7d3	-7.5986404e-06
52	0x36225285	2.4187914e-06
53	0x00000000	0.0
54	0xb7bb6692	-2.23399e-05
55	0xb736d89d	-1.089848e-05
56	0x36b78f09	5.4704765e-06
57	0x35297676	6.312979e-07
58	0x00000000	0.0
59	0xb8036ed9	-3.133607e-05
60	0xb6e2f622	-6.7639785e-06
61	0x3707507b	8.065365e-06
62	0xb664c5f9	-3.4089883e-06
63	0x00000000	0.0
64	0xb7f2a549	-2.8925615e-05
65	0xb6bd2a14	-5.6375375e-06
66	0x00000000	0.0
67	0xb6769c81	-3.6747954e-06
68	0x00000000	0.0
69	0xb7e73477	-2.7561777e-05
70	0xb6ab70bd	-5.1093216e-06
71	0xb716859b	-8.971804e-06
72	0xb667f17f	-3.4562252e-06
73	0x00000000	0.0
74	0xb7dc0998	-2.6230511e-05
75	0xb738d105	-1.1015921e-05
76	0xb6c11ff9	-5.7555703e-06
77	0xb6b57ce8	-5.4087614e-06
78	0x00000000	0.0
79	0xb7bfb10c	-2.2851418e-05
80	0x36b4451e	5.3724643e-06
81	0xb65002b0	-3.099598e-06
82	0xb6fb777d	-7.494293e-06
83	0x00000000	0.0
84	0xb80f7ef9	-3.421211e-05
85	0x37214235	9.611763e-06
86	0xb7fa9850	-2.9873248e-05
87	0xb6ac0310	-5.126356e-06
88	0x00000000	0.0
89	0xb8092602	-3.2698743e-05
90	0xb659d378	-3.245861e-06
91	0xb7c595c4	-2.355397e-05
92	0xb707eca5	-8.101725e-06
93	0xb74907e9	-1.1982375e-05
94	0xb6f71bbc	-7.3644023e-06
95	0x3678e519	3.7088232e-06
96	0x00000000	0.0
97	0xb660fc6a	-3.3525525e-06
98	0xb77a310a	-1.4912579e-05
99	0xb6b6e7bc	-5.451e-06
100	0x369e90d1	4.725626e-06
101	0x00000000	0.0
102	0xb68d69fa	-4.2144648e-06
103	0xb7959de6	-1.7835711e-05
104	0xb54a7a8d	-7.54292e-07
105	0x36461bc8	2.952047e-06
106	0x00000000	0.0
107	0xb6bccf90	-5.627e-06
108	0xb735088a	-1.0790429e-05
109	0x360d3cae	2.1045958e-06
110	0x35d8d179	1.6154219e-06
111	0xb70fbd51	-8.567543e-06
112	0xb729ca4b	-1.0120285e-05
113	0xb667f724	-3.4565537e-06
114	0x00000000	0.0
115	0xb62efacb	-2.6074001e-06
116	0xb720a008	-9.574003e-06
117	0xb738c64b	-1.1013423e-05
118	0x374949d4	1.1997723e-05
119	0xb7a31cf8	-1.9444604e-05
120	0xb6487950	-2.9872936e-06
121	0xb6ae9c2a	-5.203784e-06
122	0xb78525d9	-1.587246e-05
123	0x379ffdd5	1.9072477e-05
124	0xb7f93532	-2.9707884e-05
125	0xb6a7db99	-5.0025524e-06
126	0x00000000	0.0
127	0xb74f6a5c	-1.2362925e-05
128	0x375e3d4e	1.3246505e-05
129	0xb7d9afd2	-2.5950289e-05
130	0xb644e8b2	-2.9341722e-06
131	0x00000000	0.0
132	0xb7187b70	-9.088646e-06
133	0x3726fe13	9.953527e-06
134	0xb7e103ae	-2.6823804e-05
135	0x35a5661c	1.2323176e-06
136	0x00000000	0.0
137	0xb70ffa01	-8.581673e-06
138	0xb735dec1	-1.0840305e-05
139	0xb67c805b	-3.762564e-06
140	0x3665b702	3.4230184e-06
141	0x00000000	0.0
142	0xb7104eef	-8.601447e-06
143	0xb711a78d	-8.681684e-06
144	0xb651fb4a	-3.1289696e-06
145	0x36147d75	2.2126744e-06
146	0x00000000	0.0
147	0xb720eb17	-9.591479e-06
148	0xb6c9392e	-5.9969234e-06
149	0x36ee7251	7.106261e-06
150	0x34e520a6	4.267833e-07
151	0x00000000	0.0
152	0xb7859917	-1.5926124e-05
153	0xb5e08921	-1.672921e-06
154	0x36fa6751	7.462608e-06
155	0xb619a186	-2.2892796e-06
156	0x00000000	0.0
157	0xb760a856	-1.3390634e-05
158	0xb5cb5ec0	-1.5152254e-06
159	0x00000000	0.0
160	0xb606f114	-2.0107882e-06
161	0x00000000	0.0
162	0xb749f904	-1.2038512e-05
163	0xb5f0f3dd	-1.7952367e-06
164	0xb6de9364	-6.633274e-06
165	0xb603301f	-1.9548531e-06
166	0x00000000	0.0
167	0xb738959f	-1.1002091e-05
168	0xb6bad62c	-5.568165e-06
169	0xb61b261d	-2.3118985e-06
170	0xb5cd5772	-1.529914e-06
171	0x00000000	0.0
172	0xb71e5dfe	-9.439418e-06
173	0x36b062e0	5.2567193e-06
174	0xb3ab7e1a	-7.985746e-08
175	0xb659c6a3	-3.2451142e-06
176	0x00000000	0.0
177	0xb78ff409	-1.7160566e-05
178	0x3704a6f2	7.906683e-06
179	0xb788822a	-1.6273076e-05
180	0xb62e3573	-2.5959132e-06
181	0x00000000	0.0
182	0xb78c2e6f	-1.6710923e-05
183	0xb43c8bcd	-1.7559724e-07
184	0xb749ac1d	-1.2020607e-05
185	0xb666f8dd	-3.4417528e-06
186	0xb7673f19	-1.3783364e-05
187	0xb7942a96	-1.7662805e-05
188	0x352df35e	6.480167e-07
189	0x00000000	0.0
190	0xb6ba0892	-5.5442297e-06
191	0xb77bd1d9	-1.5009625e-05
192	0xb7993e69	-1.8268083e-05
193	0x36266677	2.479557e-06
194	0x00000000	0.0
195	0xb6f00f77	-7.1543577e-06
196	0xb7a08657	-1.9136043e-05
197	0xb7540373	-1.2636988e-05
198	0x3582d8b7	9.748827e-07
199	0x00000000	0.0
200	0xb7174ae9	-9.017743e-06
201	0xb75b55b6	-1.3073373e-05
202	0xb734a9da	-1.0768383e-05
203	0xb475e2df	-2.2899938e-07
204	0xb6e1bbe3	-6.7273954e-06
205	0xb784fe25	-1.5853971e-05
206	0xb6acc772	-5.149218e-06
207	0x00000000	0.0
208	0xb6b24ff3	-5.3141207e-06
209	0xb7aa94ad	-2.0334812e-05
210	0xb7cd5a69	-2.4480005e-05
211	0x366fd25a	3.5736216e-06
212	0xb7cc7cb0	-2.4376757e-05
213	0xb4ee2fc7	-4.4365717e-07
214	0xb7203ec0	-9.551353e-06
215	0xb7d42e28	-2.5293863e-05
216	0x375f62a4	1.3314802e-05
217	0xb828537c	-4.0132072e-05
218	0xb685937c	-3.9808783e-06
219	0x00000000	0.0
220	0xb7973bff	-1.802854e-05
221	0x371412d9	8.825876e-06
222	0xb81b8241	-3.7076188e-05
223	0xb62afb74	-2.547834e-06
224	0x00000000	0.0
225	0xb757c383	-1.286052e-05
226	0x36ba450c	5.55127e-06
227	0xb819080e	-3.6485544e-05
228	0x341229ec	1.361256e-07
229	0x00000000	0.0
230	0xb74589de	-1.1774215e-05
231	0xb73395e5	-1.07041315e-05
232	0xb78af938	-1.6566933e-05
233	0x35af45a1	1.3058781e-06
234	0x00000000	0.0
235	0xb793281f	-1.7542448e-05
236	0xb70ce0e9	-8.397016e-06
237	0xb703abb4	-7.848186e-06
238	0xb41c5f4f	-1.4563305e-07
239	0x00000000	0.0
240	0xb7acf774	-2.0619227e-05
241	0xb669a197	-3.4813763e-06
242	0xb5a0f84d	-1.1993194e-06
243	0xb5951f1f	-1.1110423e-06
244	0x00000000	0.0
245	0xb7e19fda	-2.6896527e-05
246	0xb63cc3d2	-2.8128165e-06
247	0xb4e6a0b7	-4.2957774e-07
248	0xb634b14b	-2.6925288e-06
249	0x00000000	0.0
250	0xb7e0f342	-2.6816157e-05
251	0xb611e375	-2.1739081e-06
252	0x00000000	0.0
253	0xb638de1a	-2.7547417e-06
254	0x00000000	0.0
255	0xb7e1dd44	-2.6925125e-05

exp_avg_sq f4 [128, 93]
0	0x2d24659f	9.344885e-12
1	0x2f35be59	1.6529479e-10
2	0x2bbff34c	1.3638895e-12
3	0x00000000	0.0
4	0x2da8b945	1.9181665e-11
5	0x2d33ef3a	1.0228091e-11
6	0x2f2e1075	1.5831055e-10
7	0x2baa982b	1.2121462e-12
8	0x00000000	0.0
9	0x2de086d9	2.5525736e-11
10	0x2d8b4d0f	1.5836691e-11
11	0x2f254544	1.503127e-10
12	0x2b8c6923	9.97678e-13
13	0x00000000	0.0
14	0x2e484c7e	4.5542674e-11
15	0x2d94c075	1.691112e-11
16	0x2eb30e65	8.1425346e-11
17	0x2c237162	2.3226633e-12
18	0x2e0a70e5	3.1477838e-11
19	0x2ed8841e	9.8460115e-11
20	0x2d3468b6	1.0255066e-11
21	0x00000000	0.0
22	0x2cc8d2ab	5.7077307e-12
23	0x2f3487b6	1.6419119e-10
24	0x2f387546	1.6776366e-10
25	0x2d97eee9	1.727281e-11
26	0x2f321b38	1.6198676e-10
27	0x2cc283a6	5.5284275e-12
28	0x2eb21bd3	8.0994454e-11
29	0x2f00165e	1.1649479e-10
30	0x2e1f7375	3.625496e-11
31	0x2f9815ee	2.766422e-10
32	0x2c9a209e	4.3805645e-12
33	0x00000000	0.0
34	0x2e94b098	6.76163e-11
35	0x2daaeaa4	1.9430964e-11
36	0x2f87f869	2.4732863e-10
37	0x2c22d081	2.3137328e-12
38	0x00000000	0.0
39	0x2e24bf0b	3.7458963e-11
40	0x2d4a8b4f	1.1513303e-11
41	0x2f7bcd6b	2.2901296e-10
42	0x2bd780b0	1.5312387e-12
43	0x00000000	0.0
44	0x2dfd831a	2.882099e-11
45	0x2d897ed8	1.5631427e-11
46	0x2eac8d22	7.846725e-11
47	0x2c08cd88	1.9440855e-12
48	0x00000000	0.0
49	0x2edb1d9e	9.964228e-11
50	0x2d95753a	1.6991398e-11
51	0x2ebaf5b2	8.501945e-11
52	0x2bd7e20c	1.5339409e-12
53	0x00000000	0.0
54	0x2f065c25	1.2219965e-10
55	0x2d9942c0	1.7423729e-11
56	0x2eb0f198	8.046469e-11
57	0x2baf7ef9	1.246974e-12
58	0x00000000	0.0
59	0x2f15b0e3	1.3614314e-10
60	0x2d9b13a5	1.7630184e-11
61	0x2e995ede	6.974486e-11
62	0x2ceca050	6.7253217e-12
63	0x00000000	0.0
64	0x2f2c8865	1.5691766e-10
65	0x2da0b715	1.8271199e-11
66	0x00000000	0.0
67	0x2d094016	7.801778e-12
68	0x00000000	0.0
69	0x2f3fda01	1.74488e-10
70	0x2da7e45a	1.908711e-11
71	0x2df6df1f	2.8066048e-11
72	0x2cedb575	6.756091e-12
73	0x00000000	0.0
74	0x2f2b9fd6	1.5609145e-10
75	0x2d8cf217	1.6023667e-11
76	0x2e0401a2	3.0014775e-11
77	0x2cc54885	5.607128e-12
78	0x00000000	0.0
79	0x2f0a0234	1.255181e-10
80	0x2d272255	9.500474e-12
81	0x2e114332	3.3028864e-11
82	0x2d13d512	8.403294e-12
83	0x00000000	0.0
84	0x2f08c80f	1.2440203e-10
85	0x2d63b5d5	1.2943831e-11
86	0x2f287f4f	1.532474e-10
87	0x2cde8d4c	6.3253066e-12
88	0x00000000	0.0
89	0x2ef09613	1.0940595e-10
90	0x2e110fe8	3.298331e-11
91	0x2ea29e7b	7.395059e-11
92	0x2ebaef77	8.500838e-11
93	0x2d227ec5	9.236782e-12
94	0x2ea5decb	7.542907e-11
95	0x2bbfcf72	1.3628944e-12
96	0x00000000	0.0
97	0x2d6a7a15	1.3328468e-11
98	0x2d5756ad	1.2240581e-11
99	0x2e955800	6.7913675e-11
100	0x2c2f57e1	2.4917778e-12
101	0x00000000	0.0
102	0x2d937780	1.6765034e-11
103	0x2d7e429e	1.445302e-11
104	0x2e96de06	6.8606495e-11
105	0x2c2387dc	2.323911e-12
106	0x00000000	0.0
107	0x2e053e10	3.029582e-11
108	0x2d57cb86	1.2266526e-11
109	0x2ddbeae6	2.5001733e-11
110	0x2c3fab84	2.7237943e-12
111	0x2e0d61ca	3.2146542e-11
112	0x2e87f54e	6.182664e-11
113	0x2caf81af	4.988197e-12
114	0x00000000	0.0
115	0x2c61596a	3.2024058e-12
116	0x2e964a88	6.83445e-11
117	0x2ea4af1a	7.488961e-11
118	0x2d3b253c	1.0637987e-11
119	0x2ecf6e2a	9.432839e-11
120	0x2cb84c99	5.2380986e-12
121	0x2d5f228d	1.2683754e-11
122	0x2e09c0fd	3.13216e-11
123	0x2da9d1fa	1.9306324e-11
124	0x2f036971	1.1951841e-10
125	0x2c7e5ed3	3.614821e-12
126	0x00000000	0.0
127	0x2d89514c	1.56112e-11
128	0x2d6ed924	1.3576949e-11
129	0x2ee027c0	1.0193402e-10
130	0x2bb1a3d8	1.2622082e-12
131	0x00000000	0.0
132	0x2d16cb9d	8.571724e-12
133	0x2d272618	9.5013095e-12
134	0x2ede57c2	1.011098e-10
135	0x2b58a86a	7.6972337e-13
136	0x00000000	0.0
137	0x2cf0af81	6.840695e-12
138	0x2d246ffe	9.347188e-12
139	0x2db9ca24	2.1121833e-11
140	0x2c4986aa	2.8638572e-12
141	0x00000000	0.0
142	0x2e82ad9d	5.9425555e-11
143	0x2d203c31	9.108312e-12
144	0x2d7d87d2	1.4411543e-11
145	0x2c0ab93c	1.9713805e-12
146	0x00000000	0.0
147	0x2e9bf46b	7.092001e-11
148	0x2d232b0c	9.275036e-12
149	0x2d69c04a	1.3287213e-11
150	0x2b6f9e7d	8.5129804e-13
151	0x00000000	0.0
152	0x2ea2ee4b	7.4092364e-11
153	0x2d50708d	1.1848422e-11
154	0x2d3b8ede	1.0661442e-11
155	0x2c1f99ba	2.2680594e-12
156	0x00000000	0.0
157	0x2ea886e8	7.66372e-11
158	0x2d3ebc83	1.0842108e-11
159	0x00000000	0.0
160	0x2c1b3705	2.2057367e-12
161	0x00000000	0.0
162	0x2eae42be	7.92446e-11
163	0x2d3e18b9	1.0805739e-11
164	0x2e03636b	2.9874252e-11
165	0x2c13ee2c	2.1022168e-12
166	0x00000000	0.0
167	0x2e8ffe8d	6.5481044e-11
168	0x2d103722	8.197694e-12
169	0x2e05546d	3.0315684e-11
170	0x2b99e03d	1.0933542e-12
171	0x00000000	0.0
172	0x2e3ffb3d	4.3651516e-11
173	0x2c959aef	4.252036e-12
174	0x2e11cd2d	3.3151416e-11
175	0x2c0bcdf9	1.9867426e-12
176	0x00000000	0.0
177	0x2e2cd945	3.9301246e-11
178	0x2cd77d59	6.124584e-12
179	0x2eb9f10a	8.455643e-11
180	0x2be952fe	1.6578681e-12
181	0x00000000	0.0
182	0x2e0a8f8e	3.150507e-11
183	0x2e121256	3.3212842e-11
184	0x2df3a743	2.770018e-11
185	0x2d7fc0d1	1.4537886e-11
186	0x2cf0e083	6.846136e-12
187	0x2e47e93e	4.5454522e-11
188	0x2a96b833	2.6773166e-13
189	0x00000000	0.0
190	0x2cf30122	6.906601e-12
191	0x2d036fab	7.471283e-12
192	0x2e3b8fb1	4.26465e-11
193	0x2aa900cc	3.0020984e-13
194	0x00000000	0.0
195	0x2d236998	9.288924e-12
196	0x2d365c1a	1.0365953e-11
197	0x2e2e47e6	3.9626878e-11
198	0x2ab98176	3.2952433e-13
199	0x00000000	0.0
200	0x2d9016dd	1.6381058e-11
201	0x2cc7f4d9	5.6831037e-12
202	0x2d7194ea	1.37323295e-11
203	0x2b40a340	6.843866e-13
204	0x2da6e058	1.8971644e-11
205	0x2e05a59c	3.038779e-11
206	0x2c049a5f	1.8844021e-12
207	0x00000000	0.0
208	0x2c1b0c2d	2.2033584e-12
209	0x2e35750f	4.1258604e-11
210	0x2e522825	4.7784127e-11
211	0x2bf805de	1.7623088e-12
212	0x2e22eb9a	3.704379e-11
213	0x2b434530	6.9373934e-13
214	0x2d457cd9	1.1225875e-11
215	0x2de451ae	2.5956872e-11
216	0x2ca49909	4.6781507e-12
217	0x2ea3152d	7.4161434e-11
218	0x2b9a9cfe	1.0985932e-12
219	0x00000000	0.0
220	0x2d7c637d	1.4346632e-11
221	0x2c38af53	2.6245297e-12
222	0x2e9542c4	6.7875955e-11
223	0x2b53dcc6	7.5268643e-13
224	0x00000000	0.0
225	0x2d0888e8	7.761104e-12
226	0x2bbf255b	1.3581734e-12
227	0x2e8a075e	6.276822e-11
228	0x2ae3bd59	4.0454687e-13
229	0x00000000	0.0
230	0x2cd3a285	6.015024e-12
231	0x2cc00872	5.457906e-12
232	0x2d9bb17a	1.7700275e-11
233	0x2b74ea28	8.701117e-13
234	0x00000000	0.0
235	0x2e09f65d	3.1369008e-11
236	0x2c95cdac	4.257669e-12
237	0x2d5831bd	1.2289223e-11
238	0x2b64ef48	8.133394e-13
239	0x00000000	0.0
240	0x2e1c1315	3.548724e-11
241	0x2c8ef7f3	4.0634106e-12
242	0x2d24c0c0	9.36512e-12
243	0x2b1ccf7e	5.5710287e-13
244	0x00000000	0.0
245	0x2e35f24f	4.136985e-11
246	0x2cd26aed	5.98043e-12
247	0x2d03f062	7.499864e-12
248	0x2c1788f8	2.1534424e-12
249	0x00000000	0.0
250	0x2e4a8d55	4.605501e-11
251	0x2cb1f81a	5.0581874e-12
252	0x00000000	0.0
253	0x2c00162c	1.8202202e-12
254	0x00000000	0.0
255	0x2e5bf86c	5.0015478e-11

exp_avg f4 [128]
0	0xb8126344	-3.490156e-05
1	0xb7832e43	-1.563796e-05
2	0xb8012d43	-3.079815e-05
3	0x3735aaeb	1.0828236e-05
4	0xb8f7c0cf	-0.00011813791
5	0xb7730754	-1.4485635e-05
6	0x367f36bb	3.8029818e-06
7	0xb84d3d3b	-4.8932834e-05
8	0x371c2a4e	9.308174e-06
9	0xb797ddda	-1.810391e-05
10	0xb71e8f35	-9.450877e-06
11	0x37dcccc4	2.6321395e-05
12	0xb8130462	-3.5051613e-05
13	0x370a0a39	8.227821e-06
14	0xb7b0d579	-2.1080241e-05
15	0x36b81a5b	5.4866955e-06
16	0xb8b00270	-8.392788e-05
17	0xb7a4110c	-1.9558262e-05
18	0xb82257b8	-3.8705504e-05
19	0x388fe49a	6.861352e-05
20	0xb827e661	-4.003046e-05
21	0xb89411c4	-7.060499e-05
22	0x37ed799c	2.830923e-05
23	0xb79ec2f1	-1.8925844e-05
24	0x3798cabb	1.8214216e-05
25	0xb8ee50b3	-0.00011363756
26	0xb79139bc	-1.7312232e-05
27	0xb7889438	-1.6281483e-05
28	0x376f4c4c	1.4263274e-05
29	0xb635c04c	-2.7083033e-06
30	0x381751d7	3.6077425e-05
31	0x37a8c7be	2.0120173e-05
32	0x37e4ca17	2.7273823e-05
33	0x38214192	3.844646e-05
34	0x3886f53d	6.435297e-05
35	0x37ad9b62	2.0695563e-05
36	0x370d669e	8.428147e-06
37	0x381ac223	3.6897265e-05
38	0x378d6ab6	1.6858201e-05
39	0x361f5168	2.374023e-06
40	0xb80ead9a	-3.4017117e-05
41	0xb7e74388	-2.7568793e-05
42	0xb6dc98b3	-6.5742875e-06
43	0xb8c9ecd6	-9.628541e-05
44	0xb826c81d	-3.9763854e-05
45	0x35a8daed	1.2580691e-06
46	0xb7b78a46	-2.1879689e-05
47	0xb807592e	-3.2269563e-05
48	0xb81a9786	-3.685758e-05
49	0xb88cdbc5	-6.7166555e-05
50	0x37ae5322	2.0781128e-05
51	0xb8d919be	-0.00010352161
52	0x37b55b07	2.161927e-05
53	0x3835c97a	4.3341402e-05
54	0xb562a6b7	-8.443416e-07
55	0xb6a1e4fd	-4.8248316e-06
56	0xb7cfd6e1	-2.4776384e-05
57	0xb713d8ac	-8.812331e-06
58	0xb8ca04c8	-9.633001e-05
59	0x3799c492	1.8330556e-05
60	0x383bea5e	4.4802546e-05
61	0x37ef218d	2.8506644e-05
62	0xb79511bb	-1.777044e-05
63	0x371c2ad9	9.308301e-06
64	0xb811a0ab	-3.4720328e-05
65	0x38025fb0	3.108353e-05
66	0xb8391f1f	-4.413642e-05
67	0x3763de21	1.3581973e-05
68	0xb883aac9	-6.278378e-05
69	0x373af54b	1.1143576e-05
70	0xb6f4c452	-7.2946214e-06
71	0x381d243c	3.7465463e-05
72	0xb8f132a0	-0.00011501205
73	0x3554237c	7.902779e-07
74	0x36fbc07f	7.5027924e-06
75	0x35ff6511	1.9028395e-06
76	0xb5079783	-5.05119e-07
77	0xb6d38201	-6.3034245e-06
78	0xb72d8c92	-1.0344333e-05
79	0x37840777	1.5739102e-05
80	0xb52f9496	-6.54088e-07
81	0xb93784e3	-0.00017501744
82	0xb60a14ce	-2.0575712e-06
83	0xb7d2ddc9	-2.5137228e-05
84	0xb6ff6e0b	-7.612403e-06
85	0xb7755873	-1.4623732e-05
86	0x33c69d9c	9.2487625e-08
87	0xb802e054	-3.1203337e-05
88	0xb87b6de5	-5.994541e-05
89	0xb776502f	-1.4681412e-05
90	0x37a78482	1.9969655e-05
91	0xb7adfbf1	-2.0740526e-05
92	0x37cb0502	2.4201818e-05
93	0xb8094132	-3.2724063e-05
94	0x370d853c	8.435276e-06
95	0x383b4996	4.4652807e-05
96	0xb56aad8d	-8.742434e-07
97	0x37d5b821	2.547732e-05
98	0xb7b20c7b	-2.1225065e-05
99	0xb824c2f0	-3.9282197e-05
100	0x371e751f	9.444803e-06
101	0x37c12380	2.3023924e-05
102	0xb5d67571	-1.5978422e-06
103	0x3735c768	1.0834869e-05
104	0x37414234	1.1519111e-05
105	0xb749776c	-1.2008339e-05
106	0xb7d87920	-2.580561e-05
107	0xb8aedf90	-8.338608e-05
108	0x379c9838	1.8667532e-05
109	0xb7508180	-1.2427918e-05
110	0xb7ebea46	-2.8123275e-05
111	0xb7fb14fe	-2.9931307e-05
112	0x37261448	9.899093e-06
113	0xb71fadfb	-9.5176465e-06
114	0xb6bcac45	-5.6228914e-06
115	0xb8268972	-3.970549e-05
116	0xb7afe24e	-2.0967007e-05
117	0xb8519819	-4.9971135e-05
118	0x369a3598	4.595797e-06
119	0xb92cd778	-0.00016483467
120	0x38600e6f	5.3419204e-05
121	0x360b2cf2	2.0738776e-06
122	0xb7b0c89c	-2.1074251e-05
123	0xb8828763	-6.224101e-05
124	0x368eaded	4.2521774e-06
125	0x36d08aaa	6.2150257e-06
126	0x37471cd4	1.1868036e-05
127	0x368435c5	3.940166e-06

exp_avg_sq f4 [128]
0	0x2f4db608	1.8709312e-10
1	0x2eb6cde8	8.312978e-11
2	0x2e8464e5	6.0205875e-11
3	0x2ece4bfe	9.3812944e-11
4	0x3054eced	7.746184e-10
5	0x2d3d6e57	1.07679065e-11
6	0x2cc0df18	5.4817366e-12
7	0x2fa9f1ca	3.0912722e-10
8	0x2d01f4cd	7.387158e-12
9	0x2ee84aa1	1.0563395e-10
10	0x2e3eee1a	4.3412475e-11
11	0x2ea05c29	7.2923285e-11
12	0x2f21e7b8	1.4725188e-10
13	0x2dc656b2	2.2548494e-11
14	0x2e95784b	6.797104e-11
15	0x2de8cfe6	2.6467672e-11
16	0x2ff9e224	4.545352e-10
17	0x2e18873b	3.4680907e-11
18	0x2f27bad2	1.5254933e-10
19	0x2ff1c751	4.3979267e-10
20	0x2ea4d040	7.494849e-11
21	0x3020c568	5.848819e-10
22	0x2f782603	2.2568973e-10
23	0x2fea3a1a	4.2605636e-10
24	0x2e88b426	6.216565e-11
25	0x30b0b910	1.2858283e-09
26	0x2e414157	4.3941153e-11
27	0x2e570c8b	4.889648e-11
28	0x2e3c2b9a	4.2784977e-11
29	0x2eaf8a5e	7.9826576e-11
30	0x2f2c3bf9	1.5664615e-10
31	0x2dc50db6	2.2402396e-11
32	0x2f9b90a5	2.8297112e-10
33	0x2f712ab3	2.1933992e-10
34	0x3013f1e2	5.3822025e-10
35	0x2e5facfd	5.0857974e-11
36	0x2dd0c7fc	2.3735673e-11
37	0x2ff8311a	4.5145826e-10
38	0x2f972026	2.7489583e-10
39	0x2f86f70c	2.4549995e-10
40	0x2f01c48b	1.1802308e-10
41	0x2f6fe5df	2.181859e-10
42	0x2cb25a78	5.0691083e-12
43	0x302ae5be	6.2172123e-10
44	0x309ec73f	1.1552642e-09
45	0x2ced4cde	6.744479e-12
46	0x2e45fdc5	4.5018007e-11
47	0x2ef5db31	1.1180246e-10
48	0x2eb3ba33	8.173053e-11
49	0x2fde1f42	4.0403775e-10
50	0x2eb8022e	8.3677384e-11
51	0x306c31db	8.592715e-10
52	0x2e836d1a	5.9765706e-11
53	0x2f41bd6c	1.7620544e-10
54	0x2dcac056	2.3050156e-11
55	0x2e3b042f	4.2522593e-11
56	0x2e82a823	5.9415826e-11
57	0x2d993bb4	1.74206e-11
58	0x309e3e9e	1.151381e-09
59	0x2e17bfcf	3.4503785e-11
60	0x2f3fba73	1.7437589e-10
61	0x2f1d0861	1.4282044e-10
62	0x2eb66063	8.2935235e-11
63	0x2dd26ce3	2.3922591e-11
64	0x2f8b2edf	2.5317257e-10
65	0x2f8358c2	2.3891827e-10
66	0x308c02df	1.0187157e-09
67	0x2dbd2086	2.1501256e-11
68	0x300ec2fe	5.19364e-10
69	0x2e36c2f1	4.155515e-11
70	0x2ec9329d	9.1494125e-11
71	0x2f9b22f0	2.821916e-10
72	0x30bb41bd	1.3624725e-09
73	0x2d2bec82	9.77274e-12
74	0x2cfc61d7	7.173133e-12
75	0x2f0a2619	1.2564562e-10
76	0x2d51834e	1.190943e-11
77	0x2d9a308b	1.752933e-11
78	0x2e9eb980	7.2179596e-11
79	0x2f7bfbc9	2.2917769e-10
80	0x2f0291e3	1.187526e-10
81	0x3100cbf7	1.8742392e-09
82	0x2d943def	1.6853156e-11
83	0x2f8034fb	2.332071e-10
84	0x2d8f9fcf	1.6328187e-11
85	0x2e28a5f1	3.8346163e-11
86	0x2d929d66	1.6668177e-11
87	0x2f10aca1	1.3158054e-10
88	0x2fa8e6e4	3.072308e-10
89	0x2e05d57e	3.0430318e-11
90	0x2db5ace4	2.0654096e-11
91	0x2eebdf5b	1.07262386e-10
92	0x2f11f63d	1.3275155e-10
93	0x2f26d574	1.5173446e-10
94	0x2e79d45e	5.6804665e-11
95	0x2f8dfcd9	2.582741e-10
96	0x2e472b09	4.5285584e-11
97	0x2f710213	2.1919559e-10
98	0x2e7570c9	5.5806724e-11
99	0x2ed11878	9.508566e-11
100	0x2f3c8533	1.7145822e-10
101	0x2e5ab21c	4.9725654e-11
102	0x2bd63800	1.5221158e-12
103	0x2f1bf16d	1.418294e-10
104	0x2d86ae33	1.5311396e-11
105	0x2dc8e965	2.2841016e-11
106	0x2dc09061	2.189199e-11
107	0x300774bb	4.92786e-10
108	0x2e84adc7	6.033534e-11
109	0x2dbdcca4	2.1577691e-11
110	0x2eb1395c	8.059217e-11
111	0x2e516730	4.7612747e-11
112	0x2f05999a	1.215085e-10
113	0x2e646d2d	5.1938166e-11
114	0x2d531066	1.19976026e-11
115	0x2ee2262e	1.0284072e-10
116	0x2e913a8d	6.604237e-11
117	0x2f992a1f	2.7860467e-10
118	0x2f21294a	1.4657534e-10
119	0x314eb65d	3.0080607e-09
120	0x2ff8f77a	4.528678e-10
121	0x2f260d56	1.510235e-10
122	0x2ec60d99	9.006413e-11
123	0x2fd311b6	3.839326e-10
124	0x2e508c53	4.7418357e-11
125	0x2ce87a8e	6.607443e-12
126	0x2e29b87f	3.8590017e-11
127	0x2d009f3e	7.3113165e-12
