results/ppo/My Behavior/My Behavior-0.pt (torch, 220935 bytes, 11 tensors)

network_body._body_endoder.seq_layers.0.weight f4 [128, 75]
00000000: 6c9d b4be 9c78 16be e4d6 823d 0b6f 303d
00000010: 6900 703c e960 303e e5a6 7f3e 7811 383d
00000020: 5a92 543e c1af f9bc 3754 54be cabd 493b
00000030: e721 13bd 0ef8 d3bd d5e7 333c 352f 8dbd
00000040: a108 633d d154 0dbe 3d84 8e3c a6c4 44bd
00000050: 50ed 383e 67b0 97bd 5473 3bbb 1040 863d
00000060: 1981 84bd 7d6b a0bd 16e2 0dbe 029d 3c3d
00000070: a423 15be ff84 ec3d fef0 b9bd d5c1 9b3e
00000080: 0e23 b03c 9504 e83c 797d c9bb 13a9 5f3d
00000090: a154 343e 2cbf 7abd 63e0 8dbd 9681 633c
000000a0: 6126 da3c a15c a33c a927 bdbd f6b6 853d
000000b0: a825 dabb ad80 10bd d0a8 3ebe 1a1e 69bd
000000c0: 97cb febc 811e 4f3e 3b34 bebd 0e39 3bbd
000000d0: 3e08 a53e 61b2 ad3d 4848 e7bb 477d 893e
000000e0: 127e f73c 8d89 273e 4c0a 1bbd 884c 713d
000000f0: 076c b7bd 99d8 bfbc 2843 82bc 745a 1ebc
00000100: 5f24 823d 69fa 9d3d a458 ecbd 445a aebd
00000110: be0e 843d a923 efbc 5c79 f1ba 29b8 e3bb
00000120: 8740 ebbc 3428 aabd d9d9 8e3d d9d2 66be
00000130: 928f 773d 871d d4bd 5036 5e3c 92f3 963d
00000140: dd77 a6bd 4386 313d d461 f03d 293c 66bd
00000150: adb3 a7bd 3e4f 1f3e 361a 113d ae8b ffbd
00000160: dd03 34be c3a0 84be 839c 103d 32e3 063d
00000170: 9971 49bd f5db 823e 3ab8 88be 89c8 51bd
00000180: ec0a 1ebd a56d 55be 10ea cd3c 8f68 6c3d
00000190: 76c4 42bb 1043 5dba 1802 2c3e 66a9 a3bd
000001a0: 6ff2 293e 509c 87be 86f9 3e3e 5a52 af3d
000001b0: 845e c7bd 4219 1d3e 71cd 483d eeca 97bd
000001c0: b692 e5bc db71 bc3d 6562 933e 6f7e 843d
000001d0: c985 5f3d c2bc 07bd 9996 68bd 141b 90be
000001e0: ac3d 8c3c b3e7 c73d 6a13 d9bd cb11 04be
000001f0: 1f5f 81be 6915 0ebd fb43 58be 7218 193e
00000200: 8bdc a8bd 2042 0a3d f0ae 89bd e0db 333d
00000210: c44a 2dbd af25 9e3d 51d7 2cbe da84 b4bc
00000220: 1b8e d5bd b66e 8abe 690c 4dbe 9a91 5e3e
00000230: d6c9 d83c 9a2a 213e 0f77 223e dd52 793d
00000240: 7480 91bd dc1b 3f3e 9e5c b7bc 0ce3 083e
00000250: ff2c 1b3c bcc7 64bc 0df2 b63c 5a6d bf3c
00000260: 8b93 7e3d 390d 073e 62ed cdbc e141 393e
00000270: 7d03 c83d ef44 02bd ac9b 38bd 7767 fd3d
00000280: 1e56 69bd 2436 623b 133d 003d 52fb 8dbd
00000290: db8d 8cbc 49f8 a23d f6dd 673d b4de 40bd
000002a0: 5f76 b03d daa1 1e3c 655f c5bd 4d0d 413d
000002b0: 8c25 e8bb edaf b03d 66d9 b0bb 6fda 2e3d
000002c0: 2300 2ebe 8a13 153e d27c bf3d ee6e 70bd
000002d0: 950f 5bbe 0f19 4a3b 240c 27be d308 753d
000002e0: b81b 9bbd 8a4e 263d 99bb 26be 3e82 ad3d
000002f0: b73e 043d 53cb 093e 8fde 2abe e808 953d
00000300: 3d98 ffbc 8f90 913d 201d 513d 3576 7bbd
00000310: 5e8f 3a3c 3978 f03d 90c6 43bd 8e8d 2d3e
00000320: f9c0 3e3d 6303 103c bd01 0b3c cda8 bebc
00000330: 55fd 703e 3fe6 04bc 7170 c13d b08b c1bd
00000340: 6af3 9ebe 2df9 01bd e7e8 14be 0e9c 62be
00000350: c526 ce3c 060b 51bc 2a84 ab3d 12a1 c7bd
00000360: 3552 ab3d dc7f abbd 6e52 b3bb d93d ff3b
00000370: d21b a9bc 3b8e c73d 53f7 e33c 0ba4 d4bd
00000380: 2543 ba3c d28e 75be a071 61bc e3e7 d5bd
00000390: bc98 903c c7b7 35bd 8262 e2bc 28f8 f3bc
000003a0: 84ae 1a3e d6e4 583d fb22 573d b389 1ebe
000003b0: ad50 8c3d 0429 543d c8d1 7cbd fc26 46bd
000003c0: c9fe 47bc 2b21 973b 7958 56be f42b ab3d
000003d0: f655 a53d 626f 20bd 7224 363c 74ca 07be
000003e0: bd5c 823d 27f5 543c c639 653d 07e3 933d
000003f0: b1c5 27bd 242a 84bc f3c1 323e 83e0 20bd
-0.35276353 -0.14694446 0.063886434 0.04307465 0.014648535 0.17224468 0.24966009 0.044938534
0.20758954 -0.030479314 -0.2073525 0.003078329 -0.035921004 -0.10350047 0.010980566 -0.0689377
0.05542815 -0.13801886 0.01739704 -0.0480391 0.18059278 -0.07406693 -0.0028602676 0.06555188
-0.06469936 -0.07833002 -0.13855776 0.04604817 -0.14564377 0.115488045 -0.09079169 0.3042132
0.02150109 0.028322497 -0.0061489907 0.0546046 0.17610408 -0.061217472 -0.06927564 0.013885876
0.026629629 0.01994163 -0.0923608 0.06529038 -0.006657321 -0.035278965 -0.18619084 -0.056913473
-0.031102939 0.2022648 -0.09287306 -0.04570871 0.3223285 0.08481289 -0.007058177 0.26853392
0.030211482 0.16361065 -0.037851617 0.058910877 -0.089561515 -0.023418711 -0.015901163 -0.00966512
0.063545935 0.077137776 -0.11540344 -0.085133106 0.06448124 -0.029191809 -0.0018423009 -0.006949444
-0.028717292 -0.083084494 0.06975145 -0.2254137 0.060439654 -0.103571944 0.013562754 0.07370676
-0.08128331 0.043340933 0.11737409 -0.056209717 -0.08188567 0.15557572 0.035425387 -0.12477814
-0.17579599 -0.259039 0.03530551 0.032931514 -0.0491806 0.2555844 -0.26703054 -0.051216636
-0.038584635 -0.20842607 0.025136024 0.057716902 -0.002971915 -0.0008440474 0.16797674 -0.079912946
0.16596387 -0.26486444 0.18649873 0.08560629 -0.09734824 0.15341666 0.04902405 -0.07411753
-0.028024059 0.09201404 0.28786007 0.06469428 0.054570947 -0.033138998 -0.056784246 -0.2814566
0.017119251 0.0976099 -0.10599406 -0.12897412 -0.25267884 -0.034688387 -0.21119682 0.14950731
-0.0824519 0.033754468 -0.0672282 0.04391086 -0.04230763 0.07722031 -0.16879012 -0.022036005
-0.10427495 -0.2703759 -0.20024265 0.2173523 0.02646343 0.15738907 0.1586573 0.06087004
-0.071045786 0.18662971 -0.02238303 0.13367862 0.009471177 -0.013963636 0.022332216 0.023367573
0.062152427 0.13188638 -0.025137607 0.18091537 0.0976629 -0.03180402 -0.045070335 0.1237325
-0.056966893 0.0034517134 0.031308245 -0.06932701 -0.017157486 0.07957513 0.056608163 -0.047087386
0.086163275 0.009682143 -0.09637336 0.047131825 -0.007084554 0.08627305 -0.0053970097 0.042688783
-0.1699224 0.14558235 0.093499795 -0.05869954 -0.21392663 0.003083769 -0.16313225 0.05982287
-0.07573646 0.040602244 -0.162825 0.08472107 0.032286372 0.13456468 -0.16686462 0.07277089
-0.031200523 0.071076505 0.051053166 -0.061392028 0.01138672 0.11741681 -0.047796786 0.1694853
0.04657075 0.00878987 0.008484301 -0.02327385 0.23534139 -0.008111536 0.094452746 -0.094504714
-0.31045085 -0.031731773 -0.1454197 -0.22129843 0.025164971 -0.012758976 0.08374818 -0.097475186
0.08365289 -0.083739966 -0.005472473 0.0077893552 -0.020643149 0.09743925 0.027827894 -0.10382851
0.022737095 -0.23980263 -0.0137600005 -0.104446195 0.017650954 -0.044364717 -0.027634863 -0.029781416
0.15105635 0.05295261 0.052523594 -0.15482216 0.06851325 0.051796928 -0.0617235 -0.048377022
-0.012206742 0.004612108 -0.20932187 0.08357993 0.080730364 -0.039168723 0.011117088 -0.13260823
0.06365345 0.012997902 0.0559633 0.072210364 -0.040960018 -0.016133375 0.17456798 -0.03927661

network_body._body_endoder.seq_layers.0.bias f4 [128]
00000000: 0000 0000 0000 0000 0000 0000 0000 0000
00000010: 0000 0000 0000 0000 0000 0000 0000 0000
00000020: 0000 0000 0000 0000 0000 0000 0000 0000
00000030: 0000 0000 0000 0000 0000 0000 0000 0000
00000040: 0000 0000 0000 0000 0000 0000 0000 0000
00000050: 0000 0000 0000 0000 0000 0000 0000 0000
00000060: 0000 0000 0000 0000 0000 0000 0000 0000
00000070: 0000 0000 0000 0000 0000 0000 0000 0000
00000080: 0000 0000 0000 0000 0000 0000 0000 0000
00000090: 0000 0000 0000 0000 0000 0000 0000 0000
000000a0: 0000 0000 0000 0000 0000 0000 0000 0000
000000b0: 0000 0000 0000 0000 0000 0000 0000 0000
000000c0: 0000 0000 0000 0000 0000 0000 0000 0000
000000d0: 0000 0000 0000 0000 0000 0000 0000 0000
000000e0: 0000 0000 0000 0000 0000 0000 0000 0000
000000f0: 0000 0000 0000 0000 0000 0000 0000 0000
00000100: 0000 0000 0000 0000 0000 0000 0000 0000
00000110: 0000 0000 0000 0000 0000 0000 0000 0000
00000120: 0000 0000 0000 0000 0000 0000 0000 0000
00000130: 0000 0000 0000 0000 0000 0000 0000 0000
00000140: 0000 0000 0000 0000 0000 0000 0000 0000
00000150: 0000 0000 0000 0000 0000 0000 0000 0000
00000160: 0000 0000 0000 0000 0000 0000 0000 0000
00000170: 0000 0000 0000 0000 0000 0000 0000 0000
00000180: 0000 0000 0000 0000 0000 0000 0000 0000
00000190: 0000 0000 0000 0000 0000 0000 0000 0000
000001a0: 0000 0000 0000 0000 0000 0000 0000 0000
000001b0: 0000 0000 0000 0000 0000 0000 0000 0000
000001c0: 0000 0000 0000 0000 0000 0000 0000 0000
000001d0: 0000 0000 0000 0000 0000 0000 0000 0000
000001e0: 0000 0000 0000 0000 0000 0000 0000 0000
000001f0: 0000 0000 0000 0000 0000 0000 0000 0000
0.0 0.0 0.0 0.0 0.0 0.0 0.0 0.0
0.0 0.0 0.0 0.0 0.0 0.0 0.0 0.0
0.0 0.0 0.0 0.0 0.0 0.0 0.0 0.0
0.0 0.0 0.0 0.0 0.0 0.0 0.0 0.0
0.0 0.0 0.0 0.0 0.0 0.0 0.0 0.0
0.0 0.0 0.0 0.0 0.0 0.0 0.0 0.0
0.0 0.0 0.0 0.0 0.0 0.0 0.0 0.0
0.0 0.0 0.0 0.0 0.0 0.0 0.0 0.0
0.0 0.0 0.0 0.0 0.0 0.0 0.0 0.0
0.0 0.0 0.0 0.0 0.0 0.0 0.0 0.0
0.0 0.0 0.0 0.0 0.0 0.0 0.0 0.0
0.0 0.0 0.0 0.0 0.0 0.0 0.0 0.0
0.0 0.0 0.0 0.0 0.0 0.0 0.0 0.0
0.0 0.0 0.0 0.0 0.0 0.0 0.0 0.0
0.0 0.0 0.0 0.0 0.0 0.0 0.0 0.0
0.0 0.0 0.0 0.0 0.0 0.0 0.0 0.0

network_body._body_endoder.seq_layers.2.weight f4 [128, 128]
00000000: f75a f5bd 52ca 30bd 79d0 aebd 517b fd3d
00000010: 3d02 543e 7a91 75bd 77ec 0dbe adef b03d
00000020: 5f33 823c 5235 21bd 19df 6ebd 86b8 bf3d
00000030: bf96 75bd d946 ee3a 5417 32bd 63e8 3ebd
00000040: b7d1 cebc 167f 633d f302 31bd 0424 8abd
00000050: dca0 fe3c 3e1e 58bd 2fe9 de3d b3cc 18be
00000060: b460 c73d 0077 bc3d 8e43 ad3d 51f3 f4bc
00000070: da32 a5bd 4ccb c43c c1c0 1e3e c151 00be
00000080: 069e 64bd 8979 2c3c 06b3 0fbd f5f5 93be
00000090: 03df 283c cebd 293e 42b4 cdbd d9d8 8ebd
000000a0: 979e 423c 8bc9 013b 33d0 2dbe eae3 19be
000000b0: 600f a73d d128 a2bd dadd e73c 95d8 7b3a
000000c0: 3738 ee3d a787 f33c 1481 7c3d 5729 3c3d
000000d0: 2a20 4d3d ebd2 d3bd 7e04 f6bd 34f2 d7bc
000000e0: 3688 183d f93f f73d fa5b 103d cb89 ae3d
000000f0: f831 f7bd 0d97 8b3d d69f 923d 86bd 76bd
00000100: a2ac 85bd fb0b 96bd a231 c5bd ba35 eebd
00000110: d7a6 e23d 1d8e 0dbc 373b db3d e8dc 803c
00000120: 210e d83d 5dc5 eebd fe33 7cbe d18d c83d
00000130: 8368 ee3d 7e64 f0ba 57d9 2bbd 7f75 48bd
00000140: f8cc e13d 5d79 683d d789 2cbe dbbb 59bc
00000150: 2928 a73c 4901 b33d f375 36be 0629 18bd
00000160: 435d 4cbc 5df9 283c e9da 2cbd ffc0 bb3d
00000170: 648e 54bc 52ee 9fbd 6a5a 0ebc 7b2a 8d3c
00000180: 873c b33d acb8 8ebd 1f29 ca3d 0ea9 d03d
00000190: 39e7 a6bb f5ec 12bd 0a72 18be 0410 9a3c
000001a0: 78f0 793c a7ec 413c 3a54 0aba ec33 cd3c
000001b0: dcc0 9b3d a44b e63d b7ab 9f3d f79f cbbc
000001c0: 10fd ca3d ef52 88bc 9106 7c3d b598 65bc
000001d0: 9b50 ba3b f31f 3abc 4562 4c3d e05e 0b3e
000001e0: b908 b03d baf2 0e3e 65b4 85bd c8ea e43c
000001f0: 82df 8d3d 762c 9cbd d51f 3f3e 4a0f eebd
00000200: 8e6f d23d c4bd d13d f72f 28bc c0df ae3d
00000210: dee1 9b3d 9bf6 b33c 0607 b8bc 94b3 debc
00000220: 4fa6 153e 2614 573e 12ff 223e be90 8b3c
00000230: 18eb 29bd 3cc0 183e 0ad9 933d ecf8 40bc
00000240: 81bb 45bc c370 0a3d 5ca7 333e 3927 8f3d
00000250: 42ee 83bd 2ccd f5bc 5cb0 8a3d 4c5c b3bd
00000260: c7f9 d13d e4b0 873d aefe 0c3c 2493 e83d
00000270: e4ce e2bd 0928 0ebe c77d be3d 03fc 873c
00000280: e60d 5a3d 6a5c 35bd b5ce 1f3e 12ca 223e
00000290: c7ba d83c 1103 3bbe 1995 343e 0481 ec3c
000002a0: 5813 0d3d 2d4d 9b3d 2d90 e63d 4959 6a3d
000002b0: bce2 603d 60cf babd ed2c 97bd f908 f2bd
000002c0: 1f8a 17be b6b6 403e 44f5 183d 6ac9 aabc
000002d0: 2448 ee3b e0e5 63bd 5dca dcbd a6be 53bd
000002e0: fba8 c03d b351 f7bc 7b6d 1c3e c4ef ac3d
000002f0: 9dfb 9fbc 5212 1fbe 7941 1dbd 1a39 8bbd
00000300: 4055 f5bd 31cc 0cbe 0aad ab3d 23b1 17be
00000310: 2482 fabc f6f5 9ebd 0cbf 4ebc 1e15 013c
00000320: 2192 febd a63c 2b3d 72a8 003e 2111 143d
00000330: ec4c a13b 5ce9 35bd 1f65 92bd ef24 aa3d
00000340: c55a 453d aa07 ae3d 09ac f4ba b912 d4bc
00000350: 1235 99bb af90 55be ab57 6abb 1595 afbd
00000360: 24f6 2e3d c69b c73d fd63 89bb 129a 993c
00000370: af68 b43d 766e 0f3e 8876 dabd 37f9 8b3d
00000380: ce6a 92bb e730 1abe b4f5 013e 9873 8d3c
00000390: 7f0c 21bb 009a 1c3e 5825 db3b 0e25 b6bc
000003a0: f495 efbd 0cc5 573b b4e0 2fbd 2f53 0d3d
000003b0: e638 59bc debc acbc 63b9 583e f216 09bc
000003c0: ad0e 16be 9135 1b3d 6ea0 bb3d e79c 953c
000003d0: 992f 4b3e 4dbf 21bd d1aa f4bc 6f0c 133d
000003e0: 826d 67bd f38c 9dbd 5e88 a1bd 0fd8 c4bd
000003f0: 2190 21ba b36a a8bd bba4 9c3d 8fd3 ce3c
-0.11980241 -0.043161698 -0.08535857 0.12377036 0.20703979 -0.05995319 -0.13859735 0.086394645
0.015893636 -0.03935749 -0.05831823 0.09361367 -0.059958216 0.0018179073 -0.04347928 -0.04660834
-0.025246484 0.05554112 -0.043215703 -0.06745151 0.031082563 -0.052763216 0.1088432 -0.14921837
0.097352415 0.09202385 0.08460151 -0.029901179 -0.0806634 0.02402272 0.15503217 -0.12531187
-0.055814765 0.010527023 -0.03508284 -0.28898588 0.010307076 0.16576311 -0.10044147 -0.06974954
0.011878631 0.0019803967 -0.16973953 -0.15028349 0.081572294 -0.07917941 0.02830403 0.00096071634
0.11631816 0.02972777 0.061646536 0.045937862 0.050079502 -0.10342964 -0.120125756 -0.026360609
0.037239276 0.12072749 0.035243966 0.08522376 -0.12070078 0.0681592 0.071593925 -0.060239337
-0.06527068 -0.07326504 -0.09628607 -0.11631341 0.110669784 -0.0086398395 0.10704654 0.015730336
0.1054957 -0.11658738 -0.24629208 0.09792674 0.11641028 -0.0018340496 -0.04195532 -0.048940178
0.11025423 0.056756366 -0.16849457 -0.013289417 0.020404892 0.087404795 -0.17818432 -0.037148498
-0.012473407 0.010313359 -0.042200956 0.091676705 -0.012973402 -0.07809128 -0.008688549 0.01723217
0.08751779 -0.06968817 0.098711245 0.101884946 -0.005093482 -0.03587051 -0.14887252 0.018806465
0.015255086 0.0118362075 -0.0005276833 0.025049172 0.076051444 0.11244896 0.07796424 -0.02485655
0.09911549 -0.016641108 0.0615297 -0.014013459 0.0056858785 -0.011360156 0.049898405 0.1361041
0.08595414 0.1395978 -0.06528548 0.027943984 0.06927396 -0.07625668 0.18664487 -0.1162401
0.102751836 0.10241273 -0.010265342 0.08538771 0.0761144 0.021968177 -0.022464287 -0.027185239
0.14614223 0.2100378 0.15917614 0.017036792 -0.04148397 0.14917082 0.07219131 -0.011778098
-0.01206863 0.033798944 0.17544311 0.06989903 -0.064419284 -0.03000506 0.06771919 -0.087578386
0.10252719 0.06625536 0.008605642 0.1135619 -0.110746175 -0.1388246 0.09301334 0.01659966
0.05323591 -0.044277586 0.15606196 0.15897396 0.02645625 -0.18262888 0.17635001 0.028870113
0.034442276 0.075830795 0.11257968 0.057214055 0.05490373 -0.09121585 -0.07381616 -0.11818118
-0.14798783 0.18819699 0.03734328 -0.020847995 0.0072717834 -0.055639148 -0.10780785 -0.05169549
0.094072305 -0.030190324 0.15276138 0.08444169 -0.019529158 -0.15534332 -0.038392518 -0.06798001
-0.11979151 -0.13749768 0.08382614 -0.14813666 -0.030579634 -0.07761757 -0.012618791 0.00787857
-0.124302156 0.041805886 0.12564257 0.036149148 0.0049225 -0.044412002 -0.071481936 0.08307826
0.048182268 0.084975556 -0.0018666993 -0.025887834 -0.004675516 -0.20855974 -0.003575782 -0.08573357
0.042715207 0.09746508 -0.0041928277 0.018750224 0.08809029 0.14006981 -0.10667139 0.06834643
-0.0044682985 -0.15057717 0.12691385 0.017267033 -0.0024574099 0.15293121 0.0066878013 -0.022234466
-0.11698523 0.0032923846 -0.042938903 0.03450316 -0.013258195 -0.021086153 0.2116447 -0.008367287
-0.14654036 0.03789288 0.09161459 0.018263293 0.19842376 -0.03948908 -0.029866608 0.03590053
-0.05650092 -0.076928996 -0.07887338 -0.096115224 -0.00061631395 -0.08223476 0.07648607 0.025247363

network_body._body_endoder.seq_layers.2.bias f4 [128]
00000000: 0000 0000 0000 0000 0000 0000 0000 0000
00000010: 0000 0000 0000 0000 0000 0000 0000 0000
00000020: 0000 0000 0000 0000 0000 0000 0000 0000
00000030: 0000 0000 0000 0000 0000 0000 0000 0000
00000040: 0000 0000 0000 0000 0000 0000 0000 0000
00000050: 0000 0000 0000 0000 0000 0000 0000 0000
00000060: 0000 0000 0000 0000 0000 0000 0000 0000
00000070: 0000 0000 0000 0000 0000 0000 0000 0000
00000080: 0000 0000 0000 0000 0000 0000 0000 0000
00000090: 0000 0000 0000 0000 0000 0000 0000 0000
000000a0: 0000 0000 0000 0000 0000 0000 0000 0000
000000b0: 0000 0000 0000 0000 0000 0000 0000 0000
000000c0: 0000 0000 0000 0000 0000 0000 0000 0000
000000d0: 0000 0000 0000 0000 0000 0000 0000 0000
000000e0: 0000 0000 0000 0000 0000 0000 0000 0000
000000f0: 0000 0000 0000 0000 0000 0000 0000 0000
00000100: 0000 0000 0000 0000 0000 0000 0000 0000
00000110: 0000 0000 0000 0000 0000 0000 0000 0000
00000120: 0000 0000 0000 0000 0000 0000 0000 0000
00000130: 0000 0000 0000 0000 0000 0000 0000 0000
00000140: 0000 0000 0000 0000 0000 0000 0000 0000
00000150: 0000 0000 0000 0000 0000 0000 0000 0000
00000160: 0000 0000 0000 0000 0000 0000 0000 0000
00000170: 0000 0000 0000 0000 0000 0000 0000 0000
00000180: 0000 0000 0000 0000 0000 0000 0000 0000
00000190: 0000 0000 0000 0000 0000 0000 0000 0000
000001a0: 0000 0000 0000 0000 0000 0000 0000 0000
000001b0: 0000 0000 0000 0000 0000 0000 0000 0000
000001c0: 0000 0000 0000 0000 0000 0000 0000 0000
000001d0: 0000 0000 0000 0000 0000 0000 0000 0000
000001e0: 0000 0000 0000 0000 0000 0000 0000 0000
000001f0: 0000 0000 0000 0000 0000 0000 0000 0000
0.0 0.0 0.0 0.0 0.0 0.0 0.0 0.0
0.0 0.0 0.0 0.0 0.0 0.0 0.0 0.0
0.0 0.0 0.0 0.0 0.0 0.0 0.0 0.0
0.0 0.0 0.0 0.0 0.0 0.0 0.0 0.0
0.0 0.0 0.0 0.0 0.0 0.0 0.0 0.0
0.0 0.0 0.0 0.0 0.0 0.0 0.0 0.0
0.0 0.0 0.0 0.0 0.0 0.0 0.0 0.0
0.0 0.0 0.0 0.0 0.0 0.0 0.0 0.0
0.0 0.0 0.0 0.0 0.0 0.0 0.0 0.0
0.0 0.0 0.0 0.0 0.0 0.0 0.0 0.0
0.0 0.0 0.0 0.0 0.0 0.0 0.0 0.0
0.0 0.0 0.0 0.0 0.0 0.0 0.0 0.0
0.0 0.0 0.0 0.0 0.0 0.0 0.0 0.0
0.0 0.0 0.0 0.0 0.0 0.0 0.0 0.0
0.0 0.0 0.0 0.0 0.0 0.0 0.0 0.0
0.0 0.0 0.0 0.0 0.0 0.0 0.0 0.0

action_model._discrete_distribution.branches.0.weight f4 [3, 128]
00000000: a773 37bc 778c 9bba 0f59 ee3a df63 88bb
00000010: 2be7 9c3b 2a90 1f3c ffca 153c 93b7 373c
00000020: 30bd 5f3c a23e 673c 1d98 9ebb 7eae b43b
00000030: c7fe fdbb b367 8bbb d7ff a83a 2d16 69ba
00000040: 7b47 5abb 63de 8cb9 268c 2abc cade 30bc
00000050: 1a6d 23bc ee91 873b cc7b 19bc 2b18 69b9
00000060: 3844 7dbb a99d 9cbc d631 24bb 10c8 6fbb
00000070: 6949 82bb 8860 74bc ddb1 de3b b104 1e3c
00000080: 7527 64bc 1b79 4abc fae3 0b3b d524 41bc
00000090: 5835 3dba fcbc 07bc 80d9 653b a388 a53a
000000a0: 2eaf 9e3b 2b29 f4bb 8dfc 733b 2a69 283c
000000b0: 7b7c bf3a 12bf 65bb 1d1b 013c a816 5a3b
000000c0: ab2b ea3b dfef 2f3b 8117 15bc 6ebd 27bc
000000d0: 6c1c 0b3b 7bfd c8bb cd82 87bc 5364 ccbc
000000e0: 34ac b439 167d 0d3c 1cec abbc 4a4b 6dbc
000000f0: 8f51 8cbc 4bce d13b a331 bf3b e021 4d3c
00000100: d43e 21bc d6ea 31bc a79c 73bc ff47 39ba
00000110: bb53 05bc b36d 47bc 2d74 6cba f0df b7bb
00000120: 19c4 423b 5566 ddbb ab4f 08bc 8537 103c
00000130: 2886 e8bb 6379 95bb 1147 91bc fdb4 e13b
00000140: 6745 f4bb e784 ec3b 9443 0b3b a350 d03b
00000150: 26c7 cc3a bb43 57bb bbf5 d03b feba 2d3b
00000160: 34da 09bb 585c cab6 3c49 43bc c75d 883b
00000170: b273 0bbc a281 853b ddea 733c 288c 7f3b
00000180: 4778 43bc f32f 0ebb e3c2 48bb 4767 f0bb
00000190: 6051 6e3c a720 17bc 5b37 533c 6059 8a3b
000001a0: 4bef 37bc dd14 793c d035 8e3a 0b21 003a
000001b0: bbdc 7fbb 70d5 c33b e8ea 23bb f657 153a
000001c0: e8ac d53b bf94 adbb 8083 70bb 676a fe3b
000001d0: 2d45 c5bc b4cc a93b 877e 56bb 6f9a 873b
000001e0: bcea 31ba c240 033c 596e 36bc f319 913c
000001f0: d816 5d3c 1fdc c7bb db4f 923b bab2 623c
00000200: c8b2 35bc d2b6 7d3c 8d04 d5bb 5fa4 033b
00000210: f7e7 863a 5a23 72bc a3a9 b8bb 520b d73c
00000220: 5044 74bc a5be 4d3b 7f52 813c 1f46 3b3c
00000230: b607 1dbc e7da d03b a85a 45bc 1b3c a0bb
00000240: 15a0 953c 9d53 0c3c cb2c bbbc bdfa 193c
00000250: 0854 dab8 3b03 1dbc 20ed a93b e576 d63b
00000260: 8f73 93bb 579c f73a 5088 71bc 8792 1b39
00000270: 3f3c 3d3b 1af5 413b 6280 243a b65c 27bb
00000280: 47bb 85b5 c69e 033c 0205 51bc 6593 6b3c
00000290: c254 d63a 2b86 ab3c a8d3 f93a b3fa 05bc
000002a0: daa2 2bbb 1d8c 7fbc 6f77 67b7 5188 073c
000002b0: 46d4 1cbc bdea 613c 2a60 3abc 27f6 c9bb
000002c0: 26dc 8b3b 5c63 12bb 275a e43a eb11 03bc
000002d0: ff8d 1ebc 5f89 df3a ab22 983b 65e2 20bb
000002e0: 8da1 8fbb 3a23 213c da30 a9bb e360 afbb
000002f0: 42c8 4d3b 3788 f5ba edd0 11ba 2538 4b3c
00000300: d0e7 333b 4fc3 02bb 47b2 bf3b a239 4c3a
00000310: 7d9c 813c 1381 00bc bef1 413b 5283 343a
00000320: e7d5 97bc bd35 c63b 4d63 243c 11eb 2f3b
00000330: bb25 d83b d8b0 c3bb 92e3 9b3b 2bc3 90bb
00000340: 5cec 8bbb 257b 973b 12cf 873c 8f5f 513c
00000350: e58b f53b 67c4 e9ba d681 a5bb 8f29 13bc
00000360: a0ef 4cbc bd12 373b 7ee4 ac3b 4af2 65ba
00000370: babb 933c 008b 6d3b 01da 073c 7536 39bc
00000380: f889 f23b a50c 4dbc f323 b9bb bf5b f53b
00000390: cb3c 94bc 7090 1dbc 2208 733c 7cc2 173c
000003a0: a100 873b c33e ae3c fb58 9a3b f042 e7bb
000003b0: 127e 863b f7df 953b 0416 02bb 2d27 0bba
000003c0: 6f8c 10bc 08ad 6f3b c938 343c cf4d 7dbb
000003d0: dbcc 65bb 57de 30bc beb0 acba 3eca 833a
000003e0: 7d86 e3bb c33c e33b cbcc a03b e8a2 4f3b
000003f0: f214 b33c 9eb5 3bbc 1be3 d63a a76b 84bb
-0.011197007 -0.0011867423 0.00181845 -0.004162296 0.0047882996 0.009738961 0.009142636 0.011213201
0.013655946 0.014114054 -0.0048399107 0.005513965 -0.007751319 -0.0042543053 0.0012893629 -0.0008891549
-0.0033306766 -0.00026868572 -0.010409391 -0.010795305 -0.009974742 0.004137269 -0.009367894 -0.00022229615
-0.0038645398 -0.019118147 -0.0025054119 -0.0036587752 -0.0039760363 -0.014915593 0.0067961053 0.009644673
-0.013925423 -0.012357975 0.0021345601 -0.011788567 -0.00072177267 -0.0082848035 0.0035072267 0.0012629222
0.0048426604 -0.0074511967 0.003722939 0.010278979 0.0014609242 -0.0035056514 0.0078799995 0.0033277664
0.007146319 0.0026845855 -0.009099842 -0.010238035 0.0021226658 -0.006133733 -0.016541863 -0.024950182
0.00034460577 0.00863578 -0.02098661 -0.014483282 -0.017128734 0.006402766 0.0058347746 0.012520283
-0.00984164 -0.010859212 -0.014868892 -0.0007067918 -0.008137639 -0.01217215 -0.0009019997 -0.005611412
0.0029718934 -0.0067565837 -0.008319776 0.008802299 -0.007096071 -0.0045615896 -0.017734082 0.0068880306
-0.0074545625 0.0072179916 0.0021249996 0.006357269 0.0015623316 -0.0032846767 0.0063769496 0.002650916
-0.00210346 -6.0308193e-06 -0.011919316 0.0041615698 -0.008511471 0.0040742913 0.014887539 0.0038993452
-0.011930532 -0.002169606 -0.003063374 -0.0073365304 0.0145457685 -0.0092240935 0.012891616 0.00422208
-0.0112264855 0.015202728 0.0010849778 0.0004887736 -0.0039041478 0.0059763715 -0.0025011841 0.0005697006
0.006520856 -0.005297273 -0.0036699474 0.007764149 -0.024080837 0.005181873 -0.0032729225 0.004138283
-0.00067869923 0.008011045 -0.011134707 0.017712569 0.013494216 -0.0060992385 0.004465086 0.013836557
-0.011089988 0.015485482 -0.0065007866 0.0020086986 0.001029252 -0.014778936 -0.0056354566 0.026250515
-0.014908865 0.003139415 0.015786408 0.011430292 -0.009584358 0.0063737514 -0.01204554 -0.0048899776
0.01826481 0.008564857 -0.022848507 0.00939816 -0.00010410702 -0.00958329 0.005185738 0.006544935
-0.0044998596 0.0018891197 -0.014741972 0.00014836538 0.002887502 0.0029595555 0.0006275234 -0.0025537438
-9.963777e-07 0.00803346 -0.012757542 0.014378403 0.0016352164 0.020938 0.0019060271 -0.008177447
-0.0026189596 -0.01559737 -1.3796481e-05 0.008272246 -0.009572094 0.013788876 -0.011375466 -0.006163377
0.004268187 -0.0022337055 0.0017421887 -0.007999877 -0.009677409 0.001705449 0.0046428046 -0.0024549004
-0.004383272 0.009835059 -0.0051632943 -0.005352126 0.003139988 -0.0018732612 -0.00055624434 0.012403523
0.0027451403 -0.0019952839 0.0058501097 0.00077905704 0.01582169 -0.007843274 0.0029593552 0.00068860233
-0.018534614 0.0060488866 0.010033441 0.0026842991 0.0065962947 -0.005972009 0.004757353 -0.004417797
-0.0042701196 0.0046228343 0.016578231 0.012779131 0.0074934834 -0.0017835022 -0.005050878 -0.008982076
-0.012508303 0.0027934753 0.005276262 -0.00087717606 0.018033851 0.003624618 0.008291722 -0.0113044875
0.007401701 -0.012515222 -0.0056500374 0.0074877436 -0.018095395 -0.009616956 0.014833482 0.009262677
0.004119948 0.021270161 0.0047103143 -0.00705754 0.004104384 0.004573818 -0.0019849548 -0.0005308267
-0.0088225445 0.003657164 0.010999867 -0.0038651114 -0.003506473 -0.010795197 -0.0013175232 0.001005478
-0.0069435225 0.0069347336 0.0049072257 0.0031682793 0.021860573 -0.011456875 0.0016394587 -0.0040411535

action_model._discrete_distribution.branches.0.bias f4 [3]
00000000: 0000 0000 0000 0000 0000 0000
0.0 0.0 0.0

network_body._body_endoder.seq_layers.0.weight f4 [128, 75]
00000000: 9cfb 743d 9d7e 65be 40f3 b4bd dfef 433d
00000010: 0335 1a3e 33a9 7a3e 576d cb3d 48d6 67bd
00000020: 196b e6bd de71 e13d 01b6 d8ba 96d7 1f3e
00000030: 8446 40bc b854 87bd fcf4 cb3d 3484 cebd
00000040: ac2d 66bd 1e88 cbbd 9dae adbd 5fca d53d
00000050: 0d2e 2abe 4b0b 1ebc 1020 973c 0b79 dc3c
00000060: 2610 e73d af03 34bd 3b38 d23d d6ee e5bd
00000070: d320 713e 7100 633d d3f0 94bd 1fce 1cbd
00000080: ed98 f73d cc9e 8a3e 93ef 80be 148c 44bd
00000090: ce8b 4a3e f084 583e ba1e eebd ae03 a23c
000000a0: 1a7d 33be 1c7a fcbd 248c c93d 2c12 f2bd
000000b0: 732e cdbd a091 01be 105a c23d 164a 2cbe
000000c0: f708 eabd f03c 6cbd 707b 6f3e 04b1 893c
000000d0: 4747 13be 1db7 793d a252 17be 9484 863d
000000e0: 2e7d 183e ee4b de3c b162 11be 08aa 31be
000000f0: f89a 113d a507 8fbd 12bf 013e 0880 01bd
00000100: aab5 243c c27d 29be 76b4 2fbe 062f 813d
00000110: b32c 7cbe 067b 6b3d a082 e1bb 4d7c 06ba
00000120: 906f 44bb f365 01bd 6d24 1bbe e531 c53d
00000130: 5ad6 a63d 197b 47bb f59a 56be 814c 1fbd
00000140: 6cb9 963d a7a4 0abd 3c1b 3c3e 59e3 6f3e
00000150: eca7 d33c 931d cd3c 1b8d a83b 99e4 1fbe
00000160: 93f5 863e 3fac 3ebc 8ce8 703d 7142 4bbe
00000170: 07e9 2dbc 861f e93d bfb0 2dbb 893c efbd
00000180: 88dc ad3d 8db8 e8bd d8c4 e0bc 83ed f83c
00000190: b63d 0f3e 7779 b9bd 7c74 ebbd 18a9 563c
000001a0: 2fae 44be 598f 173d 6938 d5bd e85d 103e
000001b0: 5fd8 b63c 0c08 4dbe 84d3 573d 2f74 61bd
000001c0: 4ca4 2b3b c077 0ebe 4a4c 1a3e c845 ebba
000001d0: 07b0 f4bd 2d1f 6b3d 00e6 24bd 141e 08bd
000001e0: 4d85 11bd ce06 23bc 2f8d 91bd 0a30 fd3d
000001f0: 9d86 b23d fe9c 34bb ba2a 1dbe 92a2 82be
00000200: 793d 903d 140f 49be 4c8e 3b3e bfe2 0a3e
00000210: a34d be3d 758d 183d 2ea3 883d 209b 04be
00000220: dd55 063d bb67 71bd 1fc5 8b3e 5fe5 e33d
00000230: 38ce 253e ebfb 36bb 2692 cc3d a25d 7bbd
00000240: dfbb 153e bc21 fdbd dfc6 1cbc 48c2 fb3d
00000250: cfc7 eb3c dc71 153d 8b66 d73d cf59 12bd
00000260: a0d9 07be 2298 d53d a245 0f3e 8fd7 c0bd
00000270: 78df 203d 99ed bb3c eb3d 47be f4da 993d
00000280: efb0 993d 8e14 1dbd 3ee3 923c 8ff5 d83d
00000290: fddc 3e3d 9b54 c03d 3bd5 0fbe 69ed a33d
000002a0: c617 abbd c105 98bd 23f4 dfbc d3d6 6f3d
000002b0: 588f d4bc 1daf d13d d33c 3c3c 3694 1d3e
000002c0: a191 4abd 34c5 58be 4540 a93d 0804 843d
000002d0: a2b5 b6be 1a66 823d e8a0 01be 7ac5 26bc
000002e0: 5172 8b3a 0401 c5bd b40f e8bd 6185 06be
000002f0: 7e20 1fbe f491 cdbc a1c1 4dbe d2d1 783d
00000300: 5e0c db3d 62b7 f9bd c2ab aabd ebb2 0dbe
00000310: 9678 333d 8721 c9bd 1a9b 333e 129e 0b3e
00000320: f013 cbbd d615 fdbb f479 58bd 0d05 f4ba
00000330: abca 19bd a788 5fbe d761 993c 7247 22be
00000340: c3df 463b 0685 8e3d 5afb 86be 2387 e7bd
00000350: 9c67 a93d 7d79 2fbd a4ff 3d3e 43ce 813d
00000360: 297b 883d 6931 ad3d 32e3 f73c e5a0 1d3d
00000370: e2eb e6bc 49ff 983d 881c b4bd 76a2 4fbd
00000380: 44b9 ab3d 6a36 1a3d ac60 523c 786d 843d
00000390: eb79 273d b6f6 0ebe f6fa 433d 972b ce3d
000003a0: 4574 703e 601d 4c3e 5831 ae3d 86ea 07bc
000003b0: cd32 dabc cb22 afbd 8161 5dbd 486d f1bd
000003c0: 0163 05be 72b9 dabd 50cf afbc 01ad d13d
000003d0: 7efa aa3b 9f40 80be 8a75 57be 41b7 963d
000003e0: 78ea 17bd 13f7 aebb 3e39 123e 78ac b3bd
000003f0: f3e4 253e 9326 e1bd 7fc0 063e 64e7 b5be
0.059810266 -0.2241158 -0.08835459 0.04783618 0.15059285 0.24478607 0.09932964 -0.05660084
-0.11250896 0.110080466 -0.0016533734 0.15609583 -0.011735562 -0.06607956 0.099588364 -0.100838095
-0.0561959 -0.09938072 -0.084805705 0.1043899 -0.1661913 -0.009646247 0.018447906 0.026913187
0.11282377 -0.043948825 0.10264631 -0.11227195 0.23547678 0.055420343 -0.07272496 -0.03828251
0.12089715 0.27074277 -0.2518278 -0.04798515 0.19779894 0.21144462 -0.116269544 0.019777145
-0.17528191 -0.12327978 0.09841183 -0.11819872 -0.10018625 -0.12653208 0.09489834 -0.16825137
-0.11427491 -0.057675302 0.23386931 0.01680804 -0.14382659 0.060965646 -0.14777616 0.06568256
0.14891502 0.027135815 -0.14197804 -0.17350018 0.03554818 -0.0698388 0.12670544 -0.03161624
0.010053078 -0.16551879 -0.17158684 0.06307797 -0.24626426 0.05749037 -0.006882027 -0.00051302166
-0.0029973723 -0.031591367 -0.15150614 0.09628657 0.08146353 -0.0030438362 -0.20957549 -0.03889132
0.07359585 -0.03384843 0.18369764 0.2342657 0.025836907 0.025038516 0.005143774 -0.15614547
0.26359233 -0.011637746 0.058815524 -0.19849564 -0.01061464 0.11382966 -0.0026503054 -0.11681468
0.084893286 -0.11363325 -0.027437612 0.030386692 0.13988385 -0.09056371 -0.11496827 0.0131018385
-0.19207071 0.03700194 -0.1041115 0.14098322 0.02231997 -0.20022601 0.05269195 -0.055042442
0.0026190458 -0.13912868 0.15068164 -0.0017949874 -0.11947637 0.05740278 -0.040258408 -0.03323181
-0.035527516 -0.009950353 -0.07107007 0.12362678 0.08717082 -0.0027559395 -0.1534833 -0.25514656
0.07042975 -0.19634658 0.18316 0.1356306 0.09292152 0.03724428 0.06671749 -0.129498
0.03279673 -0.058936816 0.2729883 0.111277334 0.16191947 -0.002792115 0.09988813 -0.061368592
0.14622448 -0.1235995 -0.009568899 0.122929156 0.0287818 0.036485538 0.105176054 -0.03573018
-0.13266611 0.10429408 0.13991407 -0.094161145 0.039275616 0.022940444 -0.19457214 0.07512465
0.075044505 -0.03834968 0.017930623 0.105937116 0.04659747 0.09391137 -0.14046185 0.08004267
-0.08354144 -0.074229725 -0.027338093 0.05855448 -0.025947258 0.10238478 0.011489111 0.15388569
-0.04945529 -0.21168977 0.082642116 0.064460814 -0.3568545 0.063671306 -0.12659037 -0.010178918
0.0010638927 -0.09619334 -0.1133112 -0.13136818 -0.15539739 -0.02509401 -0.20093395 0.060746975
0.10695718 -0.121931806 -0.083335415 -0.13837783 0.04381617 -0.09820848 0.17539635 0.13634518
-0.09915912 -0.0077235503 -0.05285068 -0.0018617228 -0.037546795 -0.21829472 0.018723411 -0.15847567
0.0030345775 0.06958966 -0.2636364 -0.11305072 0.08271715 -0.04284047 0.1855455 0.063381694
0.06664116 0.0845669 0.030259702 0.03848352 -0.02818865 0.07470567 -0.087945044 -0.050692044
0.08384946 0.03764955 0.012840431 0.06466192 0.040887754 -0.139613 0.047846757 0.10066908
0.23481853 0.1993308 0.08505505 -0.008295661 -0.026635552 -0.08551558 -0.054048065 -0.11788422
-0.13026048 -0.10679902 -0.021461159 0.10238076 0.0052178493 -0.25049302 -0.21040931 0.07359172
-0.03708884 -0.005339512 0.14279649 -0.0877313 0.16200618 -0.109936856 0.13159369 -0.355281

network_body._body_endoder.seq_layers.0.bias f4 [128]
00000000: 0000 0000 0000 0000 0000 0000 0000 0000
00000010: 0000 0000 0000 0000 0000 0000 0000 0000
00000020: 0000 0000 0000 0000 0000 0000 0000 0000
00000030: 0000 0000 0000 0000 0000 0000 0000 0000
00000040: 0000 0000 0000 0000 0000 0000 0000 0000
00000050: 0000 0000 0000 0000 0000 0000 0000 0000
00000060: 0000 0000 0000 0000 0000 0000 0000 0000
00000070: 0000 0000 0000 0000 0000 0000 0000 0000
00000080: 0000 0000 0000 0000 0000 0000 0000 0000
00000090: 0000 0000 0000 0000 0000 0000 0000 0000
000000a0: 0000 0000 0000 0000 0000 0000 0000 0000
000000b0: 0000 0000 0000 0000 0000 0000 0000 0000
000000c0: 0000 0000 0000 0000 0000 0000 0000 0000
000000d0: 0000 0000 0000 0000 0000 0000 0000 0000
000000e0: 0000 0000 0000 0000 0000 0000 0000 0000
000000f0: 0000 0000 0000 0000 0000 0000 0000 0000
00000100: 0000 0000 0000 0000 0000 0000 0000 0000
00000110: 0000 0000 0000 0000 0000 0000 0000 0000
00000120: 0000 0000 0000 0000 0000 0000 0000 0000
00000130: 0000 0000 0000 0000 0000 0000 0000 0000
00000140: 0000 0000 0000 0000 0000 0000 0000 0000
00000150: 0000 0000 0000 0000 0000 0000 0000 0000
00000160: 0000 0000 0000 0000 0000 0000 0000 0000
00000170: 0000 0000 0000 0000 0000 0000 0000 0000
00000180: 0000 0000 0000 0000 0000 0000 0000 0000
00000190: 0000 0000 0000 0000 0000 0000 0000 0000
000001a0: 0000 0000 0000 0000 0000 0000 0000 0000
000001b0: 0000 0000 0000 0000 0000 0000 0000 0000
000001c0: 0000 0000 0000 0000 0000 0000 0000 0000
000001d0: 0000 0000 0000 0000 0000 0000 0000 0000
000001e0: 0000 0000 0000 0000 0000 0000 0000 0000
000001f0: 0000 0000 0000 0000 0000 0000 0000 0000
0.0 0.0 0.0 0.0 0.0 0.0 0.0 0.0
0.0 0.0 0.0 0.0 0.0 0.0 0.0 0.0
0.0 0.0 0.0 0.0 0.0 0.0 0.0 0.0
0.0 0.0 0.0 0.0 0.0 0.0 0.0 0.0
0.0 0.0 0.0 0.0 0.0 0.0 0.0 0.0
0.0 0.0 0.0 0.0 0.0 0.0 0.0 0.0
0.0 0.0 0.0 0.0 0.0 0.0 0.0 0.0
0.0 0.0 0.0 0.0 0.0 0.0 0.0 0.0
0.0 0.0 0.0 0.0 0.0 0.0 0.0 0.0
0.0 0.0 0.0 0.0 0.0 0.0 0.0 0.0
0.0 0.0 0.0 0.0 0.0 0.0 0.0 0.0
0.0 0.0 0.0 0.0 0.0 0.0 0.0 0.0
0.0 0.0 0.0 0.0 0.0 0.0 0.0 0.0
0.0 0.0 0.0 0.0 0.0 0.0 0.0 0.0
0.0 0.0 0.0 0.0 0.0 0.0 0.0 0.0
0.0 0.0 0.0 0.0 0.0 0.0 0.0 0.0

network_body._body_endoder.seq_layers.2.weight f4 [128, 128]
00000000: 78a7 63be ea6f 94bd 5057 27be 78cd 223b
00000010: 1d1e 8d3d 4992 d73d ea0a 083e 61dd 063d
00000020: f9e8 ee3d 2266 ddbd 7dc8 403d 6810 053e
00000030: b58e 123c 6cca e63d 272f 8bbb c8bd 97bd
00000040: afe1 003e a2e4 b23c fe7c 643d 4be2 633d
00000050: c773 05be 9c91 bc3c 0eee 7dbd 647b 813c
00000060: 9278 6a3c 6d85 803d 8adf 483d 1290 a4bb
00000070: ac61 a23d 18c1 21be 837a d1bc b805 e83c
00000080: 6a77 31bd 655f 0cbc ca97 39be 319f ad3c
00000090: a08b 943d 2e5f 2e3d 1dce 9a3c 0975 d93c
000000a0: 65aa 01bb 214b cd3d e208 a43d f17a 2cbc
000000b0: 6cbb d23d db73 753d 11e7 c4bd 3bcc a7bb
000000c0: 0585 24be 8306 28be 0f60 30bb c6d4 fd3d
000000d0: 588a 2f3e d080 bfbd ed0a fe3b 1aba 933d
000000e0: 5e08 9ebd 620a b33d 546d f9bd 0795 babd
000000f0: 0b15 16be 5d1e 653d 3d5c a63d 59f4 d5bd
00000100: 05cc 1fbd e42b a83d 3133 583c eef5 9fbd
00000110: d85e b23b ad88 703c 1ef1 453b e3cb ff3d
00000120: a961 ac3c 57e5 4b3d 9cec 10be 2b3c 0cbc
00000130: 3651 883d 5f53 19bd 1449 a63d cc08 893c
00000140: feab a5bd d8de 65bd e9c3 8bbc 1bbb b3bd
00000150: 3752 403e 6b3b 8e3d 6d6c 04be 0011 1d3d
00000160: 3c9f 55bd 9cb1 a43c 8513 403d fe5f b03d
00000170: d1e5 e4bd 50f3 1b3e 1303 9e3d 1478 d0bd
00000180: 4e85 403d 1d40 b83d 424e 403d cbee 373d
00000190: 6252 15bd be7b 56be edf5 3d3d 8ddc 60bd
000001a0: 62a8 533d bb74 523d 0cfb 0abe 19a3 92bd
000001b0: 1c8f bd3d bb23 e03d 860c cc3d 0054 03bd
000001c0: 54ea 633c 4022 f2bd 8034 123d c574 25bd
000001d0: 9823 83bd 3080 a8bd 1e2e 153e 53d5 45be
000001e0: 34f0 9d3d 71c4 863c 789f 6ebe f11e 5e3d
000001f0: 4ca7 973d 5568 023d 2a9d 9d3d de95 56bd
00000200: 696b 8c3d 3145 873b def8 0fbe d97e 85bd
00000210: d26f 903c 21b2 b2bb 0f80 933c 6663 f6bd
00000220: bafe d7bc 0c51 3e3d 7436 b4bd 69f8 4fbd
00000230: cc91 e1bd 7082 b63d ab08 e53c 563b 4f3d
00000240: a29d dbbc 9f8a 50bd 9806 873d 7a74 8fbd
00000250: fc36 b6bd 659f 99bd 9068 9c3c 655c ffbc
00000260: 5f78 143e dc46 24be 9d22 103d 7843 393e
00000270: d0a3 90bd 65d3 fabb ce99 5ebd 1b51 bebc
00000280: 883a 30bd a450 eb3d cc1c 6abd 4206 c23d
00000290: e362 273d dd62 7d3d 6036 c5ba bebd 803c
000002a0: 5a5a 4d3d 1022 303d 1b8f 0b3a c4e4 bebd
000002b0: 996c f3bc cc25 cabd 03b0 e8bd 8832 0b3e
000002c0: c17b a93d cdc2 e83b 868a 463c 9fa1 523e
000002d0: 7cb0 13bd 7013 ac3d 9920 8d3d d701 fa3d
000002e0: ffda 0abe e1cd 9abb df5a cf3d a3a1 653c
000002f0: c96a 353d ffa0 bbbd 705b b63d 4e73 da3d
00000300: 3274 a6bc b33b 9ebd f6b2 90bb 93b3 92bc
00000310: e590 10be 8713 25bc 7593 8a3d 2472 1a3d
00000320: 2d9c 443d 60bc 08bd 930c f9bd 4375 533d
00000330: 816f a6bd a2aa ea3d 2780 22bc 69f7 603c
00000340: 3efa 3ebe 982a 4e3d dba4 973d 7bec c4bd
00000350: 6288 5d3d c92e 3d3e cb85 d4bd d64c 00be
00000360: d458 1fbc 5b9c 073a a319 0fbe 1a8c 493b
00000370: 26cb 353d 30d4 e2bb 20f8 a8bd 2c84 67bb
00000380: c10b b0bc 4740 7b3e 3957 a139 9821 b2bb
00000390: bef8 113e 46a2 d73d fe57 f8bc d182 95bc
000003a0: 9e9f cebc b8f3 a8bc d91d 70bd 6714 393d
000003b0: c0c7 533d df3b adbd d5aa 07be 57d5 013e
000003c0: bbfd c8bc ff1b f33d 2cfc 77bd e458 60bb
000003d0: f0e6 2abd 0252 51bd 7744 773d 3a09 c0bd
000003e0: 41d3 0b3e f4b5 62bd 3397 a9bd dea8 f7bd
000003f0: 141b a7bb e014 03be 6bfe 96bd 4818 7cbd
-0.22231853 -0.072479084 -0.16341901 0.0024841707 0.06890509 0.105259486 0.13285413 0.032925967
0.1166553 -0.10810496 0.0470662 0.1299454 0.008945157 0.11269078 -0.0042475644 -0.07409245
0.12586091 0.021837536 0.055783264 0.05563573 -0.13032447 0.02301865 -0.061994605 0.015805908
0.014310973 0.06275449 0.04904131 -0.0050220573 0.07928786 -0.15796316 -0.025571113 0.02832304
-0.043326773 -0.008567666 -0.18124309 0.021194072 0.07253194 0.04257124 0.01889711 0.026545065
-0.00197854 0.10024095 0.08009507 -0.010527358 0.10289654 0.05992494 -0.09614385 -0.0051207817
-0.16066368 -0.16408734 -0.0026912724 0.12394099 0.17142618 -0.09350741 0.0077527673 0.072132304
-0.0771644 0.08742215 -0.12179056 -0.09110456 -0.14656465 0.05593716 0.08123062 -0.10446996
-0.039012928 0.082114965 0.013195799 -0.07810579 0.005443435 0.014681024 0.0030203531 0.1249006
0.021042662 0.049779262 -0.1415276 -0.008559267 0.06656115 -0.037433024 0.08119407 0.016727827
-0.080894455 -0.056120723 -0.01706119 -0.08775922 0.18781362 0.06944927 -0.12931986 0.03834629
-0.05215381 0.020104222 0.046893615 0.08612059 -0.111766465 0.15229535 0.0771543 -0.10179153
0.04700213 0.08996604 0.046949632 0.044905465 -0.03645552 -0.20945641 0.04637711 -0.054897834
0.051674254 0.051380854 -0.1357233 -0.07160015 0.092558116 0.10944315 0.09963326 -0.03206253
0.013910849 -0.11822939 0.0356946 -0.040394563 -0.06403273 -0.08227575 0.14568374 -0.19319658
0.07711831 0.016451092 -0.2330302 0.054228727 0.07404956 0.03183778 0.07695992 -0.05238902
0.06856424 0.0041281213 -0.14059779 -0.06518335 0.017631445 -0.0054533635 0.018005399 -0.120306775
-0.02636658 0.04646401 -0.087994486 -0.05077401 -0.11014137 0.08911598 0.027958235 0.050593697
-0.026808564 -0.05091345 0.065930545 -0.07004638 -0.08897206 -0.07501105 0.019092828 -0.031171987
0.14499043 -0.16042656 0.03518926 0.18092144 -0.07062495 -0.0076545947 -0.0543459 -0.023232033
-0.04302457 0.1148999 -0.05715637 0.0947385 0.04086579 0.06186186 -0.0015046112 0.015715476
0.050134994 0.043001235 0.00053237536 -0.09320977 -0.02971487 -0.098704904 -0.113616966 0.13593495
0.08275557 0.0071033 0.0121179875 0.20569466 -0.03605698 0.08402145 0.06890983 0.12207382
-0.13560103 -0.0047242497 0.10124754 0.014015588 0.04429129 -0.09161567 0.08904159 0.10666524
-0.020319078 -0.077262305 -0.004415865 -0.017907893 -0.14117773 -0.010075456 0.067664064 0.03770651
0.048000503 -0.033382773 -0.121606015 0.0516255 -0.081267364 0.11458327 -0.009918249 0.013730862
-0.18650147 0.05033359 0.074044906 -0.096154176 0.054085143 0.18474878 -0.103770815 -0.1252931
-0.009725768 0.000517314 -0.13974623 0.0030753673 0.04438319 -0.0069222674 -0.08250451 -0.0035326583
-0.02148998 0.24536239 0.000307733 -0.0054361336 0.14255044 0.10528998 -0.030315395 -0.018250855
-0.025222596 -0.020624027 -0.058622215 0.045185473 0.05170417 -0.08458685 -0.13248761 0.12679039
-0.02453505 0.11870574 -0.060543224 -0.003423267 -0.041724145 -0.0511036 0.060368028 -0.0937676
0.13654806 -0.055349305 -0.08280792 -0.12092756 -0.0050996635 -0.12800932 -0.07372745 -0.061546594

network_body._body_endoder.seq_layers.2.bias f4 [128]
00000000: 0000 0000 0000 0000 0000 0000 0000 0000
00000010: 0000 0000 0000 0000 0000 0000 0000 0000
00000020: 0000 0000 0000 0000 0000 0000 0000 0000
00000030: 0000 0000 0000 0000 0000 0000 0000 0000
00000040: 0000 0000 0000 0000 0000 0000 0000 0000
00000050: 0000 0000 0000 0000 0000 0000 0000 0000
00000060: 0000 0000 0000 0000 0000 0000 0000 0000
00000070: 0000 0000 0000 0000 0000 0000 0000 0000
00000080: 0000 0000 0000 0000 0000 0000 0000 0000
00000090: 0000 0000 0000 0000 0000 0000 0000 0000
000000a0: 0000 0000 0000 0000 0000 0000 0000 0000
000000b0: 0000 0000 0000 0000 0000 0000 0000 0000
000000c0: 0000 0000 0000 0000 0000 0000 0000 0000
000000d0: 0000 0000 0000 0000 0000 0000 0000 0000
000000e0: 0000 0000 0000 0000 0000 0000 0000 0000
000000f0: 0000 0000 0000 0000 0000 0000 0000 0000
00000100: 0000 0000 0000 0000 0000 0000 0000 0000
00000110: 0000 0000 0000 0000 0000 0000 0000 0000
00000120: 0000 0000 0000 0000 0000 0000 0000 0000
00000130: 0000 0000 0000 0000 0000 0000 0000 0000
00000140: 0000 0000 0000 0000 0000 0000 0000 0000
00000150: 0000 0000 0000 0000 0000 0000 0000 0000
00000160: 0000 0000 0000 0000 0000 0000 0000 0000
00000170: 0000 0000 0000 0000 0000 0000 0000 0000
00000180: 0000 0000 0000 0000 0000 0000 0000 0000
00000190: 0000 0000 0000 0000 0000 0000 0000 0000
000001a0: 0000 0000 0000 0000 0000 0000 0000 0000
000001b0: 0000 0000 0000 0000 0000 0000 0000 0000
000001c0: 0000 0000 0000 0000 0000 0000 0000 0000
000001d0: 0000 0000 0000 0000 0000 0000 0000 0000
000001e0: 0000 0000 0000 0000 0000 0000 0000 0000
000001f0: 0000 0000 0000 0000 0000 0000 0000 0000
0.0 0.0 0.0 0.0 0.0 0.0 0.0 0.0
0.0 0.0 0.0 0.0 0.0 0.0 0.0 0.0
0.0 0.0 0.0 0.0 0.0 0.0 0.0 0.0
0.0 0.0 0.0 0.0 0.0 0.0 0.0 0.0
0.0 0.0 0.0 0.0 0.0 0.0 0.0 0.0
0.0 0.0 0.0 0.0 0.0 0.0 0.0 0.0
0.0 0.0 0.0 0.0 0.0 0.0 0.0 0.0
0.0 0.0 0.0 0.0 0.0 0.0 0.0 0.0
0.0 0.0 0.0 0.0 0.0 0.0 0.0 0.0
0.0 0.0 0.0 0.0 0.0 0.0 0.0 0.0
0.0 0.0 0.0 0.0 0.0 0.0 0.0 0.0
0.0 0.0 0.0 0.0 0.0 0.0 0.0 0.0
0.0 0.0 0.0 0.0 0.0 0.0 0.0 0.0
0.0 0.0 0.0 0.0 0.0 0.0 0.0 0.0
0.0 0.0 0.0 0.0 0.0 0.0 0.0 0.0
0.0 0.0 0.0 0.0 0.0 0.0 0.0 0.0

value_heads.value_heads.extrinsic.weight f4 [1, 128]
00000000: b74b 16be b01a 1d3e c596 40be 2e0a febd
00000010: 41eb 14bd e7af 0cbd 104c 2fbe 14bb f9bd
00000020: d03f 21be 6560 cc3d f3dc 973d d9d4 1a3d
00000030: e41e 24be 9be4 4fbe 33ec 9abd ed19 ccbd
00000040: 3359 1dbe 2b7f 393e 12bf b5bd aead 603c
00000050: 4371 32be 9f53 4dbe 6dd3 d73d 710b 3f3e
00000060: 95f4 57bd ede0 d5bd e5d6 143e 40d4 06be
00000070: fecd d73d abfb f6bd e090 5d3d 941c 14be
00000080: 26ec 4e3e 7ecc 653c 38c1 203d 76ae e53c
00000090: e8f7 ee3c bc1d 1fbe 6ceb a83c 039e 663b
000000a0: 4af2 3f3e 44b9 30be 6021 13be 0e9d 533e
000000b0: 4a06 18be 556e 383e e423 003e d59c 153e
000000c0: a219 0d3d 82dd 343e 6e92 b9bd f59c fa3d
000000d0: 85a1 41be 7b17 9a3d 4d86 3fbe 212a 7fbc
000000e0: 484b 07bd 7687 793d f3f0 f2bd cbbe 473e
000000f0: c554 58bd 1805 0d3d 1f99 fbbd 404e 373e
00000100: a061 a03d 4776 58be 7a73 133e 2f5c c5bc
00000110: 1fbd 3e3e a6de 78bd b6bc c4bd 2922 1fbe
00000120: df68 05be 3a0f d2bd aa91 27be 2d2c 1dbe
00000130: eb04 ccbd bddb 1dbe 95d5 1e3b 56cf 3d3d
00000140: 97e4 3c3e 8355 2dbd ccff 47be 2279 713d
00000150: d9a5 f6bd df69 1e3e 1b7b f03d 19da 453e
00000160: 9c01 d8bd 7f7c 21bc a4cd 7dbd 4a5a 363d
00000170: aed3 37be e992 133e c859 153e ce5f de3d
00000180: db64 163e 5edd c83d 2ac2 05bd 026a 5c3d
00000190: 9e24 59be f328 1d3d 39b6 433e 0bc9 2ebe
000001a0: d46d 4abe 078b bcbd a2b6 213e 103f 1f3e
000001b0: 3e91 a13d a978 553e 4576 46be 6794 333e
000001c0: ebd8 4c3e cdf7 e8bc 2aa3 2fbe d6d0 0d3e
000001d0: ff24 363d e9b3 2c3e 6a1d f03d 56b0 25be
000001e0: 1506 d3bd f8d8 20bc b764 4cbe 7556 12be
000001f0: 811a 813d 6090 513e 6413 143e 6493 f1bc
-0.1467732 0.15342212 -0.18807514 -0.12404285 -0.036357168 -0.03434744 -0.1711886 -0.121938854
-0.15746999 0.09979323 0.074151896 0.037800644 -0.16027409 -0.2030205 -0.07564583 -0.099658825
-0.15366058 0.18114917 -0.088743344 0.013713283 -0.17426018 -0.2005143 0.10538373 0.18656708
-0.052723486 -0.10443292 0.14535101 -0.13166904 0.10537337 -0.120597206 0.05409324 -0.14464027
0.20207271 0.0140258055 0.039246768 0.028037291 0.029170945 -0.15538687 0.02062007 0.0035189397
0.1874477 -0.17258173 -0.143682 0.2066538 -0.14846149 0.18010838 0.12513691 0.14610608
0.034448273 0.17662624 -0.09061132 0.122369684 -0.18909271 0.0752401 -0.18703575 -0.015574009
-0.03303078 0.0609202 -0.11862364 0.19506375 -0.052815218 0.034428686 -0.12285065 0.17900944
0.078311205 -0.21138869 0.1439952 -0.024091808 0.18626831 -0.06075921 -0.09606306 -0.15540375
-0.13028286 -0.102568105 -0.1636416 -0.15348883 -0.099618755 -0.15415855 0.0024236192 0.04634031
0.18446575 -0.04231788 -0.19531173 0.058953412 -0.12043352 0.15470074 0.117422305 0.19321479
-0.10547182 -0.009856342 -0.061963692 0.0445197 -0.17951843 0.1441151 0.1458503 0.10858117
0.14686911 0.098078474 -0.032655872 0.053812034 -0.21205375 0.03836913 0.19112481 -0.1706888
-0.19768459 -0.09206205 0.15792325 0.155514 0.07889031 0.2084681 -0.19381054 0.1753708
0.20004623 -0.028438473 -0.17152086 0.13849196 0.044468876 0.16865505 0.1172436 -0.16180548
-0.103038944 -0.009817354 -0.19960295 -0.14290793 0.06303883 0.20465231 0.14460522 -0.029489227
