results/ppo/My Behavior/My Behavior-161659.onnx (onnx, 108714 bytes, 6 tensors)

action_model._discrete_distribution.branches.0.bias f4 [3]
0.008391952 -0.00999296 5.803382e-05
00000000: 667e 093c 83b9 23bc 5769 7338

action_model._discrete_distribution.branches.0.weight f4 [3, 128]
-0.045599073 -0.0010987814 0.023035241 -0.038180027 -0.026241196 0.05143777 0.039555665 0.012471422
-0.015236368 0.04563717 -0.014119327 0.066341825 -0.03509595 -0.037454266 0.05391015 -0.043994173
-0.0010103779 -0.04909754 -0.048479665 0.0238088 0.0018870314 0.047656257 -0.040710345 -0.028934041
-0.057809196 -0.06998458 -0.0033096883 0.03844659 -0.023038166 0.003631833 -0.019162506 0.055733778
-0.036819 -0.032254037 -0.016706277 -0.06157107 0.0464262 0.01973903 -0.0124611035 -0.006630864
0.019418744 0.030461572 -0.026398923 0.03498428 -0.0248902 -0.01436983 -0.0035362812 -0.043473467
0.046410583 0.013604333 -0.022509275 -0.039709747 0.05151123 -0.049909327 -0.04577661 0.01378368
0.04837941 -0.03427098 -0.051805213 -0.04720789 -0.051145248 0.0343543 0.0118769035 0.05655871
-0.05319437 -0.036972567 -0.021507554 0.04671034 -0.067009605 -0.047425803 -0.038004205 -0.008244953
0.025861273 0.046179727 -0.018963054 -0.013506174 -0.02896514 0.04082295 -0.054704294 0.042441655
-0.04295663 -0.028683927 -0.007972532 -0.02740851 -0.0070901797 -0.043610644 0.048106384 -0.028083615
0.007566375 0.022629388 -0.049515914 0.022833291 -0.040247906 0.024086375 0.04369805 0.007202292
0.017372875 0.012739508 -0.023551287 0.017136728 0.03458369 0.04089342 0.012795094 -0.0069753495
-0.013354586 -0.004197081 0.038812432 0.03522555 -0.04626296 0.053068142 -0.015288441 -0.041173816
-0.029896146 -0.013189816 -0.04977546 -0.02744182 -0.06858917 0.052668583 -0.04280383 0.04311987
0.014730539 0.028168911 -0.070528544 0.046067353 0.045081656 -0.022168329 0.042358425 0.04925174
-0.03768004 0.012581929 0.03031959 -0.0045424313 -0.02219751 -0.027062539 -0.011720369 0.030283408
-0.0051120874 -0.0036395078 0.025197657 0.016094727 -0.031991746 0.00089107733 -0.03550924 -0.020112354
0.02504046 -0.00402566 -0.043005887 -0.0029208872 -0.010779725 -0.02093988 -0.00027699163 -0.017664576
-0.022010058 0.0151936 -0.021449022 -0.0005818735 0.005514236 0.0091477465 -0.013916476 -0.0050795097
-0.013172089 -0.011821685 -0.04048792 0.0119191045 -0.021018775 0.019823276 -0.003318013 -0.030947762
-0.016658444 -0.029936465 -0.026628405 -0.012854946 -0.011292806 0.031814698 -0.02243007 0.0049358094
-0.0008941505 0.011444875 0.02996632 -0.03353272 -0.010728074 0.0037612668 0.0030597735 0.007138179
-0.03304157 0.011196502 0.0045580096 -0.015357317 0.011151477 -0.023750475 -0.016680382 -0.006299174
-0.012449924 -0.021465834 0.028494976 -0.0038868769 0.034870412 -0.03148592 0.017071957 -0.010058751
-0.028827947 -0.024920287 0.03906747 -0.017186485 0.012833475 -0.0018080373 0.006607873 -0.027090088
-0.020454297 -0.021035789 0.031127945 -0.01667035 0.017569099 -0.019642347 -0.01803641 -0.023740502
-0.021148318 -0.0058217836 0.0024034812 -0.017707516 0.029208187 0.0049821204 -0.0073257494 -0.020030195
0.005170717 -0.029791705 0.015991542 7.5855234e-05 -0.040149145 -0.021541985 0.03148273 0.011614483
0.030935353 0.03147095 0.00024857547 -0.014503572 -0.021473302 -0.009003804 0.0059969206 -0.023068285
0.0111519 0.015504113 0.009853905 -0.0022077104 0.012660345 -0.029587679 0.007788795 -0.026150655
-0.0052675027 -0.00813515 0.016883263 -0.0006184813 0.009287427 -0.02733841 -0.015275455 -0.031914957
00000000: 18c6 3abd fc04 90ba 67b4 bc3c a962 1cbd
00000010: c7f7 d6bc 69b0 523d 1f05 223d ef54 4c3c
00000020: f6a1 79bc 0bee 3a3d c054 67bc 39de 873d
00000030: c5c0 0fbd a569 19bd e4d0 5c3d 3c33 34bd
00000040: a86e 84ba 811a 49bd 9d92 46bd ac0a c33c
00000050: 4456 f73a 3533 433d e4bf 26bd 1507 edbc
00000060: 56c9 6cbd 1354 8fbd 5be7 58bb 2c7a 1d3d
00000070: 89ba bcbc 0c04 6e3b b0fa 9cbc 1a49 643d
00000080: 85cf 16bd cf1c 04bd 9adb 88bc f231 7cbd
00000090: 6629 3e3d bfb3 a13c a829 4cbc b847 d9bb
000000a0: 0f14 9f3c 8c8a f93c 8e42 d8bc ad4b 0f3d
000000b0: 88e6 cbbc 6f6f 6bbc f4c0 67bb 3c11 32bd
000000c0: 0619 3e3d b5e4 5e3c 5f65 b8bc b0a6 22bd
000000d0: 71fd 523d b96d 4cbd 4180 3bbd f2d4 613c
000000e0: 7d29 463d ba5f 0cbd b431 54bd 0f5d 41bd
000000f0: ae7d 51bd 18b7 0c3d 5897 423c 1baa 673d
00000100: 57e2 59bd 8c70 17bd 9c30 b0bc 5753 3f3d
00000110: 553c 89bd 8f41 42bd 4caa 1bbd d715 07bc
00000120: 05db d33c f426 3d3d 6858 9bbc 0049 5dbc
00000130: 4d48 edbc f735 273d 9c11 60bd 4dd7 2d3d
00000140: 4bf3 2fbd 8efa eabc 399f 02bc d087 e0bc
00000150: bd54 e8bb 13a1 32bd 330b 453d 9c0f e6bc
00000160: 5bef f73b 4461 b93c 33d1 4abd e20c bb3c
00000170: fdda 24bd ca50 c53c bafc 323d 3401 ec3b
00000180: 8f51 8e3c 5fb9 503c a1ee c0bc 5362 8c3c
00000190: a1a7 0d3d dc7f 273d 84a2 513c 7991 e4bb
000001a0: 32cd 5abc ab87 89bb c9f9 1e3d ab48 103d
000001b0: 3b7e 3dbd fb5d 593d 5f7c 7abc e0a5 28bd
000001c0: c3e8 f4bc 191a 58bc 5ae1 4bbd abcd e0bc
000001d0: 7b78 8cbd 03bb 573d 1253 2fbd 769e 303d
000001e0: 5c58 713c 7dc2 e63c 4571 90bd 1fb1 3c3d
000001f0: 8ba7 383d 5b9a b5bc 0780 2d3d 31bc 493d
00000200: 6356 1abd 6f24 4e3c ca60 f83c add8 94bb
00000210: 8dd7 b5bc 42b2 ddbc ca06 40bc e914 f83c
00000220: 4c83 a7bb cf84 6ebb 516b ce3c 17d9 833c
00000230: c709 03bd 3097 693a 2372 11bd aac2 a4bc
00000240: a721 cd3c afe9 83bb f126 30bd 5b6c 3fbb
00000250: 729d 30bc 1c8a abbc 3039 91b9 4db5 90bc
00000260: 704e b4bc 94ee 783c dcb5 afbc df88 18ba
00000270: c4b0 b43b 6ee0 153c ee01 64bc 0472 a6bb
00000280: bfcf 57bc beaf 41bc a9d6 25bd 5948 433c
00000290: 912f acbc 6c64 a23c 0573 59bb 2986 fdbc
000002a0: 4a77 88bc 513d f5bc d023 dabc 8d9d 52bc
000002b0: 7605 39bc 2150 023d 44bf b7bc 92bc a13b
000002c0: 6d65 6aba 4983 3b3c ee7b f53c 9b59 09bd
000002d0: cec4 2fbc 967f 763b 7b86 483b 63e7 e93b
000002e0: 9956 07bd 8871 373c 5b5b 953b 429d 7bbc
000002f0: afb4 363c 5b90 c2bc 4ca5 88bc 4d69 cebb
00000300: c4fa 4bbc 1ed9 afbc 4c6e e93c f9ba 7ebb
00000310: 47d4 0e3d 61f7 00bd 7dda 8b3c 76cd 24bc
00000320: 9628 ecbc a125 ccbc 3605 203d acca 8cbc
00000330: 7f43 523c aafb ecba db86 d83b 08ec ddbc
00000340: c58f a7bc 3f53 acbc 0800 ff3c 4290 88bc
00000350: 12ed 8f3c fde8 a0bc 18c1 93bc 717b c2bc
00000360: 3d3f adbc a9c4 bebb b983 1d3b 5a0f 91bc
00000370: 0246 ef3c 0e41 a33b d70c f0bb 5d16 a4bc
00000380: 1e6f a93b bc0d f4bc b200 833c 7814 9f38
00000390: 6e73 24bd d178 b0bc 09f4 003d ac4a 3e3c
000003a0: 236c fd3c afe7 003d 3c53 8239 64a0 6dbc
000003b0: c7e8 afbc b184 13bc d181 c43b b3f9 bcbc
000003c0: 75b6 363c f704 7e3c 4672 213c 3caf 10bb
000003d0: 566d 4f3c dc61 f2bc 2639 ff3b e639 d6bc
000003e0: 049b acbb 4b49 05bc c54e 8a3c 9421 22ba
000003f0: 4b2a 183c cdf4 dfbc e745 7abc 42b9 02bd

network_body._body_endoder.seq_layers.0.bias f4 [128]
-0.0005207285 -0.009173269 -0.0050075604 0.018313678 -0.009525675 0.0020496983 0.002965692 0.020057086
0.038787317 -0.012308853 -0.0057210857 0.023755739 0.040874254 -0.03163137 0.025202444 0.0070960517
0.020773252 0.010712491 0.016740296 -0.0024028847 0.015826775 0.007024458 0.012053767 -0.031486083
0.013146316 -0.016565382 -0.0069515333 0.0047574565 -0.041105844 0.0036875173 0.014333123 0.028404608
0.004169221 0.01162134 -0.027476955 0.004532471 0.01700668 0.019123618 0.011796325 0.018820591
0.031080695 0.02930489 -0.003855512 0.0124748405 0.026224123 -4.9278857e-05 0.00010486744 0.015554041
0.026400313 0.0036759747 0.016907373 0.014272976 0.01764336 0.017074788 -0.020586282 0.009426135
0.0011861167 0.03692113 0.020051649 -0.019097622 0.01158495 -0.030731285 0.018372925 0.04630035
-0.001277808 -0.012082623 0.008268808 0.008667075 -0.004995248 0.012185082 0.011830424 0.027349873
0.012641829 0.011310917 -0.009270085 0.020399295 0.013353977 0.019096272 0.0036918388 -0.003586424
0.021026406 0.02023496 0.03202747 0.020473393 -0.0018275941 0.03804089 0.009727147 0.03998295
0.015932474 0.02328223 -0.008061067 0.032763805 -0.009600274 0.00029962635 0.031627074 -0.00059248955
0.0018568076 -0.02739654 0.030054945 -0.020036299 -0.0047903224 0.025993144 0.011193936 0.005913044
0.013048773 -0.00015407053 0.018699422 0.0051239496 0.026179189 -0.00013468857 0.006699348 0.017548278
0.008508316 0.012977057 0.025194984 0.0069648386 0.008158579 0.029261187 0.038012512 0.020627778
0.019611966 0.029084362 0.011066479 0.045379702 0.0064298455 0.0278532 -0.0066095153 -0.0056303954
00000000: 8081 08ba 7b4b 16bc 7616 a4bb 9106 963c
00000010: 9411 1cbc 3b54 063b 0e5c 423b c24e a43c
00000020: 73df 1e3d 12ab 49bc f277 bbbb 659b c23c
00000030: c36b 273d e58f 01bd 5b75 ce3c ff85 e83b
00000040: ab2c aa3c 7283 2f3c f222 893c b779 1dbb
00000050: 27a7 813c 6d2d e63b 2a7d 453c 8df7 00bd
00000060: a563 573c 20b4 87bc b0c9 e3bb 70e4 9b3b
00000070: 9a5e 28bd 46aa 713b 7ad5 6a3c c8b0 e83c
00000080: f69d 883b 6f67 3e3c 5a17 e1bc 1f85 943b
00000090: 9851 8b3c 22a9 9c3c 6045 413c a42d 9a3c
000000a0: f19c fe3c cf10 f03c c2ac 7cbb 4663 4c3c
000000b0: f9d3 d63c c5b0 4eb8 47ec db38 60d6 7e3c
000000c0: 7845 d83c 9fe8 703b 5581 8a3c 33d9 693c
000000d0: cf88 903c 6de0 8b3c 90a4 a8bc 1370 1a3c
000000e0: 7977 9b3a 9c3a 173d 5b43 a43c 9e72 9cbc
000000f0: cdce 3d3c 2dc0 fbbc d182 963c 70a5 3d3d
00000100: 1f7c a7ba 32f6 45bc e579 073c 5900 0e3c
00000110: 2daf a3bb f0a3 473c 65d4 413c d70c e03c
00000120: ad1f 4f3c 6d51 393c 8ee1 17bc 6c1c a73c
00000130: a4ca 5a3c c96f 9c3c c7f2 713b 360a 6bbb
00000140: 923f ac3c c9c3 a53c 3d2f 033d d1b7 a73c
00000150: e28b efba c4d0 1b3d 9d5e 1f3c 29c5 233d
00000160: d284 823c 60ba be3c 9112 04bc 5733 063d
00000170: 784a 1dbc 2b17 9d39 648b 013d 4d51 1bba
00000180: 2060 f33a b56e e0bc ca35 f63c 2a23 a4bc
00000190: 23f8 9cbb 93ef d43c c566 373c 35c2 c13b
000001a0: 85ca 553c fe8d 21b9 882f 993c cee6 a73b
000001b0: bd75 d63c 303b 0db9 3486 db3b 68c1 8f3c
000001c0: 7766 0b3c b99d 543c b665 ce3c 4d39 e43b
000001d0: 8fab 053c 28b5 ef3c 02b3 1b3d 96fb a83c
000001e0: 46a9 a03c 5442 ee3c 2d50 353c 11e0 393d
000001f0: 74b1 d23b 652c e43c a294 d8bb 2e7f b8bb

network_body._body_endoder.seq_layers.0.weight f4 [128, 75]
-0.3316366 -0.15200777 0.063886434 0.0067157107 0.044597063 0.16148183 0.24966009 0.0055939457
0.24480638 -0.048706032 -0.2073525 -0.04155659 0.020932557 -0.1189511 -0.019819172 -0.09903785
0.08542365 -0.13801886 0.0035890292 -0.059970353 0.21518585 -0.08657912 -0.015564324 0.053220302
-0.075970426 -0.0720597 -0.13855776 0.057000596 -0.18167129 0.13280492 -0.09079169 0.32454348
-0.030003479 0.051281925 -0.0061489907 0.08004078 0.19360667 -0.054195058 -0.109891936 -0.016119711
0.036424477 0.032296065 -0.12599663 0.045281127 0.013524137 -0.04871949 -0.18649079 -0.060825672
-0.007560727 0.17976795 -0.084685765 -0.055067122 0.34393972 0.08481289 -0.021207692 0.2577028
0.053753685 0.17574084 -0.061394457 0.049118396 -0.07269341 -0.016175194 -0.036014833 -0.02255504
0.080382854 0.041944046 -0.10401956 -0.07435829 0.055955432 -0.042624883 0.015827663 0.0058194664
-0.06391102 -0.06031365 0.082105875 -0.21571574 0.049087055 -0.103571944 -0.012246459 0.07772655
-0.09342121 0.043340933 0.09616562 -0.06123461 -0.08988251 0.15557572 0.019154059 -0.14491673
-0.18374084 -0.2527411 0.024378031 0.03681848 -0.0491806 0.24023902 -0.2854689 -0.045411866
-0.051159512 -0.2157806 0.011348889 0.052389212 -0.0067242845 -0.0008440474 0.18160617 -0.091779485
0.16535601 -0.26486444 0.20176485 0.04943825 -0.09121392 0.15341666 0.072450526 -0.10717856
-0.028107664 0.09078855 0.26411065 0.0435385 0.09061032 -0.07070086 -0.084696464 -0.26933908
0.0011874797 0.086625926 -0.11945733 -0.12957701 -0.26742464 -0.0375164 -0.22537878 0.15683366
-0.0824519 0.013808706 -0.08267093 0.043307915 -0.06450122 0.07999878 -0.18289727 -0.021505265
-0.122228116 -0.26797107 -0.21089202 0.19499695 0.010659656 0.17520066 0.16006006 0.03251296
-0.099177375 0.22923948 -0.015100861 0.11787482 -0.038984228 0.022075748 -0.049926806 0.044055413
0.062152427 0.16250582 -0.09314657 0.20565689 0.0976629 -0.0006411385 -0.10021682 0.14636078
-0.056966893 0.033990253 -0.022651609 -0.055332635 -0.010978305 0.09616758 0.05592925 -0.047087386
0.07907021 0.008503287 -0.11405436 0.04838825 -0.005204185 0.09197851 0.02401438 0.025697114
-0.1699224 0.122234225 0.14226891 -0.08230398 -0.21392663 -0.024194632 -0.09276528 0.033585183
-0.07573646 0.0073590297 -0.1747246 0.078822285 0.038298786 0.15151136 -0.17312615 0.03436306
-0.011071576 0.0831327 0.03850862 -0.068441585 0.0125064785 0.11635285 -0.04642243 0.16591457
0.034648433 0.0026953877 0.014330379 -0.02327385 0.22615944 -0.014537551 0.09582711 -0.11602853
-0.30172944 -0.037581436 -0.14841846 -0.24063112 0.04062737 -0.007693616 0.08571734 -0.08724162
0.067388415 -0.09728063 0.002523712 0.01367017 -0.046053305 0.081268325 0.03806148 -0.090630434
-0.015670767 -0.22326754 -0.0025445009 -0.104446195 0.01152224 -0.021375263 -0.021095611 -0.029781416
0.13999452 0.0863203 0.049424075 -0.15482216 0.051005315 0.10664893 -0.05049332 -0.06862757
-0.021418694 0.011509231 -0.20932187 0.10169692 0.099005245 0.015119375 0.011013266 -0.12954244
0.06647026 0.067462236 0.05418213 0.072210364 -0.04193163 0.040071953 0.1737899 -0.03927661
00000000: 46cc a9be eda7 1bbe e4d6 823d 770f dc3b
00000010: 69ab 363d 7e5b 253e e5a6 7f3e 6b4d b73b
00000020: 86ae 7a3e fa7f 47bd 3754 54be 3e37 2abd
00000030: c17a ab3c a29c f3bd d15b a2bc 5bd4 cabd
00000040: 98f2 ae3d d154 0dbe eb35 6b3b 79a3 75bd
00000050: ae59 5c3e 6550 b1bd 8201 7fbc 88fd 593d
00000060: 6296 9bbd 0994 93bd 16e2 0dbe 7579 693d
00000070: 0a08 3abe 03fe 073e fef0 b9bd 902a a63e
00000080: dbc9 f5bc ff0c 523d 797d c9bb 6cec a33d
00000090: d440 463e a3fb 5dbd 060f e1bd 7c0d 84bc
000000a0: d531 153d e148 043d 4305 01be b478 393d
000000b0: 5894 5d3c 178e 47bd 71f7 3ebe 5724 79bd
000000c0: fabf f7bb 1715 383e bb6f adbd 108e 61bd
000000d0: de18 b03e 61b2 ad3d c1bb adbc 9ff1 833e
000000e0: d32c 5c3d 68f5 333e c178 7bbd 5f30 493d
000000f0: 48e0 94bd d781 84bc 4a84 13bd 59c5 b8bc
00000100: c49f a43d 85cd 2b3d 3508 d5bd 2949 98bd
00000110: 8631 653d 6e97 2ebd 04a9 813c 39b1 be3b
00000120: c8e3 82bd 720b 77bd 2027 a83d 96e4 5cbe
00000130: 820f 493d 871d d4bd 5fa5 48bc 192f 9f3d
00000140: 9f53 bfbd 4386 313d 7bf2 c43d 24d1 7abd
00000150: 5214 b8bd 3e4f 1f3e f9e8 9c3c 0d65 14be
00000160: 8f26 3cbe 4867 81be 70b4 c73c f9ce 163d
00000170: 9971 49bd 3801 763e fb28 92be cb01 3abd
00000180: a38c 51bd 97f5 5cbe b1f0 393c 1296 563d
00000190: 6357 dcbb 1043 5dba f8f6 393e e2f6 bbbd
000001a0: 1653 293e 509c 87be 729b 4e3e c37f 4a3d
000001b0: 5dce babd 4219 1d3e f160 943d 6f80 dbbd
000001c0: 0b42 e6bc 59ef b93d 8339 873e 6d55 323d
000001d0: e791 b93d 9dcb 90bd 5775 adbd d0e6 89be
000001e0: 35a5 9b3a ef68 b13d 0ba6 f4bd d6af 04be
000001f0: e2eb 88be ccaa 19bd b2c9 66be 0199 203e
00000200: 8bdc a8bd e93d 623c 604f a9bd a463 313d
00000210: 3719 84bd 66d6 a33d 6c49 3bbe cf2b b0bc
00000220: bc52 fabd 8133 89be 14f4 57be 48ad 473e
00000230: d6a5 2e3c cd67 333e c9e6 233e 4f2c 053d
00000240: 821d cbbd c1bd 6a3e 9a69 77bc 5b68 f13d
00000250: edad 1fbd 33d8 b43c 0d80 4cbd 7373 343d
00000260: 8b93 7e3d ed67 263e a1c3 bebd b897 523e
00000270: 7d03 c83d 1412 28ba 7a3e cdbd 9adf 153e
00000280: 1e56 69bd 5d39 0b3d de8f b9bc 79a4 62bd
00000290: 59de 33bc 82f3 c43d 1216 653d b4de 40bd
000002a0: 90ef a13d 5f51 0b3c 5595 e9bd c232 463d
000002b0: de87 aabb 3b5f bc3d ceb9 c43c c182 d23c
000002c0: 2300 2ebe f055 fa3d f1ae 113e fd8e a8bd
000002d0: 950f 5bbe d233 c6bc b9fb bdbd 9e90 093d
000002e0: b81b 9bbd 0424 f13b 01eb 32be 946d a13d
000002f0: 30df 1c3d cb25 1b3e fb47 31be 48c0 0c3d
00000300: 8e65 35bc 7a41 aa3d 37bb 1d3d 1a2b 8cbd
00000310: f9e7 4c3c 674a ee3d 7225 3ebd 82e5 293e
00000320: 84eb 0d3d 1aa5 303b f7c9 6a3c cda8 bebc
00000330: 5796 673e e92e 6ebc 0141 c43d 5ea0 edbd
00000340: 487c 9abe feee 19bd 02fb 17be 0168 76be
00000350: e368 263d bb1a fcbb 938c af3d bcab b2bd
00000360: f002 8a3d 113b c7bd dd64 253b d9f8 5f3c
00000370: 64a2 3cbd 0270 a63d 5be6 1b3d 739c b9bd
00000380: fb5f 80bc 3fa0 64be a4c1 26bb e3e7 d5bd
00000390: c7c7 3c3c 2d1b afbc b4d0 acbc 28f8 f3bc
000003a0: b95a 0f3e b3c8 b03d e670 4a3d b389 1ebe
000003b0: f3ea 503d c16a da3d 15d2 4ebd 9d8c 8cbd
000003c0: 4276 afbc 3791 3c3c 7958 56be 7a46 d03d
000003d0: 43c3 ca3d 41b7 773c fc70 343c c6a6 04be
000003e0: 8f21 883d a429 8a3d 15ee 5d3d 07e3 933d
000003f0: 80c0 2bbd 7d22 243d fbf5 313e 83e0 20bd

network_body._body_endoder.seq_layers.2.bias f4 [128]
0.02311475 -0.009761342 0.012746428 0.011312669 0.019250294 0.019625131 0.016303303 -0.0061152563
0.01026205 0.014757378 -0.008450508 0.02750324 0.010543728 0.00012269785 0.0250812 0.013870115
-0.0044751 0.024853857 0.018589698 0.0073695793 -0.0018901126 0.021371486 0.011068081 0.016206684
0.021997176 0.014021116 0.012375797 0.021959728 -0.002122233 0.004861206 0.021084957 0.019346567
0.01733728 0.00055672333 0.017410817 0.01302414 0.023304295 -0.0027364343 0.0024590932 0.012973401
0.00964875 0.02424379 0.012456572 0.0147929955 0.013921494 -0.0016209609 0.006990764 0.0033471063
0.026275098 0.009815069 -0.0014425755 0.02631744 0.023466699 0.013442868 0.0047727027 0.006150369
0.02482739 0.012028196 0.010836689 0.018670788 0.0060122153 0.019384498 0.0057995785 0.019622615
0.0120382365 0.009665758 -0.0032473034 0.024045127 0.011600487 0.013460695 0.029126894 -0.00020417612
0.018224586 0.017972434 -0.002003488 0.0041045058 -0.002430861 0.026838712 0.0030027132 0.018744888
0.015228472 0.017862368 0.0022846775 0.01543329 -0.0034978355 0.007286449 0.023655454 0.017250223
0.007904046 0.0037618077 0.010759821 0.01290324 -0.002030641 0.010321097 0.018070856 0.00853069
0.004864701 0.013484893 0.005447682 0.0035444354 0.013539143 0.02400466 0.0008105029 -0.0082306545
-0.0021543032 -0.00832765 0.02325974 0.01753708 0.02724973 0.020423876 -0.016979953 0.018691672
0.018610954 -0.0037403153 -0.0030505925 0.0044508385 0.008560378 0.027443526 0.007721689 0.023924869
0.00754755 0.010478479 0.0079354355 0.026354263 0.009267365 0.007363457 0.019787626 0.024960313
00000000: 255b bd3c 09ee 1fbc 65d6 503c c658 393c
00000010: cbb2 9d3c e2c4 a03c 818e 853c 7d62 c8bb
00000020: 2822 283c eec8 713c 0074 0abc 7a4e e13c
00000030: 9abf 2c3c 74a8 0039 1777 cd3c 7b3f 633c
00000040: dca3 92bb 519a cb3c 6c49 983c 837c f13b
00000050: a8bd f7ba 4113 af3c e556 353c e1c3 843c
00000060: 6c33 b43c d3b8 653c dbc3 4a3c e3e4 b33c
00000070: 2915 0bbb c04a 9f3b 5cba ac3c b17c 9e3c
00000080: e906 8e3c 12f1 113a 21a1 8e3c 3463 553c
00000090: a6e8 be3c c055 33bb bd28 213b 638e 543c
000000a0: ca15 1e3c ea9a c63c a616 4c3c 525e 723c
000000b0: fa16 643c 6c76 d4ba c712 e53b 205b 5b3b
000000c0: e03e d73c 62cf 203c cd14 bdba ac97 d73c
000000d0: 3c3d c03c 7a3f 5c3c 5564 9c3b 0989 c93b
000000e0: d062 cb3c e911 453c 5e8c 313c 7bf3 983c
000000f0: 1e02 c53b 3dcc 9e3c 640a be3b 9bbf a03c
00000100: 063c 453c 215d 1e3c b6d0 54bb 49fa c43c
00000110: f80f 3e3c 3f8a 5c3c 869b ee3c 1c18 56b9
00000120: ba4b 953c ed3a 933c f34c 03bb 177f 863b
00000130: 144f 1fbb dcdc db3c 2bc9 443b e18e 993c
00000140: d780 793c 1a54 923c 87ba 153b e9db 7c3c
00000150: f13b 65bb 2ac3 ee3b 15c9 c13c 5750 8d3c
00000160: f97f 013c a988 763b f649 303c 1c68 533c
00000170: 8114 05bb d219 293c 5509 943c 4fc4 0b3c
00000180: 1268 9f3b beef 5c3c 7882 b23b c249 683b
00000190: 48d3 5d3c 6ca5 c43c ee77 543a ded9 06bc
000001a0: 362f 0dbb b270 08bc 368b be3c eca9 8f3c
000001b0: d33a df3c f94f a73c 8b19 8bbc 471f 993c
000001c0: 0076 983c 1420 75bb 73ec 47bb 57d8 913b
000001d0: d440 0c3c 3fd1 e03c 3906 fd3b 16fe c33c
000001e0: 7051 f73b edad 2b3c a103 023c e5e4 d73c
000001f0: 25d6 173c 2849 f13b a919 a23c 9279 cc3c

network_body._body_endoder.seq_layers.2.weight f4 [128, 128]
-0.116901696 -0.07612115 -0.05951465 0.13220839 0.20157842 -0.075495 -0.095178336 0.1472598
0.05630687 -0.067939326 -0.030882658 0.14236546 -0.0066744615 0.0011709147 -0.016916314 -0.047689322
-0.062219467 0.06205194 -0.036730234 -0.06981604 0.054137345 0.003110266 0.13477312 -0.17245346
0.15027483 0.06626311 0.075996794 -0.027350208 -0.08362024 -0.0015953494 0.21570286 -0.071257874
-0.09012989 -0.030301409 -0.07085501 -0.2609851 0.018965112 0.12546729 -0.11283013 -0.110354826
-0.061550528 -0.06724654 -0.15358803 -0.11607137 0.06978206 -0.050013304 0.03932767 0.03982003
0.10494417 0.020726684 -0.009569298 0.08633436 0.01250868 -0.066872984 -0.16010405 -0.07146018
0.0864721 0.15146704 0.013578375 0.08825222 -0.114572994 0.06217824 0.14313878 -0.10939343
-0.07080758 -0.07778057 -0.12182399 -0.11809982 0.1496715 0.027466543 0.097462066 0.08568917
0.1495008 -0.1474568 -0.25966185 0.15516034 0.18050894 -0.008107877 0.0040805363 -0.08891206
0.13955858 0.005856209 -0.10911859 -0.020068072 0.03081593 0.117373094 -0.14440219 0.020931114
0.014761655 0.023637032 0.0018978737 0.12898406 -0.03973597 -0.07332485 -0.03357555 0.00820958
0.06853131 -0.053928725 0.14097528 0.082452446 -0.025021793 -0.11091881 -0.1815867 0.016885124
-0.015091141 -0.036163643 0.00067834964 -0.016277976 0.13220641 0.13954759 0.11504922 -0.026461856
0.13032015 -0.04719868 0.099600986 -0.02182318 0.05166266 -0.052007593 0.064172 0.16185431
0.044403035 0.17449401 -0.08236335 0.053680398 0.07343603 -0.12690677 0.22806688 -0.12635559
0.08515577 0.113497324 -0.0077582384 0.07599777 0.07848783 0.03675904 -0.04663843 -0.026089368
0.13519573 0.22502978 0.14621982 0.018219572 -0.019197587 0.14685151 0.050167523 -0.009697001
-0.012495404 0.047631323 0.16354144 0.08029471 -0.073606335 -0.008033269 0.079605214 -0.07968113
0.11364894 0.0773971 0.013336459 0.10813552 -0.10414049 -0.13727227 0.105128594 0.04115264
0.05444433 -0.052024625 0.15797918 0.16152027 0.016759027 -0.19636986 0.17237389 0.013245452
0.020557886 0.05861648 0.12134325 0.064988114 0.04272535 -0.072434224 -0.050188936 -0.13290103
-0.15720999 0.17910247 0.036007088 -0.020689584 -0.013085586 -0.047744155 -0.099424176 -0.036880095
0.10459619 -0.054109346 0.18017644 0.08537753 -0.021008385 -0.14418818 -0.032275505 -0.08680382
-0.12872328 -0.13593982 0.07328666 -0.15514939 -0.021164145 -0.069284044 -0.036751408 -0.01169174
-0.1251363 0.024888122 0.14562449 0.01012533 0.025172766 -0.031082772 -0.075375624 0.08753655
0.045340996 0.090099216 -0.0033918822 0.002474778 -0.016017219 -0.20333247 0.01212833 -0.08355315
0.02735595 0.07782136 0.0018760381 0.037348464 0.07074038 0.12084119 -0.14133725 0.05047633
-0.027486008 -0.13508587 0.12376249 0.028338337 0.012070376 0.14312516 0.008961876 -0.0073645073
-0.12853725 0.009251724 -0.024570325 0.039838284 -0.047396816 -0.012510621 0.20887136 -0.015440608
-0.14623162 0.023920668 0.104628526 0.037033517 0.2019424 -0.052601494 -0.039263576 0.044170827
-0.060777772 -0.054296717 -0.09475056 -0.091378145 0.010504521 -0.11771763 0.07760892 0.015969926
00000000: 286a efbd 68e5 9bbd a2c5 73bd a361 073e
00000010: 936a 4e3e 1f9d 9abd dcec c2bd 46cb 163e
00000020: 08a2 663d c623 8bbd a1fd fcbc 40c8 113e
00000030: 71b5 dabb 6179 993a 1594 8abc e155 43bd
00000040: d7d9 7ebd 2d2a 7e3d 7172 16bd b6fb 8ebd
00000050: 1fbf 5d3d 9bd5 4b3b f701 0a3e a497 30be
00000060: a5e1 193e f4b4 873d 35a4 9b3d 8b0d e0bc
00000070: 1741 abbd 0b1b d1ba 36e1 5c3e a6ef 91bd
00000080: 0596 b8bd a93a f8bc 6e1c 91bd d79f 85be
00000090: b95c 9b3c 7f7a 003e 7c13 e7bd b601 e2bd
000000a0: 681c 7cbd 8eb8 89bd 2e46 1dbe d4b6 edbd
000000b0: e6e9 8e3d c0da 4cbd 0d16 213d 541a 233d
000000c0: f8ec d63d 02cb a93c 8bc8 1cbc 12d0 b03d
000000d0: 35f1 4c3c b4f4 88bd 51f2 23be b759 92bd
000000e0: 4918 b13d 2d1a 1b3e d577 5e3c 94bd b43d
000000f0: 3fa5 eabd 9cae 7e3d f992 123e aa09 e0bd
00000100: 9103 91bd 6b4b 9fbd db7e f9bd 52de f1bd
00000110: 7c43 193e 8401 e13c 319a c73d ce7d af3d
00000120: bd16 193e eafe 16be 66f2 84be 5ae2 1e3e
00000130: 56d7 383e e7d6 04bc 05b6 853b 8717 b6bd
00000140: 72e8 0e3e 71e5 bf3b 9179 dfbd cc65 a4bc
00000150: b071 fc3c 4e61 f03d 2bde 13be ba77 ab3c
00000160: deda 713c 73a2 c13c 13c2 f83a 6614 043e
00000170: 2fc2 22bd 572b 96bd 8486 09bd 7981 063c
00000180: 255a 8c3d 5ee4 5cbd d35b 103e d4dc a83d
00000190: 81fa ccbc 6729 e3bd ddf1 39be ac52 8a3c
000001a0: d540 77bc 5420 14bd 46d3 313a 6459 85bc
000001b0: 1e61 073e 90e5 0e3e ed9e eb3d 89c6 d8bc
000001c0: a572 053e 6753 41bd 9afb cb3d 87c6 b2bc
000001d0: 3a9c 533d ea05 55bd 9c6c 833d 23bd 253e
000001e0: f5df 353d 8fae 323e 1eae a8bd fadf 5b3d
000001f0: a165 963d d9f3 01be 5d8a 693e 5c63 01be
00000200: 2666 ae3d 4971 e83d d238 febb b8a4 9b3d
00000210: 3abe a03d a690 163d f007 3fbd 5fb9 d5bc
00000220: c070 0a3e 356e 663e a6ba 153e 3641 953c
00000230: 4244 9dbc 3e60 163e 767c 4d3d 2ce0 1ebc
00000240: 86b9 4cbc 1019 433d 6877 273e 8e71 a43d
00000250: ebbe 96bd f99d 03bc 0f08 a33d dc2f a3bd
00000260: c7c0 e83d 5f82 9e3d 2a81 5a3c 2876 dd3d
00000270: 9c47 d5bd 1a91 0cbe a94d d73d ac8f 283d
00000280: 0501 5f3d c617 55bd 4bc5 213e 9265 253e
00000290: 3a4a 893c 2e15 49be c882 303e 7403 593c
000002a0: 0369 a83c d617 703d cf82 f83d 7d18 853d
000002b0: c700 2f3d 6558 94bd ea92 4dbd 3517 08be
000002c0: a8fb 20be a366 373e 2b7c 133d 347d a9bc
000002d0: ed64 56bc 608f 43bd e79e cbbd 950f 17bd
000002e0: 8736 d63d c3a1 5dbd 2c80 383e 6ada ae3d
000002f0: c719 acbc 11a6 13be 5233 04bd 34c6 b1bd
00000300: 09d0 03be cf33 0bbe 5117 963d 7bdf 1ebe
00000310: 6e60 adbc cbe4 8dbd a588 16bd b68e 3fbc
00000320: bb23 00be 2de2 cb3c 961e 153e b6e4 253c
00000330: 1e37 ce3c 4ca1 febc 895e 9abd 5d46 b33d
00000340: 7bb7 393d f085 b83d 574a 5ebb e32f 223b
00000350: 8b36 83bc 6336 50be e7b5 463c ea1d abbd
00000360: 9619 e03c ce60 9f3d 65e5 f53a b4fa 183d
00000370: 55e0 903d 967b f73d b6ba 10be 45c0 4e3d
00000380: 562a e1bc f353 0abe 3077 fd3d cd25 e83c
00000390: d4c2 453c 678f 123e d5d4 123c f751 f1bb
000003a0: 459f 03be 8b94 173c b547 c9bc 782d 233d
000003b0: 2a23 42bd 59f9 4cbc 60e2 553e 9bfa 7cbc
000003c0: bebd 15be 47f5 c33c 7b47 d63d 75b0 173d
000003d0: fdc9 4e3e aa74 57bd d8d2 20bd 78ec 343d
000003e0: 1df2 78bd 3c66 5ebd 950c c2bd 7724 bbbd
000003f0: 281b 2c3c f115 f1bd 6df1 9e3d 5dd3 823c
