results/ppo/My Behavior/My Behavior-863591.onnx (onnx, 108714 bytes, 6 tensors)

action_model._discrete_distribution.branches.0.bias f4 [3]
0	0x3bc72bc0	0.0060782135
1	0xba6b1991	-0.0008968348
2	0xbba25cce	-0.004954911

action_model._discrete_distribution.branches.0.weight f4 [3, 128]
0	0xbd8db896	-0.069199726
1	0xbc490f08	-0.01227165
2	0x3d847a38	0.06468624
3	0xbd6ff843	-0.05858637
4	0xbd67777c	-0.056510434
5	0x3d9c6036	0.07635538
6	0x3d7f2bbc	0.062297568
7	0x3c36fcc2	0.011168661
8	0xbd836af5	-0.06416885
9	0x3d82599a	0.063647464
10	0xbd50d83e	-0.050987475
11	0x3dc2baa4	0.09508255
12	0xbd85fc4a	-0.06542261
13	0xbd933794	-0.07188335
14	0x3da3d775	0.080000795
15	0xbd8057f9	-0.062667795
16	0xbc8172ec	-0.01580187
17	0xbd98dd34	-0.07464066
18	0xbd9965d1	-0.07490123
19	0x3d4269f9	0.047464345
20	0x3c75c8db	0.015001501
21	0x3d9a4397	0.07532423
22	0xbde01d08	-0.10943037
23	0xbd814597	-0.06312101
24	0xbdb46d7c	-0.08809945
25	0xbdc7b24d	-0.09750805
26	0xbb86f84c	-0.0041189548
27	0x3da838f6	0.082139894
28	0xbd31fbab	-0.0434529
29	0x3d03858f	0.032109793
30	0xbd5b74b5	-0.053578097
31	0x3dafc038	0.08581585
32	0xbdb59c40	-0.08867693
33	0xbd5b07f1	-0.05347437
34	0xbd3d1cc3	-0.046170007
35	0xbda438b4	-0.08018628
36	0x3d901322	0.07034899
37	0x3ced1f73	0.02894566
38	0xbd7bd9c3	-0.06148697
39	0xbc52ada0	-0.012858778
40	0x3cf9a85c	0.030475788
41	0x3d30c003	0.043151867
42	0xbd397358	-0.045276016
43	0x3d556af1	0.05210394
44	0xbd6eca3d	-0.05829834
45	0xbc590e36	-0.013248017
46	0xbd44e7c4	-0.04807259
47	0xbda23f53	-0.079222344
48	0x3db05263	0.08609464
49	0x3d2a25bc	0.041539893
50	0x3b2b848d	0.0026171536
51	0xbd8628e7	-0.0655077
52	0x3d93d226	0.07217817
53	0xbd9e54f5	-0.07731048
54	0xbd70e900	-0.058815956
55	0x3d317a59	0.04332957
56	0x3d8a27f7	0.06745904
57	0xbd5ddce4	-0.054165736
58	0xbde8b1b2	-0.11362018
59	0xbda7a7c0	-0.08186293
60	0xbdb1ae3b	-0.0867581
61	0x3d7d5c2d	0.061855484
62	0x3cd07f25	0.025451252
63	0x3d93e2e4	0.0722101
64	0xbd979a53	-0.07402482
65	0xbd77787d	-0.06041764
66	0xbce8f137	-0.028435333
67	0x3da86c82	0.08223821
68	0xbdc540dd	-0.09631512
69	0xbd8cddb4	-0.06878224
70	0xbdb95ccc	-0.09050903
71	0xbd4544fa	-0.048161484
72	0x3d4a8ba3	0.049449574
73	0x3da5163d	0.08060882
74	0xbcfd88ca	-0.030949015
75	0xbcb149d9	-0.021641659
76	0xbd4d8072	-0.050171323
77	0x3da50b59	0.08058805
78	0xbda8ecb1	-0.0824827
79	0x3d71f99d	0.05907594
80	0xbd74cd33	-0.059766006
81	0xbd51a9c6	-0.0511873
82	0xbca2cc67	-0.019872857
83	0xbd558942	-0.052132852
84	0xbb5ffae7	-0.003417665
85	0xbd851ec5	-0.065000094
86	0x3db45c91	0.08806718
87	0xbd78af9e	-0.060714357
88	0x3cfc7095	0.030815402
89	0x3d02fb88	0.03197816
90	0xbdaf5537	-0.08561175
91	0x3d2b167f	0.0417695
92	0xbdc26ef6	-0.0949382
93	0x3d34467b	0.044012528
94	0x3dad3538	0.08457416
95	0x3c8b812b	0.017029366
96	0x3d2a38f6	0.04155823
97	0x3c8c891d	0.017155224
98	0xbd3d4c78	-0.046215504
99	0x3d115d9f	0.035489675
100	0x3d3bacbe	0.045819037
101	0x3d86afbd	0.06576488
102	0x3cf9e9ed	0.030507052
103	0xbd7290ff	-0.05922031
104	0xbc9e00a2	-0.019287411
105	0xbd0f170c	-0.03493409
106	0x3db13952	0.08653511
107	0x3d7176a6	0.058951043
108	0xbdac1168	-0.084017575
109	0x3d926714	0.07148567
110	0xbdb97af8	-0.090566576
111	0xbd918c34	-0.0710682
112	0xbd8b52e4	-0.068029195
113	0xbc4b4e16	-0.012408754
114	0xbdb4ddfc	-0.08831403
115	0xbd73e2cc	-0.059542462
116	0xbdb7a624	-0.08967236
117	0x3d9d19d4	0.07670942
118	0xbdb5ff27	-0.08886557
119	0x3d86faa1	0.065907724
120	0x3cb706bb	0.022342077
121	0x3d8e5415	0.06949631
122	0xbdbaf9a8	-0.091296494
123	0x3db11b98	0.08647841
124	0x3d6bde19	0.057584856
125	0xbd30b83c	-0.04314445
126	0x3d8f5ee7	0.07000523
127	0x3d9b1724	0.07572773
128	0xbd5e8152	-0.05432255
129	0x3cd8b1b0	0.026451916
130	0x3d2855a9	0.041097317
131	0xbc02441e	-0.007950811
132	0xbd0b7c1b	-0.034053903
133	0xbd1d958a	-0.03847269
134	0xbccadd35	-0.024763683
135	0x3d4434e1	0.04790199
136	0x39ca4c7a	0.00038585422
137	0xbb17db82	-0.0023171608
138	0x3d505d15	0.05087002
139	0x3c889fc2	0.016677741
140	0xbd03ce7d	-0.032179344
141	0xbbc2fdd6	-0.0059506698
142	0xbd46c60e	-0.048528723
143	0xbcc2759d	-0.023737723
144	0x3d50355c	0.050832137
145	0xbb4c1102	-0.0031138067
146	0xbd64f530	-0.05589789
147	0xbb850efe	-0.004060625
148	0xbd50e397	-0.050998297
149	0xbcec5aa6	-0.028851818
150	0xbb4fcb93	-0.0031707033
151	0xbcbff731	-0.0234333
152	0xbcf176a7	-0.029475523
153	0x3cf69317	0.030099435
154	0xbcf85619	-0.030314492
155	0xbbf405ea	-0.007446994
156	0x3c2178c8	0.009855457
157	0x3ce020af	0.027359335
158	0xbd081778	-0.033225507
159	0xbc8204b6	-0.015871387
160	0xbc7f6002	-0.015586855
161	0xbcd29104	-0.025703914
162	0xbd4283e5	-0.047489066
163	0x3c626c63	0.013819787
164	0xbcaedcea	-0.021345574
165	0x3d065231	0.032793228
166	0xbc3fd9b1	-0.0117096165
167	0xbd2bcf36	-0.04194566
168	0xbc9656b6	-0.018351894
169	0xbcd7acd8	-0.026327536
170	0xbd1249d0	-0.035714924
171	0xbc3f386e	-0.011671169
172	0xbd0f0047	-0.034912374
173	0x3d0def65	0.034652133
174	0xbcc528b2	-0.024067257
175	0x3b99cd7b	0.0046936846
176	0xbc819e85	-0.015822658
177	0x3ce1c342	0.027558926
178	0x3cd0bbf6	0.025480252
179	0xbd14d51d	-0.036336053
180	0xbc45e4de	-0.012078492
181	0x3b8ba3a4	0.004261451
182	0xba3d386b	-0.0007218185
183	0x3bc46f09	0.0059946817
184	0xbd2decac	-0.042462036
185	0x3bc41adf	0.0059846486
186	0x3cd1fa68	0.025632098
187	0xbcc6f84d	-0.02428832
188	0x3cf78e3c	0.03021919
189	0xbd1c134f	-0.03810435
190	0xbd356fa4	-0.044295922
191	0xbb69e5aa	-0.003568987
192	0xbca3ac44	-0.019979604
193	0xbd397333	-0.04527588
194	0x3d3db966	0.046319388
195	0xbc55d803	-0.0130519895
196	0x3d4609a4	0.048349038
197	0xbd23b8ce	-0.039971165
198	0x3d2559f5	0.040368993
199	0xbc986374	-0.01860211
200	0xbd1d30a8	-0.03837648
201	0xbd0eb31b	-0.034838777
202	0x3d6d7f1c	0.05798255
203	0xbd2a6eb9	-0.0416095
204	0x3c58dfca	0.013236949
205	0x392e1dc1	0.00016605017
206	0xbaed5cb1	-0.0018109289
207	0xbd13f81e	-0.036125295
208	0xbce34375	-0.027742127
209	0xbd2b919f	-0.041886922
210	0x3d8d6ce8	0.06905538
211	0xbcfccdbd	-0.030859822
212	0x3c819e7d	0.015822643
213	0xbcb17153	-0.021660483
214	0xbd2448d1	-0.040108506
215	0xbc78084a	-0.015138695
216	0xbd2ba7b5	-0.041907985
217	0xb9830db3	-0.00024996474
218	0xbab9cc0c	-0.0014175191
219	0xbcc872e6	-0.02446885
220	0x3d3f45db	0.04669748
221	0x3b8fc729	0.0043877554
222	0xbd1e8fa2	-0.038711198
223	0xbcff4f55	-0.031165758
224	0x3c944738	0.018100366
225	0xbd2d0b4e	-0.04224711
226	0x3d05b106	0.032639526
227	0xbadb7cb1	-0.0016745535
228	0xbd465821	-0.04842389
229	0xbd0123ac	-0.03152816
230	0x3d132fb9	0.035934184
231	0x3d2d5a45	0.042322416
232	0x3d5a269d	0.05325948
233	0x3d5d5129	0.05403248
234	0xbc23c236	-0.009995034
235	0xbc79a149	-0.015236207
236	0xbc8d807b	-0.017273178
237	0xbc344859	-0.011003577
238	0x3dd42e20	0.1036036
239	0xbcbcc517	-0.023043199
240	0x3cdec077	0.027191384
241	0x3d029633	0.031881522
242	0x3d0c04f1	0.0341844
243	0x3b6232ee	0.003451522
244	0x3c794fef	0.015216812
245	0xbd14f30d	-0.036364604
246	0x3b8c2998	0.0042774193
247	0xbd01f71c	-0.031729802
248	0x3b9df69e	0.004820659
249	0x3ad4dee6	0.0016240745
250	0x3c9f3610	0.019434959
251	0xbc1ec727	-0.009691036
252	0x3c82bfed	0.015960658
253	0xbcf300a9	-0.0296634
254	0xbce127d6	-0.027484816
255	0xbd3c2bff	-0.045940395

network_body._body_endoder.seq_layers.0.bias f4 [128]
0	0x3b0a317f	0.002108663
1	0x3b724b5e	0.0036971192
2	0xbb2a58b8	-0.0025992822
3	0x3d0ad326	0.033892773
4	0xbc286bb4	-0.010279585
5	0x3b313438	0.0027039181
6	0x3bbe12be	0.005800574
7	0x3cc274ed	0.023737395
8	0x3d3670ef	0.044541296
9	0xbab52dff	-0.0013822912
10	0xbc421a53	-0.0118470965
11	0x3cf1ab8b	0.029500743
12	0x3d3bca0b	0.04584698
13	0xbce29b93	-0.027662074
14	0x3d3f809a	0.046753503
15	0x3c8fd731	0.017558666
16	0x3cedcd25	0.029028485
17	0x3cb73c81	0.022367718
18	0x3c97e11d	0.01853996
19	0x3c64d337	0.013966373
20	0x3ce52843	0.0279733
21	0x3c89d486	0.016824972
22	0x3c68a44a	0.014199326
23	0xbcdefabc	-0.027219169
24	0x3c6df7e8	0.0145244375
25	0x3d44579c	0.047935113
26	0xbb291c5a	-0.0025804252
27	0x3c029792	0.0079707075
28	0xbc34bb27	-0.011030949
29	0x3a9a23d9	0.0011759951
30	0x3c8a5c70	0.01688978
31	0x3cf90d04	0.030401714
32	0x3c9c3f63	0.019073194
33	0x3c8c2f97	0.017112536
34	0xbd144acb	-0.03620414
35	0x3c87907a	0.016548384
36	0x3ceedcf7	0.029158099
37	0x3c8c605f	0.017135797
38	0x3c85a41e	0.016313609
39	0x3cceabc2	0.025228385
40	0x3d22d88c	0.039757296
41	0x3d0e4a1b	0.03473864
42	0x3a5f038f	0.0008507305
43	0x3c4f08e0	0.012636393
44	0x3d0b38af	0.033989605
45	0x3bd000af	0.0063477377
46	0x3bbb8712	0.0057228887
47	0x3ca1232d	0.019670093
48	0x3ced3aa4	0.028958626
49	0x3b713dfa	0.0036810623
50	0x3ce8b1e2	0.028405134
51	0x3ca0c84a	0.019626755
52	0x3cd5b23e	0.026085969
53	0x3cb13a15	0.021634141
54	0xbbaf36c3	-0.0053471043
55	0x3c68b35a	0.014202917
56	0x3b9a38f5	0.004706497
57	0x3d531c64	0.051540747
58	0x3ce585ab	0.02801784
59	0xbca3628f	-0.019944457
60	0x3cec017a	0.028809298
61	0xbd1bed30	-0.038067997
62	0x3ced4aaf	0.028966276
63	0x3d5983f9	0.053104375
64	0x3bdaa56e	0.006672553
65	0xbc713558	-0.014722191
66	0x3c3d60a0	0.011558682
67	0x3c422273	0.011849034
68	0xbbad5689	-0.005289857
69	0x3c3262e9	0.01088784
70	0x3c863846	0.016384255
71	0x3d028870	0.0318684
72	0x3c8cb4b6	0.017176013
73	0x3c70f03f	0.014705717
74	0x3ba15172	0.004923039
75	0x3c8858c8	0.016643897
76	0x3c89eeee	0.016837563
77	0x3d21d7e5	0.039512534
78	0x3bd5ee42	0.0065286467
79	0x3c1b8f46	0.009494608
80	0x3cbfa4af	0.023393957
81	0x3cd41fd4	0.025894083
82	0x3d19ef5c	0.037581787
83	0x3cc9a032	0.02461252
84	0x3c399e06	0.01132918
85	0x3d5293f9	0.05141065
86	0x3c00afbd	0.007854399
87	0x3d3865bd	0.0450189
88	0x3c4fcebc	0.012683567
89	0x3d027f38	0.031859607
90	0xba489e4c	-0.00076529826
91	0x3d249e0e	0.040189795
92	0xbc1780f0	-0.00924705
93	0x3b14000a	0.002258303
94	0x3d15bc0d	0.036556292
95	0x3a86daf9	0.0010288648
96	0x3b359ea2	0.002771296
97	0xbc4b5676	-0.012410751
98	0x3d195e41	0.037443403
99	0x3c7eecd3	0.015559393
100	0x3c5575c7	0.013028569
101	0x3d0821f9	0.033235524
102	0x3cde1888	0.027111307
103	0x3cd3249a	0.025774289
104	0x3c8c7a33	0.017148113
105	0x3bc02e9a	0.0058649303
106	0x3ca76154	0.020432152
107	0x3c7e018b	0.015503298
108	0x3cd63fde	0.026153501
109	0xbb00f49c	-0.0019677049
110	0x3bfdbafa	0.0077432366
111	0x3cc93bd0	0.024564654
112	0x3c0ef46b	0.008725266
113	0x3ca89f29	0.020583706
114	0x3d00e9dd	0.03147303
115	0x3c8116d5	0.015757957
116	0x3c39b0e4	0.011333678
117	0x3d079dfd	0.033109654
118	0x3d776edc	0.060408458
119	0x3ce5bd86	0.028044473
120	0x3cea2574	0.028582312
121	0x3d226e6a	0.03965608
122	0x3c328e58	0.010898195
123	0x3d5ff374	0.054675534
124	0x3c010158	0.0078738555
125	0x3d114e78	0.035475224
126	0xbadbf4d6	-0.0016781341
127	0x3c1abdd0	0.009444669

network_body._body_endoder.seq_layers.0.weight f4 [128, 75]
0	0xbeab0e80	-0.334095
1	0xbe1949ff	-0.14969634
2	0x3d82d6e4	0.063886434
3	0xbd007949	-0.031365667
4	0x3bce031c	0.0062869918
5	0x3e2ae54a	0.1668903
6	0x3e7fa6e5	0.24966009
7	0xbcbb6455	-0.02287499
8	0x3e79a6b3	0.24379997
9	0xbd3dc519	-0.046330545
10	0xbe545437	-0.2073525
11	0xbd8845d2	-0.06653942
12	0xbc4d4438	-0.012528472
13	0xbdd089c3	-0.10182526
14	0xbd14aadb	-0.036295753
15	0xbdd53d87	-0.10412126
16	0x3d9eb246	0.07748847
17	0xbe0d54d1	-0.13801886
18	0x3c125085	0.00893033
19	0xbd64a844	-0.055824533
20	0x3e91b072	0.2845493
21	0xbdba768e	-0.09104644
22	0xbd06e899	-0.032936666
23	0x3d5759db	0.052575927
24	0xbd1439ca	-0.036187924
25	0xbda2455f	-0.07923388
26	0xbe0de216	-0.13855776
27	0x3d8bf13f	0.068331234
28	0xbe3e9158	-0.18610132
29	0x3e0c68a1	0.13711788
30	0xbdb9f0fe	-0.09079169
31	0x3eaf9d8c	0.34299886
32	0xbe0ba3c0	-0.13636684
33	0x3d93d2b5	0.072179236
34	0xbbc97d79	-0.0061489907
35	0x3dd8a9d9	0.10579271
36	0x3e42bd11	0.19017436
37	0xbd0fe521	-0.035130624
38	0xbe2cac85	-0.16862686
39	0xbd0fa91d	-0.03507339
40	0x3d2c6eb1	0.04209775
41	0x3d53a94b	0.051675122
42	0xbe344d4c	-0.17607611
43	0x3cf06a79	0.029347645
44	0x3b9fccf4	0.0048767272
45	0xbd0f8413	-0.035038065
46	0xbe580400	-0.21095276
47	0xbd8304ae	-0.06397377
48	0x3b2c2a29	0.0026270247
49	0x3e2d4fd4	0.16924983
50	0xbd911a9e	-0.07085155
51	0xbd5df9d3	-0.05419333
52	0x3ecf0a72	0.40437657
53	0x3dadb261	0.08481289
54	0xbd887706	-0.06663327
55	0x3e81c147	0.2534277
56	0x3d82f3c3	0.0639415
57	0x3e43ed88	0.1913358
58	0xbd92a779	-0.07160849
59	0x3d4b8a39	0.049692366
60	0xbda3c1aa	-0.07995923
61	0xbd2665fa	-0.040624596
62	0xbcabda65	-0.020978162
63	0xbc71dabc	-0.014761623
64	0x3ded4522	0.11585452
65	0xbc9ede0f	-0.019392995
66	0xbdb1eb13	-0.08687415
67	0xbd7c8552	-0.06165058
68	0x3d8e28a2	0.06941344
69	0xbd5aab2a	-0.05338589
70	0x3c84b8cb	0.016201397
71	0x3c6da02c	0.01450352
72	0xbe00410f	-0.12524818
73	0xbcf0bfd2	-0.029388342
74	0x3dcfd761	0.10148502
75	0xbdc01826	-0.09379606
76	0x3d56bc42	0.05242563
77	0xbdd41d87	-0.103571944
78	0xbd682e54	-0.056684807
79	0x3e018346	0.12647733
80	0xbdb3ce9c	-0.08779642
81	0x3d318643	0.043340933
82	0x3d71a7cd	0.058997918
83	0xb990b61d	-0.00027601505
84	0xbdbbd521	-0.091715105
85	0x3e1f4f3e	0.15557572
86	0xbc65f439	-0.014035278
87	0xbda54647	-0.08070045
88	0xbe428ebc	-0.18999761
89	0xbe86be80	-0.26317215
90	0xbb1ad7f5	-0.0023627256
91	0x3d07551b	0.033040147
92	0xbd497199	-0.0491806
93	0x3e85ed3f	0.26157567
94	0xbe8ec975	-0.27888075
95	0x3d8cf278	0.06882185
96	0xbdb4e424	-0.08832577
97	0xbe807168	-0.25086522
98	0xbc57dad9	-0.013174736
99	0x3df374ed	0.11887536
100	0xbcd4ca23	-0.025975293
101	0xba5d4310	-0.0008440474
102	0x3e42d48a	0.1902639
103	0xbce51f3a	-0.027968992
104	0x3e193e12	0.14965084
105	0xbe879c50	-0.26486444
106	0x3e64e9aa	0.22354761
107	0x3da97e75	0.08276073
108	0xbdbe4c96	-0.09291951
109	0x3e1d1942	0.15341666
110	0x3dd474bb	0.10373827
111	0xbdebfefc	-0.11523244
112	0xbc088a4d	-0.008333755
113	0x3da69892	0.08134569
114	0x3e7143b1	0.23560978
115	0x3d43039e	0.04761087
116	0x3e11a61d	0.14223523
117	0xbe1691a2	-0.14703992
118	0xbde97eb2	-0.11401118
119	0xbe8023fc	-0.25027454
120	0x3c966ea0	0.018363297
121	0x3d6af0dd	0.05735861
122	0xbdee41cd	-0.11633644
123	0xbddfdec1	-0.10931159
124	0xbe897eee	-0.26854652
125	0xbd1eadaa	-0.038739838
126	0xbe5dfc11	-0.21678187
127	0x3e67900b	0.22613542
128	0xbda8dc8b	-0.0824519
129	0xbd4a5915	-0.04940136
130	0xbda8210e	-0.0820943
131	0x3d8232ae	0.06357323
132	0xbd86edb5	-0.06588308
133	0x3da36c29	0.07979614
134	0xbe329de3	-0.17443042
135	0xbc18d4e2	-0.009328099
136	0xbe098b40	-0.13432026
137	0xbe8237d0	-0.25433207
138	0xbe4c4766	-0.19949111
139	0x3e5e7824	0.21725518
140	0xbba776a8	-0.0051105805
141	0x3e41322f	0.188668
142	0x3e30ec06	0.17277536
143	0x3d4e2a29	0.050333176
144	0xbe0b269f	-0.13588952
145	0x3e8384ed	0.25687352
146	0xbb3e9952	-0.0029083085
147	0x3dd11c41	0.10210467
148	0xbe0bdebb	-0.13659184
149	0x3d96f08a	0.07370098
150	0xbde55a85	-0.11198906
151	0x3d635c65	0.055508036
152	0x3d7e938b	0.062152427
153	0x3e356ed0	0.17718053
154	0xbda75d4b	-0.08172091
155	0x3e549d9b	0.20763247
156	0x3dc8037d	0.0976629
157	0x3bcb3029	0.0062008095
158	0xbdd960e8	-0.106141865
159	0x3e196358	0.14979303
160	0xbd69561e	-0.056966893
161	0x3d1e9fba	0.038726546
162	0x3b3b3153	0.0028563335
163	0xbd6bbc86	-0.057552837
164	0xbc3c51e0	-0.01149413
165	0x3dbfbdab	0.09362348
166	0x3d8e915c	0.06961319
167	0xbd40deb4	-0.047087386
168	0x3d9de4a5	0.07709626
169	0x3c1ee60e	0.009698404
170	0xbe0feb37	-0.14054571
171	0x3d2def85	0.04246475
172	0x3c3a4c5d	0.0113707455
173	0x3dc9cc1c	0.09853384
174	0x3c5bc1da	0.013412917
175	0x3cf54a30	0.029942602
176	0xbe2e0023	-0.1699224
177	0x3dfa79c2	0.12230255
178	0x3e308191	0.17236926
179	0xbdad9b7e	-0.084769234
180	0xbe5b0f95	-0.21392663
181	0xbcedc969	-0.029026704
182	0x3b66f10e	0.0035238895
183	0x3cb71f66	0.02235384
184	0xbd9b1bb8	-0.07573646
185	0xbb277cdb	-0.0025556597
186	0xbe38bfb1	-0.18041874
187	0x3d9f0384	0.077643424
188	0x3d4c36d6	0.049856983
189	0x3e21656b	0.15761344
190	0xbe438a3e	-0.19095704
191	0x3cffefae	0.031242218
192	0x3b6fbff2	0.0036582914
193	0x3db798c3	0.08964684
194	0x3cec292f	0.028828232
195	0xbd8da572	-0.06916322
196	0x3cbe1173	0.02320168
197	0x3df6bdbf	0.1204791
198	0xbd50533f	-0.05086064
199	0x3e397e1c	0.18114513
200	0x3cdba182	0.026810411
201	0x3bba9518	0.005694043
202	0xbbd2649e	-0.006420686
203	0xbcbea8cd	-0.02327385
204	0x3e77744a	0.24165455
205	0xbc276217	-0.010216258
206	0x3dbb2a2b	0.09138902
207	0xbdff1fd0	-0.1245724
208	0xbe93f12c	-0.28894937
209	0xbd0c7f3d	-0.03430103
210	0xbe0c7197	-0.13715206
211	0xbe72ee77	-0.2372378
212	0x3d160a73	0.03663106
213	0xbbcb199f	-0.0061981226
214	0x3daacb01	0.08339501
215	0xbd97200c	-0.07379159
216	0x3d739f21	0.05947793
217	0xbdcdbb90	-0.1004554
218	0x3c81cced	0.015844787
219	0x3c16a75a	0.009195173
220	0xbd3630bd	-0.044480074
221	0x3da388d4	0.07985082
222	0x3d52fdbc	0.05151151
223	0xbdcd3540	-0.10019922
224	0xbc99f10f	-0.018791704
225	0xbe801695	-0.2501723
226	0x3cb13486	0.02163149
227	0xbdd5e7e3	-0.104446195
228	0x3c2fdf0f	0.010734334
229	0xbd224117	-0.039612856
230	0x3a19e8dd	0.0005871186
231	0xbcf3f828	-0.029781416
232	0x3e1370b7	0.14398466
233	0x3d9dc40f	0.07703411
234	0x3d8b4cdf	0.068017714
235	0xbe1e89b3	-0.15482216
236	0x3d70c315	0.058779795
237	0x3d7a115e	0.06105172
238	0xbc82d652	-0.015971337
239	0xbd5bd265	-0.053667445
240	0x3ade124f	0.0016942712
241	0x3d016898	0.03159389
242	0xbe565879	-0.20932187
243	0x3ddf36b1	0.108991034
244	0x3df03487	0.11728769
245	0x3c86d829	0.016460495
246	0x3cff9276	0.031197768
247	0xbe019c06	-0.12657174
248	0x3dadd875	0.084885515
249	0x3d47e005	0.048797626
250	0x3d9d1a3b	0.07671019
251	0x3d93e307	0.072210364
252	0xbc89611a	-0.016769934
253	0xbce822ed	-0.028336966
254	0x3e519c4f	0.20469783
255	0xbd20e083	-0.03927661

network_body._body_endoder.seq_layers.2.bias f4 [128]
0	0x3cd001d4	0.025391497
1	0xbb8a5d73	-0.004222566
2	0x3d046450	0.032322228
3	0x3c89c4a3	0.016817397
4	0x3cc76bd8	0.024343416
5	0x3cdcce9e	0.026953992
6	0x3cbb4a4f	0.022862582
7	0x3b1ea5e5	0.0024207768
8	0x3cbc1d25	0.022963116
9	0x3cad9f65	0.02119417
10	0x3d45f498	0.048328966
11	0x3d280930	0.041024387
12	0x3c5c1db3	0.013434815
13	0x3c05ab4f	0.008158519
14	0x3d034254	0.032045677
15	0x3c746067	0.014915562
16	0x3c68f1e4	0.0142178275
17	0x3cfcdec9	0.030867951
18	0x3cb83f20	0.022491038
19	0x3c83c01a	0.016082812
20	0xbb676a14	-0.003531103
21	0x3cf64eef	0.030066935
22	0x3cf40445	0.029787192
23	0x3cae0991	0.021244796
24	0x3cf91a51	0.030408056
25	0x3cbf0622	0.023318354
26	0x3bf176bb	0.00736889
27	0x3d1528f0	0.036415994
28	0x3b9b341f	0.004736438
29	0x3cc38cc9	0.023870843
30	0x3cead971	0.028668137
31	0x3ced9b78	0.029004797
32	0x3ce6fae1	0.0281958
33	0x3a8b40c5	0.0010624161
34	0x3c976085	0.018478641
35	0x3c91aea4	0.01778347
36	0x3ce85a24	0.028363295
37	0x3bf1197c	0.0073577743
38	0x3c3d57bc	0.011556562
39	0x3c17d6c7	0.0092675155
40	0x3c0e94eb	0.008702497
41	0x3cdac8f2	0.026707146
42	0x3c1f4da5	0.009723102
43	0x3c7a83fd	0.0152902575
44	0x3cae2d54	0.021261849
45	0x3a3aabf1	0.0007120958
46	0x3c0b6dda	0.008510077
47	0x3c515af9	0.012778037
48	0x3d21d11e	0.03950607
49	0x3cd65aa9	0.026166277
50	0x3c00fb48	0.00787241
51	0x3ce5526c	0.027993403
52	0x3d025b05	0.031825084
53	0x3cc0ab7e	0.023519274
54	0x3be55c8c	0.006999558
55	0x3ca9a114	0.02070669
56	0x3ce98e08	0.028510109
57	0x3c70e046	0.014701908
58	0x3cd8ee9a	0.026480962
59	0x3cd64476	0.026155692
60	0x3c7eeff8	0.015560143
61	0x3ccd49d4	0.025059618
62	0x3b5d3f89	0.0033759794
63	0x3ccf53cb	0.02530851
64	0x3c7416a8	0.01489798
65	0x3c8517cb	0.016246697
66	0x3bcf5bbf	0.0063280757
67	0x3d17f5b9	0.037099574
68	0x3cad1a9d	0.021130854
69	0x3c8f2c97	0.017477317
70	0x3d3a6a1f	0.04551136
71	0x3b890375	0.0041813203
72	0x3cb055ba	0.021525253
73	0x3ce1f130	0.027580827
74	0x3c43917c	0.011936542
75	0x3b956453	0.0045590787
76	0x3b897d87	0.004195872
77	0x3d2db423	0.04240812
78	0x3c35e3a3	0.011101636
79	0x3cab4bf9	0.02091025
80	0x3c987b4d	0.018613482
81	0x3cb2d377	0.02182935
82	0x3d125577	0.035726037
83	0x3ca3e4e0	0.020006597
84	0x3c3aa320	0.011391431
85	0x3c1a1f79	0.009406918
86	0x3d12e15a	0.035859443
87	0x3c9d119e	0.01917344
88	0x3c0f09cd	0.008730364
89	0x3b95e88a	0.00457484
90	0x3c9f05c7	0.019411935
91	0x3c54b9ad	0.012983722
92	0x3c73818e	0.014862431
93	0x3c9ca842	0.0191232
94	0x3d051af7	0.03249642
95	0x3b648b58	0.0034873094
96	0x3c88bbd5	0.016691128
97	0x3bed2ba3	0.007237868
98	0x3cb9797d	0.022640938
99	0x3c1bc188	0.009506591
100	0x3c38ec1b	0.011286761
101	0x3d061837	0.032737937
102	0x3c451322	0.012028487
103	0x3c6a90f3	0.014316785
104	0x3c4ef247	0.012631006
105	0x3ba56247	0.005047116
106	0x3d2c17f1	0.04201502
107	0x3cdc83b8	0.026918277
108	0x3d1302fc	0.035891518
109	0x3ce32dbc	0.027731769
110	0x3d7012ba	0.05861161
111	0x3cc41df8	0.023940071
112	0x3d061ee3	0.0327443
113	0x3ca9465a	0.020663429
114	0x3bf894c3	0.007586093
115	0x3c1e6ead	0.009669942
116	0x3c414706	0.011796718
117	0x3d0d24d6	0.034458958
118	0x3cbbf0fe	0.022942062
119	0x3ce7492a	0.02823313
120	0x3c566f99	0.01308813
121	0x3cbf56c3	0.0233568
122	0x3c6e3670	0.014539346
123	0x3d1d9c40	0.03847909
124	0x3c7160e1	0.01473257
125	0x3be11247	0.006868634
126	0x3cef475b	0.02920883
127	0x3cf14eae	0.029456463

network_body._body_endoder.seq_layers.2.weight f4 [128, 128]
0	0xbe1b7b34	-0.15183717
1	0xbdc1ec45	-0.09468893
2	0xbd42cd79	-0.047559235
3	0x3e06a47d	0.13148685
4	0x3e464234	0.19361192
5	0xbd8a045d	-0.067391135
6	0xbd9c2be4	-0.07625559
7	0x3e40415d	0.18774934
8	0x3db82f43	0.089933895
9	0xbdd69fc3	-0.10479691
10	0xbce84914	-0.028355159
11	0x3e24e488	0.16102803
12	0xbc104254	-0.008804876
13	0x3cae1ffe	0.02125549
14	0xbc50e306	-0.012749439
15	0xbd5f18fe	-0.054467194
16	0xbda3a278	-0.07989973
17	0x3d884751	0.066542275
18	0xbcffea66	-0.0312397
19	0xbcde9566	-0.027170848
20	0x3db0b745	0.08628706
21	0x3d176312	0.036959715
22	0x3dff88b1	0.12477244
23	0xbe3247f3	-0.17410259
24	0x3e284971	0.16434266
25	0x3d581872	0.052757688
26	0x3d6477ec	0.05577843
27	0xbced8d4b	-0.028998038
28	0xbdbd1e72	-0.092343226
29	0xbc896e60	-0.016776264
30	0x3e5f4a52	0.21805695
31	0xbd802a17	-0.06258028
32	0xbe196156	-0.14978537
33	0xbd733605	-0.05937769
34	0xbd97550e	-0.0738927
35	0xbe8398fd	-0.25702658
36	0x3be6ccbd	0.0070434497
37	0x3df35078	0.118805826
38	0xbdf213a4	-0.118201524
39	0xbdfed58f	-0.12443077
40	0xbda88428	-0.08228332
41	0xbda9d164	-0.08291891
42	0xbe2d605f	-0.16931294
43	0xbdeb3b5c	-0.11485931
44	0x3d711a9b	0.058863264
45	0xbce2ca6a	-0.02768441
46	0x3d11299f	0.035440084
47	0x3d46f81e	0.048576467
48	0x3de54013	0.11193862
49	0x3cb47dc0	0.022032619
50	0xbd4ac22d	-0.049501587
51	0x3dcbb95c	0.09947464
52	0xbcda6b9e	-0.026662644
53	0xbd830c8f	-0.0639888
54	0xbe1fe12e	-0.15613243
55	0xbdc6bb16	-0.097036526
56	0x3dd6f3c2	0.10495712
57	0x3e28995a	0.16464749
58	0x3d06a408	0.032871276
59	0x3dad3a65	0.084584035
60	0xbddfb895	-0.10923878
61	0x3d740e29	0.059583817
62	0x3e32a68c	0.17446345
63	0xbe12b6d9	-0.14327563
64	0xbda1831b	-0.078863345
65	0xbd631a81	-0.055445198
66	0xbe04f0d2	-0.1298249
67	0xbde7695c	-0.112993926
68	0x3e394ee8	0.18096507
69	0x3d1db1f2	0.03849978
70	0x3daf7c35	0.085686125
71	0x3de50f80	0.11184597
72	0x3e58c807	0.21170054
73	0xbe1e7f1d	-0.15478177
74	0xbe7ba369	-0.24574055
75	0x3e23bb22	0.15989354
76	0x3e4ba528	0.19887221
77	0x3cbbec0d	0.022939706
78	0x3ca27953	0.019833243
79	0xbe03b872	-0.12863329
80	0x3e0f8c7a	0.14018431
81	0xbca4537d	-0.020059342
82	0xbdc81024	-0.097687036
83	0xbcaec6e1	-0.021335067
84	0x3d622bd1	0.055217568
85	0x3e111447	0.14167891
86	0xbe228d45	-0.15874203
87	0x3d2a4715	0.041571695
88	0x3ca797b9	0.02045809
89	0x3c6ff67a	0.014646167
90	0x3cb0c459	0.021578
91	0x3e23c233	0.1599205
92	0xbd63c32a	-0.055606045
93	0xbd9ac612	-0.0755731
94	0xbd268bd1	-0.040660683
95	0xbb77e29e	-0.0037824283
96	0x3d265234	0.04060574
97	0xbd46d208	-0.048540145
98	0x3e173ef6	0.14770111
99	0x3db3c313	0.08777442
100	0xbcd757d4	-0.026286997
101	0xbe041160	-0.12897253
102	0xbe5588cf	-0.2085297
103	0x3d1eef7d	0.038802613
104	0xbcac105a	-0.02100389
105	0xbd98432e	-0.074346885
106	0x3c6aef30	0.014339253
107	0xbd0498bb	-0.032372218
108	0x3e04f488	0.12983906
109	0x3e0409f0	0.12894416
110	0x3dfd8d4a	0.123804644
111	0xbcd92e9e	-0.026511487
112	0x3e112ee1	0.14178039
113	0xbd64d0a3	-0.055863034
114	0x3e00a16a	0.12561575
115	0xbc49d0f7	-0.0123178875
116	0x3d5bdabb	0.053675395
117	0xbdaec3e0	-0.08533454
118	0x3d9b3414	0.075782925
119	0x3e2807fc	0.16409296
120	0x3d0e9060	0.034805655
121	0x3e3e65ec	0.18593568
122	0xbdbc3537	-0.091898374
123	0x3d6da150	0.058015168
124	0x3daef90e	0.08543597
125	0xbe090d3e	-0.13383958
126	0x3e77ebcf	0.24211048
127	0xbe0098fa	-0.12558356
128	0x3d70f350	0.05882579
129	0x3e1599d4	0.14609462
130	0xbc833ede	-0.016021188
131	0x3d8c0a0c	0.06837854
132	0x3d8952dd	0.06705258
133	0x3d823525	0.06357793
134	0xbcec191a	-0.028820563
135	0xbd2c1c83	-0.04201938
136	0x3e11612b	0.14197223
137	0x3e7a8072	0.2446306
138	0x3e06c897	0.13162456
139	0x3ce61553	0.02808634
140	0x3d22ca82	0.039743908
141	0x3e3f5fea	0.18688932
142	0x3d52c91a	0.051461317
143	0xbc33c3b1	-0.010971949
144	0x3d01ddf1	0.0317058
145	0x3d6bec56	0.057598434
146	0x3e28d803	0.16488652
147	0x3d974573	0.07386293
148	0xbd9a4a06	-0.0753365
149	0x3d651d13	0.05593593
150	0x3dee6ad0	0.116414666
151	0xbda90dca	-0.08254583
152	0x3d9f0e72	0.07766427
153	0x3e211d24	0.15733773
154	0xbcf49b83	-0.02985931
155	0x3dd6bffb	0.10485836
156	0xbd545f00	-0.05184841
157	0xbe01a995	-0.12662347
158	0x3e0ba3b6	0.1363667
159	0x3ccced5f	0.025015531
160	0x3cb19e83	0.02168203
161	0xbd83e906	-0.0644093
162	0x3e1bce86	0.15215501
163	0x3e27306e	0.16327068
164	0x3c3ca8df	0.011514871
165	0xbe458539	-0.19289102
166	0x3e31495a	0.17313138
167	0x3c81597b	0.015789738
168	0x3a308fec	0.0006735313
169	0x3d3911c4	0.04518296
170	0x3e1bf490	0.15230012
171	0x3d5ea460	0.05435598
172	0x3d25285f	0.040321704
173	0xbd828950	-0.063738465
174	0xbc84a3a3	-0.01619131
175	0xbdf7387a	-0.12071319
176	0xbe1ace5d	-0.15117784
177	0x3e289585	0.16463287
178	0x3ce08a96	0.027409833
179	0xbd320a36	-0.04346677
180	0x3d66b9b7	0.056329455
181	0xbd2b8a88	-0.04188016
182	0xbce7a293	-0.028275764
183	0xbd2589a9	-0.040414486
184	0x3dc59efb	0.09649464
185	0xbd26e332	-0.040744014
186	0x3e3c2add	0.18375726
187	0x3d996615	0.07490174
188	0xbcea8989	-0.028630035
189	0xbe19cfaf	-0.15020631
190	0x3cb6d588	0.022318617
191	0xbd367919	-0.04454908
192	0xbdc78269	-0.09741671
193	0xbe1943d6	-0.14967284
194	0x3d7af92a	0.061272778
195	0xbe2cce27	-0.16875516
196	0xbd0c7c64	-0.034298316
197	0xbd7046ed	-0.05866139
198	0xbd323066	-0.043503188
199	0x3b89925a	0.0041983547
200	0xbe286a14	-0.16446716
201	0x3ce61287	0.028085006
202	0x3e370189	0.1787168
203	0x3cc65a9b	0.024213126
204	0x3d001216	0.031267248
205	0x3c468e67	0.012118912
206	0xbd56b52c	-0.052418873
207	0x3d8dfbe1	0.06932808
208	0x3d29a642	0.04141832
209	0x3d90db0f	0.07073032
210	0x3c96c1c8	0.018402949
211	0x3bab1f4b	0.0052222363
212	0xbd81b62a	-0.06333573
213	0xbe5326c2	-0.20620254
214	0x3c6ee871	0.014581786
215	0xbd40297f	-0.046914574
216	0x3d261625	0.040548462
217	0x3d97e450	0.07416594
218	0x3ccc85ff	0.024966238
219	0x3d716f10	0.058943808
220	0x3d8e0dbf	0.069362156
221	0x3dbe30b1	0.09286631
222	0xbe0cd08c	-0.1375143
223	0x3d59d9ec	0.053186342
224	0xbcb8eb8f	-0.02257326
225	0xbdd7aaf2	-0.10530652
226	0x3e06b25a	0.13153973
227	0x3da98185	0.08276657
228	0x3da24525	0.079233445
229	0x3e2942ac	0.1652934
230	0xbd6edabb	-0.058314066
231	0x3cfe68d6	0.031055849
232	0xbe1d0d49	-0.15337099
233	0x3ca1bada	0.019742418
234	0xbd4d2b45	-0.050090093
235	0x3cf46649	0.02983393
236	0xbc1db0d4	-0.009624679
237	0xbcd949a3	-0.02652437
238	0x3e5c0d59	0.21489467
239	0xbd0005b0	-0.031255424
240	0xbe23fc01	-0.160141
241	0x3c930f6d	0.017951692
242	0x3dc99836	0.09843485
243	0x3d82cf8a	0.06387241
244	0x3e65b9ee	0.22434208
245	0xbcee56b6	-0.029094081
246	0xbd26f1f9	-0.040758107
247	0x3d40314f	0.046922024
248	0xbd9103a8	-0.070807755
249	0xbbf45198	-0.007456016
250	0xbdb73966	-0.08946495
251	0xbdbefff1	-0.09326161
252	0x3c4cb75e	0.01249489
253	0xbe132832	-0.14370802
254	0x3dba90fe	0.09109686
255	0x3d3b01bb	0.045655947
