results/ppo/My Behavior/My Behavior-0.onnx (onnx, 108714 bytes, 6 tensors)

action_model._discrete_distribution.branches.0.bias f4 [3]
000000 00 00 00 00 00 00 00 00 00 00 00 00
       0.0 0.0 0.0

action_model._discrete_distribution.branches.0.weight f4 [3, 128]
000000 a7 73 37 bc 77 8c 9b ba 0f 59 ee 3a df 63 88 bb
       -0.011197007 -0.0011867423 0.00181845 -0.004162296
000010 2b e7 9c 3b 2a 90 1f 3c ff ca 15 3c 93 b7 37 3c
       0.0047882996 0.009738961 0.009142636 0.011213201
000020 30 bd 5f 3c a2 3e 67 3c 1d 98 9e bb 7e ae b4 3b
       0.013655946 0.014114054 -0.0048399107 0.005513965
000030 c7 fe fd bb b3 67 8b bb d7 ff a8 3a 2d 16 69 ba
       -0.007751319 -0.0042543053 0.0012893629 -0.0008891549
000040 7b 47 5a bb 63 de 8c b9 26 8c 2a bc ca de 30 bc
       -0.0033306766 -0.00026868572 -0.010409391 -0.010795305
000050 1a 6d 23 bc ee 91 87 3b cc 7b 19 bc 2b 18 69 b9
       -0.009974742 0.004137269 -0.009367894 -0.00022229615
000060 38 44 7d bb a9 9d 9c bc d6 31 24 bb 10 c8 6f bb
       -0.0038645398 -0.019118147 -0.0025054119 -0.0036587752
000070 69 49 82 bb 88 60 74 bc dd b1 de 3b b1 04 1e 3c
       -0.0039760363 -0.014915593 0.0067961053 0.009644673
000080 75 27 64 bc 1b 79 4a bc fa e3 0b 3b d5 24 41 bc
       -0.013925423 -0.012357975 0.0021345601 -0.011788567
000090 58 35 3d ba fc bc 07 bc 80 d9 65 3b a3 88 a5 3a
       -0.00072177267 -0.0082848035 0.0035072267 0.0012629222
0000a0 2e af 9e 3b 2b 29 f4 bb 8d fc 73 3b 2a 69 28 3c
       0.0048426604 -0.0074511967 0.003722939 0.010278979
0000b0 7b 7c bf 3a 12 bf 65 bb 1d 1b 01 3c a8 16 5a 3b
       0.0014609242 -0.0035056514 0.0078799995 0.0033277664
0000c0 ab 2b ea 3b df ef 2f 3b 81 17 15 bc 6e bd 27 bc
       0.007146319 0.0026845855 -0.009099842 -0.010238035
0000d0 6c 1c 0b 3b 7b fd c8 bb cd 82 87 bc 53 64 cc bc
       0.0021226658 -0.006133733 -0.016541863 -0.024950182
0000e0 34 ac b4 39 16 7d 0d 3c 1c ec ab bc 4a 4b 6d bc
       0.00034460577 0.00863578 -0.02098661 -0.014483282
0000f0 8f 51 8c bc 4b ce d1 3b a3 31 bf 3b e0 21 4d 3c
       -0.017128734 0.006402766 0.0058347746 0.012520283
000100 d4 3e 21 bc d6 ea 31 bc a7 9c 73 bc ff 47 39 ba
       -0.00984164 -0.010859212 -0.014868892 -0.0007067918
000110 bb 53 05 bc b3 6d 47 bc 2d 74 6c ba f0 df b7 bb
       -0.008137639 -0.01217215 -0.0009019997 -0.005611412
000120 19 c4 42 3b 55 66 dd bb ab 4f 08 bc 85 37 10 3c
       0.0029718934 -0.0067565837 -0.008319776 0.008802299
000130 28 86 e8 bb 63 79 95 bb 11 47 91 bc fd b4 e1 3b
       -0.007096071 -0.0045615896 -0.017734082 0.0068880306
000140 67 45 f4 bb e7 84 ec 3b 94 43 0b 3b a3 50 d0 3b
       -0.0074545625 0.0072179916 0.0021249996 0.006357269
000150 26 c7 cc 3a bb 43 57 bb bb f5 d0 3b fe ba 2d 3b
       0.0015623316 -0.0032846767 0.0063769496 0.002650916
000160 34 da 09 bb 58 5c ca b6 3c 49 43 bc c7 5d 88 3b
       -0.00210346 -6.0308193e-06 -0.011919316 0.0041615698
000170 b2 73 0b bc a2 81 85 3b dd ea 73 3c 28 8c 7f 3b
       -0.008511471 0.0040742913 0.014887539 0.0038993452
000180 47 78 43 bc f3 2f 0e bb e3 c2 48 bb 47 67 f0 bb
       -0.011930532 -0.002169606 -0.003063374 -0.0073365304
000190 60 51 6e 3c a7 20 17 bc 5b 37 53 3c 60 59 8a 3b
       0.0145457685 -0.0092240935 0.012891616 0.00422208
0001a0 4b ef 37 bc dd 14 79 3c d0 35 8e 3a 0b 21 00 3a
       -0.0112264855 0.015202728 0.0010849778 0.0004887736
0001b0 bb dc 7f bb 70 d5 c3 3b e8 ea 23 bb f6 57 15 3a
       -0.0039041478 0.0059763715 -0.0025011841 0.0005697006
0001c0 e8 ac d5 3b bf 94 ad bb 80 83 70 bb 67 6a fe 3b
       0.006520856 -0.005297273 -0.0036699474 0.007764149
0001d0 2d 45 c5 bc b4 cc a9 3b 87 7e 56 bb 6f 9a 87 3b
       -0.024080837 0.005181873 -0.0032729225 0.004138283
0001e0 bc ea 31 ba c2 40 03 3c 59 6e 36 bc f3 19 91 3c
       -0.00067869923 0.008011045 -0.011134707 0.017712569
0001f0 d8 16 5d 3c 1f dc c7 bb db 4f 92 3b ba b2 62 3c
       0.013494216 -0.0060992385 0.004465086 0.013836557
000200 c8 b2 35 bc d2 b6 7d 3c 8d 04 d5 bb 5f a4 03 3b
       -0.011089988 0.015485482 -0.0065007866 0.0020086986
000210 f7 e7 86 3a 5a 23 72 bc a3 a9 b8 bb 52 0b d7 3c
       0.001029252 -0.014778936 -0.0056354566 0.026250515
000220 50 44 74 bc a5 be 4d 3b 7f 52 81 3c 1f 46 3b 3c
       -0.014908865 0.003139415 0.015786408 0.011430292
000230 b6 07 1d bc e7 da d0 3b a8 5a 45 bc 1b 3c a0 bb
       -0.009584358 0.0063737514 -0.01204554 -0.0048899776
000240 15 a0 95 3c 9d 53 0c 3c cb 2c bb bc bd fa 19 3c
       0.01826481 0.008564857 -0.022848507 0.00939816
000250 08 54 da b8 3b 03 1d bc 20 ed a9 3b e5 76 d6 3b
       -0.00010410702 -0.00958329 0.005185738 0.006544935
000260 8f 73 93 bb 57 9c f7 3a 50 88 71 bc 87 92 1b 39
       -0.0044998596 0.0018891197 -0.014741972 0.00014836538
000270 3f 3c 3d 3b 1a f5 41 3b 62 80 24 3a b6 5c 27 bb
       0.002887502 0.0029595555 0.0006275234 -0.0025537438
000280 47 bb 85 b5 c6 9e 03 3c 02 05 51 bc 65 93 6b 3c
       -9.963777e-07 0.00803346 -0.012757542 0.014378403
000290 c2 54 d6 3a 2b 86 ab 3c a8 d3 f9 3a b3 fa 05 bc
       0.0016352164 0.020938 0.0019060271 -0.008177447
0002a0 da a2 2b bb 1d 8c 7f bc 6f 77 67 b7 51 88 07 3c
       -0.0026189596 -0.01559737 -1.3796481e-05 0.008272246
0002b0 46 d4 1c bc bd ea 61 3c 2a 60 3a bc 27 f6 c9 bb
       -0.009572094 0.013788876 -0.011375466 -0.006163377
0002c0 26 dc 8b 3b 5c 63 12 bb 27 5a e4 3a eb 11 03 bc
       0.004268187 -0.0022337055 0.0017421887 -0.007999877
0002d0 ff 8d 1e bc 5f 89 df 3a ab 22 98 3b 65 e2 20 bb
       -0.009677409 0.001705449 0.0046428046 -0.0024549004
0002e0 8d a1 8f bb 3a 23 21 3c da 30 a9 bb e3 60 af bb
       -0.004383272 0.009835059 -0.0051632943 -0.005352126
0002f0 42 c8 4d 3b 37 88 f5 ba ed d0 11 ba 25 38 4b 3c
       0.003139988 -0.0018732612 -0.00055624434 0.012403523
000300 d0 e7 33 3b 4f c3 02 bb 47 b2 bf 3b a2 39 4c 3a
       0.0027451403 -0.0019952839 0.0058501097 0.00077905704
000310 7d 9c 81 3c 13 81 00 bc be f1 41 3b 52 83 34 3a
       0.01582169 -0.007843274 0.0029593552 0.00068860233
000320 e7 d5 97 bc bd 35 c6 3b 4d 63 24 3c 11 eb 2f 3b
       -0.018534614 0.0060488866 0.010033441 0.0026842991
000330 bb 25 d8 3b d8 b0 c3 bb 92 e3 9b 3b 2b c3 90 bb
       0.0065962947 -0.005972009 0.004757353 -0.004417797
000340 5c ec 8b bb 25 7b 97 3b 12 cf 87 3c 8f 5f 51 3c
       -0.0042701196 0.0046228343 0.016578231 0.012779131
000350 e5 8b f5 3b 67 c4 e9 ba d6 81 a5 bb 8f 29 13 bc
       0.0074934834 -0.0017835022 -0.005050878 -0.008982076
000360 a0 ef 4c bc bd 12 37 3b 7e e4 ac 3b 4a f2 65 ba
       -0.012508303 0.0027934753 0.005276262 -0.00087717606
000370 ba bb 93 3c 00 8b 6d 3b 01 da 07 3c 75 36 39 bc
       0.018033851 0.003624618 0.008291722 -0.0113044875
000380 f8 89 f2 3b a5 0c 4d bc f3 23 b9 bb bf 5b f5 3b
       0.007401701 -0.012515222 -0.0056500374 0.0074877436
000390 cb 3c 94 bc 70 90 1d bc 22 08 73 3c 7c c2 17 3c
       -0.018095395 -0.009616956 0.014833482 0.009262677
0003a0 a1 00 87 3b c3 3e ae 3c fb 58 9a 3b f0 42 e7 bb
       0.004119948 0.021270161 0.0047103143 -0.00705754
0003b0 12 7e 86 3b f7 df 95 3b 04 16 02 bb 2d 27 0b ba
       0.004104384 0.004573818 -0.0019849548 -0.0005308267
0003c0 6f 8c 10 bc 08 ad 6f 3b c9 38 34 3c cf 4d 7d bb
       -0.0088225445 0.003657164 0.010999867 -0.0038651114
0003d0 db cc 65 bb 57 de 30 bc be b0 ac ba 3e ca 83 3a
       -0.003506473 -0.010795197 -0.0013175232 0.001005478
0003e0 7d 86 e3 bb c3 3c e3 3b cb cc a0 3b e8 a2 4f 3b
       -0.0069435225 0.0069347336 0.0049072257 0.0031682793
0003f0 f2 14 b3 3c 9e b5 3b bc 1b e3 d6 3a a7 6b 84 bb
       0.021860573 -0.011456875 0.0016394587 -0.0040411535

network_body._body_endoder.seq_layers.0.bias f4 [128]
000000 00 00 00 00 00 00 00 00 00 00 00 00 00 00 00 00
       0.0 0.0 0.0 0.0
000010 00 00 00 00 00 00 00 00 00 00 00 00 00 00 00 00
       0.0 0.0 0.0 0.0
000020 00 00 00 00 00 00 00 00 00 00 00 00 00 00 00 00
       0.0 0.0 0.0 0.0
000030 00 00 00 00 00 00 00 00 00 00 00 00 00 00 00 00
       0.0 0.0 0.0 0.0
000040 00 00 00 00 00 00 00 00 00 00 00 00 00 00 00 00
       0.0 0.0 0.0 0.0
000050 00 00 00 00 00 00 00 00 00 00 00 00 00 00 00 00
       0.0 0.0 0.0 0.0
000060 00 00 00 00 00 00 00 00 00 00 00 00 00 00 00 00
       0.0 0.0 0.0 0.0
000070 00 00 00 00 00 00 00 00 00 00 00 00 00 00 00 00
       0.0 0.0 0.0 0.0
000080 00 00 00 00 00 00 00 00 00 00 00 00 00 00 00 00
       0.0 0.0 0.0 0.0
000090 00 00 00 00 00 00 00 00 00 00 00 00 00 00 00 00
       0.0 0.0 0.0 0.0
0000a0 00 00 00 00 00 00 00 00 00 00 00 00 00 00 00 00
       0.0 0.0 0.0 0.0
0000b0 00 00 00 00 00 00 00 00 00 00 00 00 00 00 00 00
       0.0 0.0 0.0 0.0
0000c0 00 00 00 00 00 00 00 00 00 00 00 00 00 00 00 00
       0.0 0.0 0.0 0.0
0000d0 00 00 00 00 00 00 00 00 00 00 00 00 00 00 00 00
       0.0 0.0 0.0 0.0
0000e0 00 00 00 00 00 00 00 00 00 00 00 00 00 00 00 00
       0.0 0.0 0.0 0.0
0000f0 00 00 00 00 00 00 00 00 00 00 00 00 00 00 00 00
       0.0 0.0 0.0 0.0
000100 00 00 00 00 00 00 00 00 00 00 00 00 00 00 00 00
       0.0 0.0 0.0 0.0
000110 00 00 00 00 00 00 00 00 00 00 00 00 00 00 00 00
       0.0 0.0 0.0 0.0
000120 00 00 00 00 00 00 00 00 00 00 00 00 00 00 00 00
       0.0 0.0 0.0 0.0
000130 00 00 00 00 00 00 00 00 00 00 00 00 00 00 00 00
       0.0 0.0 0.0 0.0
000140 00 00 00 00 00 00 00 00 00 00 00 00 00 00 00 00
       0.0 0.0 0.0 0.0
000150 00 00 00 00 00 00 00 00 00 00 00 00 00 00 00 00
       0.0 0.0 0.0 0.0
000160 00 00 00 00 00 00 00 00 00 00 00 00 00 00 00 00
       0.0 0.0 0.0 0.0
000170 00 00 00 00 00 00 00 00 00 00 00 00 00 00 00 00
       0.0 0.0 0.0 0.0
000180 00 00 00 00 00 00 00 00 00 00 00 00 00 00 00 00
       0.0 0.0 0.0 0.0
000190 00 00 00 00 00 00 00 00 00 00 00 00 00 00 00 00
       0.0 0.0 0.0 0.0
0001a0 00 00 00 00 00 00 00 00 00 00 00 00 00 00 00 00
       0.0 0.0 0.0 0.0
0001b0 00 00 00 00 00 00 00 00 00 00 00 00 00 00 00 00
       0.0 0.0 0.0 0.0
0001c0 00 00 00 00 00 00 00 00 00 00 00 00 00 00 00 00
       0.0 0.0 0.0 0.0
0001d0 00 00 00 00 00 00 00 00 00 00 00 00 00 00 00 00
       0.0 0.0 0.0 0.0
0001e0 00 00 00 00 00 00 00 00 00 00 00 00 00 00 00 00
       0.0 0.0 0.0 0.0
0001f0 00 00 00 00 00 00 00 00 00 00 00 00 00 00 00 00
       0.0 0.0 0.0 0.0

network_body._body_endoder.seq_layers.0.weight f4 [128, 75]
000000 6c 9d b4 be 9c 78 16 be e4 d6 82 3d 0b 6f 30 3d
       -0.35276353 -0.14694446 0.063886434 0.04307465
000010 69 00 70 3c e9 60 30 3e e5 a6 7f 3e 78 11 38 3d
       0.014648535 0.17224468 0.24966009 0.044938534
000020 5a 92 54 3e c1 af f9 bc 37 54 54 be ca bd 49 3b
       0.20758954 -0.030479314 -0.2073525 0.003078329
000030 e7 21 13 bd 0e f8 d3 bd d5 e7 33 3c 35 2f 8d bd
       -0.035921004 -0.10350047 0.010980566 -0.0689377
000040 a1 08 63 3d d1 54 0d be 3d 84 8e 3c a6 c4 44 bd
       0.05542815 -0.13801886 0.01739704 -0.0480391
000050 50 ed 38 3e 67 b0 97 bd 54 73 3b bb 10 40 86 3d
       0.18059278 -0.07406693 -0.0028602676 0.06555188
000060 19 81 84 bd 7d 6b a0 bd 16 e2 0d be 02 9d 3c 3d
       -0.06469936 -0.07833002 -0.13855776 0.04604817
000070 a4 23 15 be ff 84 ec 3d fe f0 b9 bd d5 c1 9b 3e
       -0.14564377 0.115488045 -0.09079169 0.3042132
000080 0e 23 b0 3c 95 04 e8 3c 79 7d c9 bb 13 a9 5f 3d
       0.02150109 0.028322497 -0.0061489907 0.0546046
000090 a1 54 34 3e 2c bf 7a bd 63 e0 8d bd 96 81 63 3c
       0.17610408 -0.061217472 -0.06927564 0.013885876
0000a0 61 26 da 3c a1 5c a3 3c a9 27 bd bd f6 b6 85 3d
       0.026629629 0.01994163 -0.0923608 0.06529038
0000b0 a8 25 da bb ad 80 10 bd d0 a8 3e be 1a 1e 69 bd
       -0.006657321 -0.035278965 -0.18619084 -0.056913473
0000c0 97 cb fe bc 81 1e 4f 3e 3b 34 be bd 0e 39 3b bd
       -0.031102939 0.2022648 -0.09287306 -0.04570871
0000d0 3e 08 a5 3e 61 b2 ad 3d 48 48 e7 bb 47 7d 89 3e
       0.3223285 0.08481289 -0.007058177 0.26853392
0000e0 12 7e f7 3c 8d 89 27 3e 4c 0a 1b bd 88 4c 71 3d
       0.030211482 0.16361065 -0.037851617 0.058910877
0000f0 07 6c b7 bd 99 d8 bf bc 28 43 82 bc 74 5a 1e bc
       -0.089561515 -0.023418711 -0.015901163 -0.00966512
000100 5f 24 82 3d 69 fa 9d 3d a4 58 ec bd 44 5a ae bd
       0.063545935 0.077137776 -0.11540344 -0.085133106
000110 be 0e 84 3d a9 23 ef bc 5c 79 f1 ba 29 b8 e3 bb
       0.06448124 -0.029191809 -0.0018423009 -0.006949444
000120 87 40 eb bc 34 28 aa bd d9 d9 8e 3d d9 d2 66 be
       -0.028717292 -0.083084494 0.06975145 -0.2254137
000130 92 8f 77 3d 87 1d d4 bd 50 36 5e 3c 92 f3 96 3d
       0.060439654 -0.103571944 0.013562754 0.07370676
000140 dd 77 a6 bd 43 86 31 3d d4 61 f0 3d 29 3c 66 bd
       -0.08128331 0.043340933 0.11737409 -0.056209717
000150 ad b3 a7 bd 3e 4f 1f 3e 36 1a 11 3d ae 8b ff bd
       -0.08188567 0.15557572 0.035425387 -0.12477814
000160 dd 03 34 be c3 a0 84 be 83 9c 10 3d 32 e3 06 3d
       -0.17579599 -0.259039 0.03530551 0.032931514
000170 99 71 49 bd f5 db 82 3e 3a b8 88 be 89 c8 51 bd
       -0.0491806 0.2555844 -0.26703054 -0.051216636
000180 ec 0a 1e bd a5 6d 55 be 10 ea cd 3c 8f 68 6c 3d
       -0.038584635 -0.20842607 0.025136024 0.057716902
000190 76 c4 42 bb 10 43 5d ba 18 02 2c 3e 66 a9 a3 bd
       -0.002971915 -0.0008440474 0.16797674 -0.079912946
0001a0 6f f2 29 3e 50 9c 87 be 86 f9 3e 3e 5a 52 af 3d
       0.16596387 -0.26486444 0.18649873 0.08560629
0001b0 84 5e c7 bd 42 19 1d 3e 71 cd 48 3d ee ca 97 bd
       -0.09734824 0.15341666 0.04902405 -0.07411753
0001c0 b6 92 e5 bc db 71 bc 3d 65 62 93 3e 6f 7e 84 3d
       -0.028024059 0.09201404 0.28786007 0.06469428
0001d0 c9 85 5f 3d c2 bc 07 bd 99 96 68 bd 14 1b 90 be
       0.054570947 -0.033138998 -0.056784246 -0.2814566
0001e0 ac 3d 8c 3c b3 e7 c7 3d 6a 13 d9 bd cb 11 04 be
       0.017119251 0.0976099 -0.10599406 -0.12897412
0001f0 1f 5f 81 be 69 15 0e bd fb 43 58 be 72 18 19 3e
       -0.25267884 -0.034688387 -0.21119682 0.14950731
000200 8b dc a8 bd 20 42 0a 3d f0 ae 89 bd e0 db 33 3d
       -0.0824519 0.033754468 -0.0672282 0.04391086
000210 c4 4a 2d bd af 25 9e 3d 51 d7 2c be da 84 b4 bc
       -0.04230763 0.07722031 -0.16879012 -0.022036005
000220 1b 8e d5 bd b6 6e 8a be 69 0c 4d be 9a 91 5e 3e
       -0.10427495 -0.2703759 -0.20024265 0.2173523
000230 d6 c9 d8 3c 9a 2a 21 3e 0f 77 22 3e dd 52 79 3d
       0.02646343 0.15738907 0.1586573 0.06087004
000240 74 80 91 bd dc 1b 3f 3e 9e 5c b7 bc 0c e3 08 3e
       -0.071045786 0.18662971 -0.02238303 0.13367862
000250 ff 2c 1b 3c bc c7 64 bc 0d f2 b6 3c 5a 6d bf 3c
       0.009471177 -0.013963636 0.022332216 0.023367573
000260 8b 93 7e 3d 39 0d 07 3e 62 ed cd bc e1 41 39 3e
       0.062152427 0.13188638 -0.025137607 0.18091537
000270 7d 03 c8 3d ef 44 02 bd ac 9b 38 bd 77 67 fd 3d
       0.0976629 -0.03180402 -0.045070335 0.1237325
000280 1e 56 69 bd 24 36 62 3b 13 3d 00 3d 52 fb 8d bd
       -0.056966893 0.0034517134 0.031308245 -0.06932701
000290 db 8d 8c bc 49 f8 a2 3d f6 dd 67 3d b4 de 40 bd
       -0.017157486 0.07957513 0.056608163 -0.047087386
0002a0 5f 76 b0 3d da a1 1e 3c 65 5f c5 bd 4d 0d 41 3d
       0.086163275 0.009682143 -0.09637336 0.047131825
0002b0 8c 25 e8 bb ed af b0 3d 66 d9 b0 bb 6f da 2e 3d
       -0.007084554 0.08627305 -0.0053970097 0.042688783
0002c0 23 00 2e be 8a 13 15 3e d2 7c bf 3d ee 6e 70 bd
       -0.1699224 0.14558235 0.093499795 -0.05869954
0002d0 95 0f 5b be 0f 19 4a 3b 24 0c 27 be d3 08 75 3d
       -0.21392663 0.003083769 -0.16313225 0.05982287
0002e0 b8 1b 9b bd 8a 4e 26 3d 99 bb 26 be 3e 82 ad 3d
       -0.07573646 0.040602244 -0.162825 0.08472107
0002f0 b7 3e 04 3d 53 cb 09 3e 8f de 2a be e8 08 95 3d
       0.032286372 0.13456468 -0.16686462 0.07277089
000300 3d 98 ff bc 8f 90 91 3d 20 1d 51 3d 35 76 7b bd
       -0.031200523 0.071076505 0.051053166 -0.061392028
000310 5e 8f 3a 3c 39 78 f0 3d 90 c6 43 bd 8e 8d 2d 3e
       0.01138672 0.11741681 -0.047796786 0.1694853
000320 f9 c0 3e 3d 63 03 10 3c bd 01 0b 3c cd a8 be bc
       0.04657075 0.00878987 0.008484301 -0.02327385
000330 55 fd 70 3e 3f e6 04 bc 71 70 c1 3d b0 8b c1 bd
       0.23534139 -0.008111536 0.094452746 -0.094504714
000340 6a f3 9e be 2d f9 01 bd e7 e8 14 be 0e 9c 62 be
       -0.31045085 -0.031731773 -0.1454197 -0.22129843
000350 c5 26 ce 3c 06 0b 51 bc 2a 84 ab 3d 12 a1 c7 bd
       0.025164971 -0.012758976 0.08374818 -0.097475186
000360 35 52 ab 3d dc 7f ab bd 6e 52 b3 bb d9 3d ff 3b
       0.08365289 -0.083739966 -0.005472473 0.0077893552
000370 d2 1b a9 bc 3b 8e c7 3d 53 f7 e3 3c 0b a4 d4 bd
       -0.020643149 0.09743925 0.027827894 -0.10382851
000380 25 43 ba 3c d2 8e 75 be a0 71 61 bc e3 e7 d5 bd
       0.022737095 -0.23980263 -0.0137600005 -0.104446195
000390 bc 98 90 3c c7 b7 35 bd 82 62 e2 bc 28 f8 f3 bc
       0.017650954 -0.044364717 -0.027634863 -0.029781416
0003a0 84 ae 1a 3e d6 e4 58 3d fb 22 57 3d b3 89 1e be
       0.15105635 0.05295261 0.052523594 -0.15482216
0003b0 ad 50 8c 3d 04 29 54 3d c8 d1 7c bd fc 26 46 bd
       0.06851325 0.051796928 -0.0617235 -0.048377022
0003c0 c9 fe 47 bc 2b 21 97 3b 79 58 56 be f4 2b ab 3d
       -0.012206742 0.004612108 -0.20932187 0.08357993
0003d0 f6 55 a5 3d 62 6f 20 bd 72 24 36 3c 74 ca 07 be
       0.080730364 -0.039168723 0.011117088 -0.13260823
0003e0 bd 5c 82 3d 27 f5 54 3c c6 39 65 3d 07 e3 93 3d
       0.06365345 0.012997902 0.0559633 0.072210364
0003f0 b1 c5 27 bd 24 2a 84 bc f3 c1 32 3e 83 e0 20 bd
       -0.040960018 -0.016133375 0.17456798 -0.03927661

network_body._body_endoder.seq_layers.2.bias f4 [128]
000000 00 00 00 00 00 00 00 00 00 00 00 00 00 00 00 00
       0.0 0.0 0.0 0.0
000010 00 00 00 00 00 00 00 00 00 00 00 00 00 00 00 00
       0.0 0.0 0.0 0.0
000020 00 00 00 00 00 00 00 00 00 00 00 00 00 00 00 00
       0.0 0.0 0.0 0.0
000030 00 00 00 00 00 00 00 00 00 00 00 00 00 00 00 00
       0.0 0.0 0.0 0.0
000040 00 00 00 00 00 00 00 00 00 00 00 00 00 00 00 00
       0.0 0.0 0.0 0.0
000050 00 00 00 00 00 00 00 00 00 00 00 00 00 00 00 00
       0.0 0.0 0.0 0.0
000060 00 00 00 00 00 00 00 00 00 00 00 00 00 00 00 00
       0.0 0.0 0.0 0.0
000070 00 00 00 00 00 00 00 00 00 00 00 00 00 00 00 00
       0.0 0.0 0.0 0.0
000080 00 00 00 00 00 00 00 00 00 00 00 00 00 00 00 00
       0.0 0.0 0.0 0.0
000090 00 00 00 00 00 00 00 00 00 00 00 00 00 00 00 00
       0.0 0.0 0.0 0.0
0000a0 00 00 00 00 00 00 00 00 00 00 00 00 00 00 00 00
       0.0 0.0 0.0 0.0
0000b0 00 00 00 00 00 00 00 00 00 00 00 00 00 00 00 00
       0.0 0.0 0.0 0.0
0000c0 00 00 00 00 00 00 00 00 00 00 00 00 00 00 00 00
       0.0 0.0 0.0 0.0
0000d0 00 00 00 00 00 00 00 00 00 00 00 00 00 00 00 00
       0.0 0.0 0.0 0.0
0000e0 00 00 00 00 00 00 00 00 00 00 00 00 00 00 00 00
       0.0 0.0 0.0 0.0
0000f0 00 00 00 00 00 00 00 00 00 00 00 00 00 00 00 00
       0.0 0.0 0.0 0.0
000100 00 00 00 00 00 00 00 00 00 00 00 00 00 00 00 00
       0.0 0.0 0.0 0.0
000110 00 00 00 00 00 00 00 00 00 00 00 00 00 00 00 00
       0.0 0.0 0.0 0.0
000120 00 00 00 00 00 00 00 00 00 00 00 00 00 00 00 00
       0.0 0.0 0.0 0.0
000130 00 00 00 00 00 00 00 00 00 00 00 00 00 00 00 00
       0.0 0.0 0.0 0.0
000140 00 00 00 00 00 00 00 00 00 00 00 00 00 00 00 00
       0.0 0.0 0.0 0.0
000150 00 00 00 00 00 00 00 00 00 00 00 00 00 00 00 00
       0.0 0.0 0.0 0.0
000160 00 00 00 00 00 00 00 00 00 00 00 00 00 00 00 00
       0.0 0.0 0.0 0.0
000170 00 00 00 00 00 00 00 00 00 00 00 00 00 00 00 00
       0.0 0.0 0.0 0.0
000180 00 00 00 00 00 00 00 00 00 00 00 00 00 00 00 00
       0.0 0.0 0.0 0.0
000190 00 00 00 00 00 00 00 00 00 00 00 00 00 00 00 00
       0.0 0.0 0.0 0.0
0001a0 00 00 00 00 00 00 00 00 00 00 00 00 00 00 00 00
       0.0 0.0 0.0 0.0
0001b0 00 00 00 00 00 00 00 00 00 00 00 00 00 00 00 00
       0.0 0.0 0.0 0.0
0001c0 00 00 00 00 00 00 00 00 00 00 00 00 00 00 00 00
       0.0 0.0 0.0 0.0
0001d0 00 00 00 00 00 00 00 00 00 00 00 00 00 00 00 00
       0.0 0.0 0.0 0.0
0001e0 00 00 00 00 00 00 00 00 00 00 00 00 00 00 00 00
       0.0 0.0 0.0 0.0
0001f0 00 00 00 00 00 00 00 00 00 00 00 00 00 00 00 00
       0.0 0.0 0.0 0.0

network_body._body_endoder.seq_layers.2.weight f4 [128, 128]
000000 f7 5a f5 bd 52 ca 30 bd 79 d0 ae bd 51 7b fd 3d
       -0.11980241 -0.043161698 -0.08535857 0.12377036
000010 3d 02 54 3e 7a 91 75 bd 77 ec 0d be ad ef b0 3d
       0.20703979 -0.05995319 -0.13859735 0.086394645
000020 5f 33 82 3c 52 35 21 bd 19 df 6e bd 86 b8 bf 3d
       0.015893636 -0.03935749 -0.05831823 0.09361367
000030 bf 96 75 bd d9 46 ee 3a 54 17 32 bd 63 e8 3e bd
       -0.059958216 0.0018179073 -0.04347928 -0.04660834
000040 b7 d1 ce bc 16 7f 63 3d f3 02 31 bd 04 24 8a bd
       -0.025246484 0.05554112 -0.043215703 -0.06745151
000050 dc a0 fe 3c 3e 1e 58 bd 2f e9 de 3d b3 cc 18 be
       0.031082563 -0.052763216 0.1088432 -0.14921837
000060 b4 60 c7 3d 00 77 bc 3d 8e 43 ad 3d 51 f3 f4 bc
       0.097352415 0.09202385 0.08460151 -0.029901179
000070 da 32 a5 bd 4c cb c4 3c c1 c0 1e 3e c1 51 00 be
       -0.0806634 0.02402272 0.15503217 -0.12531187
000080 06 9e 64 bd 89 79 2c 3c 06 b3 0f bd f5 f5 93 be
       -0.055814765 0.010527023 -0.03508284 -0.28898588
000090 03 df 28 3c ce bd 29 3e 42 b4 cd bd d9 d8 8e bd
       0.010307076 0.16576311 -0.10044147 -0.06974954
0000a0 97 9e 42 3c 8b c9 01 3b 33 d0 2d be ea e3 19 be
       0.011878631 0.0019803967 -0.16973953 -0.15028349
0000b0 60 0f a7 3d d1 28 a2 bd da dd e7 3c 95 d8 7b 3a
       0.081572294 -0.07917941 0.02830403 0.00096071634
0000c0 37 38 ee 3d a7 87 f3 3c 14 81 7c 3d 57 29 3c 3d
       0.11631816 0.02972777 0.061646536 0.045937862
0000d0 2a 20 4d 3d eb d2 d3 bd 7e 04 f6 bd 34 f2 d7 bc
       0.050079502 -0.10342964 -0.120125756 -0.026360609
0000e0 36 88 18 3d f9 3f f7 3d fa 5b 10 3d cb 89 ae 3d
       0.037239276 0.12072749 0.035243966 0.08522376
0000f0 f8 31 f7 bd 0d 97 8b 3d d6 9f 92 3d 86 bd 76 bd
       -0.12070078 0.0681592 0.071593925 -0.060239337
000100 a2 ac 85 bd fb 0b 96 bd a2 31 c5 bd ba 35 ee bd
       -0.06527068 -0.07326504 -0.09628607 -0.11631341
000110 d7 a6 e2 3d 1d 8e 0d bc 37 3b db 3d e8 dc 80 3c
       0.110669784 -0.0086398395 0.10704654 0.015730336
000120 21 0e d8 3d 5d c5 ee bd fe 33 7c be d1 8d c8 3d
       0.1054957 -0.11658738 -0.24629208 0.09792674
000130 83 68 ee 3d 7e 64 f0 ba 57 d9 2b bd 7f 75 48 bd
       0.11641028 -0.0018340496 -0.04195532 -0.048940178
000140 f8 cc e1 3d 5d 79 68 3d d7 89 2c be db bb 59 bc
       0.11025423 0.056756366 -0.16849457 -0.013289417
000150 29 28 a7 3c 49 01 b3 3d f3 75 36 be 06 29 18 bd
       0.020404892 0.087404795 -0.17818432 -0.037148498
000160 43 5d 4c bc 5d f9 28 3c e9 da 2c bd ff c0 bb 3d
       -0.012473407 0.010313359 -0.042200956 0.091676705
000170 64 8e 54 bc 52 ee 9f bd 6a 5a 0e bc 7b 2a 8d 3c
       -0.012973402 -0.07809128 -0.008688549 0.01723217
000180 87 3c b3 3d ac b8 8e bd 1f 29 ca 3d 0e a9 d0 3d
       0.08751779 -0.06968817 0.098711245 0.101884946
000190 39 e7 a6 bb f5 ec 12 bd 0a 72 18 be 04 10 9a 3c
       -0.005093482 -0.03587051 -0.14887252 0.018806465
0001a0 78 f0 79 3c a7 ec 41 3c 3a 54 0a ba ec 33 cd 3c
       0.015255086 0.0118362075 -0.0005276833 0.025049172
0001b0 dc c0 9b 3d a4 4b e6 3d b7 ab 9f 3d f7 9f cb bc
       0.076051444 0.11244896 0.07796424 -0.02485655
0001c0 10 fd ca 3d ef 52 88 bc 91 06 7c 3d b5 98 65 bc
       0.09911549 -0.016641108 0.0615297 -0.014013459
0001d0 9b 50 ba 3b f3 1f 3a bc 45 62 4c 3d e0 5e 0b 3e
       0.0056858785 -0.011360156 0.049898405 0.1361041
0001e0 b9 08 b0 3d ba f2 0e 3e 65 b4 85 bd c8 ea e4 3c
       0.08595414 0.1395978 -0.06528548 0.027943984
0001f0 82 df 8d 3d 76 2c 9c bd d5 1f 3f 3e 4a 0f ee bd
       0.06927396 -0.07625668 0.18664487 -0.1162401
000200 8e 6f d2 3d c4 bd d1 3d f7 2f 28 bc c0 df ae 3d
       0.102751836 0.10241273 -0.010265342 0.08538771
000210 de e1 9b 3d 9b f6 b3 3c 06 07 b8 bc 94 b3 de bc
       0.0761144 0.021968177 -0.022464287 -0.027185239
000220 4f a6 15 3e 26 14 57 3e 12 ff 22 3e be 90 8b 3c
       0.14614223 0.2100378 0.15917614 0.017036792
000230 18 eb 29 bd 3c c0 18 3e 0a d9 93 3d ec f8 40 bc
       -0.04148397 0.14917082 0.07219131 -0.011778098
000240 81 bb 45 bc c3 70 0a 3d 5c a7 33 3e 39 27 8f 3d
       -0.01206863 0.033798944 0.17544311 0.06989903
000250 42 ee 83 bd 2c cd f5 bc 5c b0 8a 3d 4c 5c b3 bd
       -0.064419284 -0.03000506 0.06771919 -0.087578386
000260 c7 f9 d1 3d e4 b0 87 3d ae fe 0c 3c 24 93 e8 3d
       0.10252719 0.06625536 0.008605642 0.1135619
000270 e4 ce e2 bd 09 28 0e be c7 7d be 3d 03 fc 87 3c
       -0.110746175 -0.1388246 0.09301334 0.01659966
000280 e6 0d 5a 3d 6a 5c 35 bd b5 ce 1f 3e 12 ca 22 3e
       0.05323591 -0.044277586 0.15606196 0.15897396
000290 c7 ba d8 3c 11 03 3b be 19 95 34 3e 04 81 ec 3c
       0.02645625 -0.18262888 0.17635001 0.028870113
0002a0 58 13 0d 3d 2d 4d 9b 3d 2d 90 e6 3d 49 59 6a 3d
       0.034442276 0.075830795 0.11257968 0.057214055
0002b0 bc e2 60 3d 60 cf ba bd ed 2c 97 bd f9 08 f2 bd
       0.05490373 -0.09121585 -0.07381616 -0.11818118
0002c0 1f 8a 17 be b6 b6 40 3e 44 f5 18 3d 6a c9 aa bc
       -0.14798783 0.18819699 0.03734328 -0.020847995
0002d0 24 48 ee 3b e0 e5 63 bd 5d ca dc bd a6 be 53 bd
       0.0072717834 -0.055639148 -0.10780785 -0.05169549
0002e0 fb a8 c0 3d b3 51 f7 bc 7b 6d 1c 3e c4 ef ac 3d
       0.094072305 -0.030190324 0.15276138 0.08444169
0002f0 9d fb 9f bc 52 12 1f be 79 41 1d bd 1a 39 8b bd
       -0.019529158 -0.15534332 -0.038392518 -0.06798001
000300 40 55 f5 bd 31 cc 0c be 0a ad ab 3d 23 b1 17 be
       -0.11979151 -0.13749768 0.08382614 -0.14813666
000310 24 82 fa bc f6 f5 9e bd 0c bf 4e bc 1e 15 01 3c
       -0.030579634 -0.07761757 -0.012618791 0.00787857
000320 21 92 fe bd a6 3c 2b 3d 72 a8 00 3e 21 11 14 3d
       -0.124302156 0.041805886 0.12564257 0.036149148
000330 ec 4c a1 3b 5c e9 35 bd 1f 65 92 bd ef 24 aa 3d
       0.0049225 -0.044412002 -0.071481936 0.08307826
000340 c5 5a 45 3d aa 07 ae 3d 09 ac f4 ba b9 12 d4 bc
       0.048182268 0.084975556 -0.0018666993 -0.025887834
000350 12 35 99 bb af 90 55 be ab 57 6a bb 15 95 af bd
       -0.004675516 -0.20855974 -0.003575782 -0.08573357
000360 24 f6 2e 3d c6 9b c7 3d fd 63 89 bb 12 9a 99 3c
       0.042715207 0.09746508 -0.0041928277 0.018750224
000370 af 68 b4 3d 76 6e 0f 3e 88 76 da bd 37 f9 8b 3d
       0.08809029 0.14006981 -0.10667139 0.06834643
000380 ce 6a 92 bb e7 30 1a be b4 f5 01 3e 98 73 8d 3c
       -0.0044682985 -0.15057717 0.12691385 0.017267033
000390 7f 0c 21 bb 00 9a 1c 3e 58 25 db 3b 0e 25 b6 bc
       -0.0024574099 0.15293121 0.0066878013 -0.022234466
0003a0 f4 95 ef bd 0c c5 57 3b b4 e0 2f bd 2f 53 0d 3d
       -0.11698523 0.0032923846 -0.042938903 0.03450316
0003b0 e6 38 59 bc de bc ac bc 63 b9 58 3e f2 16 09 bc
       -0.013258195 -0.021086153 0.2116447 -0.008367287
0003c0 ad 0e 16 be 91 35 1b 3d 6e a0 bb 3d e7 9c 95 3c
       -0.14654036 0.03789288 0.09161459 0.018263293
0003d0 99 2f 4b 3e 4d bf 21 bd d1 aa f4 bc 6f 0c 13 3d
       0.19842376 -0.03948908 -0.029866608 0.03590053
0003e0 82 6d 67 bd f3 8c 9d bd 5e 88 a1 bd 0f d8 c4 bd
       -0.05650092 -0.076928996 -0.07887338 -0.096115224
0003f0 21 90 21 ba b3 6a a8 bd bb a4 9c 3d 8f d3 ce 3c
       -0.00061631395 -0.08223476 0.07648607 0.025247363
