results/ppo/My Behavior/My Behavior-499970.onnx (onnx, 108714 bytes, 6 tensors)

action_model._discrete_distribution.branches.0.bias f4 [3]
000000 e2 d0 f6 3b df b0 a0 bb 9e 8d 4d bb
       0.007532225 -0.004903897 -0.0031364928

action_model._discrete_distribution.branches.0.weight f4 [3, 128]
000000 31 06 7c bd b7 d4 14 bc 69 99 68 3d 95 6c 63 bd
       -0.061529342 -0.009083918 0.05678693 -0.055523474
000010 c4 1c 45 bd be 80 92 3d 51 47 5f 3d c1 45 4b 3c
       -0.048123136 0.07153462 0.054511372 0.012406767
000020 f0 51 37 bd f7 d3 70 3d 74 54 ba bc 84 51 b6 3d
       -0.044755876 0.058795895 -0.022745349 0.089022666
000030 f9 3f 66 bd 75 e0 7f bd 43 09 97 3d 0a 4d 74 bd
       -0.056213353 -0.06246992 0.073748134 -0.059643783
000040 72 55 74 bb 2c a5 90 bd 36 a8 8c bd b8 12 2f 3d
       -0.0037282375 -0.07062754 -0.06868021 0.04274246
000050 d2 09 37 3b c1 ed 89 3d ba 0b c9 bd 56 59 52 bd
       0.0027929437 0.06734801 -0.0981669 -0.05135473
000060 fd b0 a6 bd 5f e4 ba bd e5 5b dd bb af b1 95 3d
       -0.081392266 -0.091255896 -0.0067553394 0.07309281
000070 72 34 24 bd 0d de f1 3c b8 f3 29 bd fc a6 9f 3d
       -0.04008908 0.029524827 -0.041492194 0.077955216
000080 a6 9d 96 bd 69 c0 41 bd 97 1b 1c bd 4c 7b 9e bd
       -0.07354288 -0.047302637 -0.03811225 -0.07738361
000090 f0 38 86 3d 7d b2 00 3d fa 41 36 bd cc 42 49 bc
       0.06553829 0.03142022 -0.044496514 -0.012283992
0000a0 07 7f e2 3c ed 9d 32 3d 9a 2a 20 bd b3 30 50 3d
       0.027648462 0.04360764 -0.039103128 0.050827693
0000b0 b2 4f 44 bd ce 9b 98 bc 5e 03 f1 bc 77 df 95 bd
       -0.047927566 -0.018628981 -0.02942055 -0.07318013
0000c0 67 be 99 3d 22 79 0c 3d 7e 53 59 bc 1d c1 72 bd
       0.075070195 0.03429521 -0.013264535 -0.0592662
0000d0 77 15 8c 3d 8b 85 90 bd 88 6d 6a bd 87 a0 1a 3d
       0.068400316 -0.07056721 -0.057233363 0.037750747
0000e0 ed 03 85 3d 7e 22 4a bd 4e 6e c9 bd 77 3b 9a bd
       0.064948894 -0.0493493 -0.09835492 -0.07530873
0000f0 c8 51 a0 bd dd a6 5a 3d f0 86 a6 3c 4e 69 97 3d
       -0.078280985 0.05338179 0.020328015 0.07393132
000100 2f 71 90 bd 84 90 67 bd 7d ad e7 bc ff 6e 94 3d
       -0.07052838 -0.056534305 -0.028280968 0.07247733
000110 a9 36 b6 bd 73 91 89 bd 94 cd a6 bd a6 83 25 bd
       -0.08897144 -0.06717195 -0.0814468 -0.040408753
000120 43 27 29 3d 74 5c a4 3d d0 ef ab bc 66 76 ab bc
       0.04129721 0.080254465 -0.020988375 -0.02093048
000130 42 74 3a bd 7a 37 98 3d 2c ff 9a bd e4 67 66 3d
       -0.04552103 0.07432456 -0.075682014 0.05625142
000140 49 c8 65 bd 7d 57 3a bd a0 55 6e bc b7 9b 47 bd
       -0.05609921 -0.04549359 -0.014546782 -0.048732486
000150 fd 98 cc bb b2 83 72 bd ad e7 9a 3d 29 de 4d bd
       -0.0062438236 -0.059207626 0.0756372 -0.050260697
000160 2e ea b6 3c 6b 56 0a 3d 44 4b a7 bd 1c a7 17 3d
       0.022328462 0.03377382 -0.08168653 0.037024602
000170 52 88 a6 bd b3 84 22 3d 85 fd 8b 3d 73 96 11 3c
       -0.0813147 0.039677333 0.068354644 0.008885968
000180 16 bd 17 3d 28 cc b9 3c 3a ec 10 bd 37 b8 f7 3c
       0.03704556 0.022680357 -0.035381533 0.030239208
000190 55 83 31 3d 85 65 74 3d e9 a1 9d 3c c9 66 fd bc
       0.04333814 0.05966713 0.019242244 -0.0309328
0001a0 7c c9 9c bc ec 75 b7 bc 82 ad 9f 3d bc d3 6a 3d
       -0.019139044 -0.022395097 0.07796766 0.057330832
0001b0 bf b2 90 bd 3d d4 89 3d 63 b4 ee bc 2f 6c 83 bd
       -0.07065343 0.06729934 -0.02913875 -0.06417119
0001c0 1e 45 7e bd 07 fd f6 bb 3f f5 9f bd a1 51 47 bd
       -0.062077634 -0.0075374874 -0.07810449 -0.04866183
0001d0 74 92 bd bd 2f 6b 8e 3d de 25 9b bd ac 2f 79 3d
       -0.09256449 0.069540374 -0.07575582 0.06083648
0001e0 dc c3 b2 3c 7c f9 84 3d d0 33 b3 bd 51 cd a4 3d
       0.021821909 0.06492898 -0.08750117 0.080469735
0001f0 dc e1 68 3d b9 72 11 bd 84 15 79 3d 66 16 8d 3d
       0.05685602 -0.0355098 0.060811535 0.06889038
000200 2f 5b 4d bd 6f 1f 99 3c 97 d1 17 3d a3 f8 10 bb
       -0.050135788 0.018691747 0.037065115 -0.0022120855
000210 53 11 fd bc 37 c4 09 bd 26 c0 85 bc aa cd 27 3d
       -0.03089205 -0.03363439 -0.016326975 0.04096762
000220 86 5c e4 bb f8 65 08 bb ad f5 bd 3c 66 d4 85 3c
       -0.0069690375 -0.0020812731 0.023188436 0.016336631
000230 3b d2 0b bd 5c 91 c1 bb c6 47 3d bd 49 6a ab bc
       -0.03413604 -0.0059072208 -0.046211027 -0.020924704
000240 ef ad ac 3c 99 fe 35 3a 0e f6 4f bd 06 74 20 bb
       0.021079032 0.000694254 -0.050771765 -0.0024483218
000250 6f 32 b3 bc 65 e3 c6 bc eb 1d 96 3a b6 8e cb bc
       -0.021874635 -0.024278352 0.0011453008 -0.024848323
000260 72 33 cc bc a1 21 d6 3c 96 52 d1 bc 84 7e ea bb
       -0.024926875 0.026139082 -0.025552075 -0.007156195
000270 19 e3 26 3c 97 f6 6f 3c 50 01 ef bc 25 45 38 bc
       0.01018598 0.014646194 -0.02917543 -0.011246954
000280 62 9e 8c bc d4 40 bf bc 8b 79 48 bd 68 68 89 3c
       -0.017165367 -0.023346342 -0.048944037 0.016773418
000290 58 83 c1 bc bc bf b6 3c e6 e5 27 bc e2 cc 1a bd
       -0.0236222 0.022308223 -0.010247683 -0.037793048
0002a0 cf b9 8e bc 84 7f 08 bd 20 9f 0a bd a9 a6 79 bc
       -0.017422585 -0.033324733 -0.03384316 -0.015237489
0002b0 3a f3 f3 bc bd 7d 24 3d b6 1f f2 bc c4 8b 00 3c
       -0.029779065 0.040158976 -0.029556137 0.007845823
0002c0 46 a0 2c bc 8b 64 b2 3c 4c cd 14 3d ca 20 17 bd
       -0.010536259 0.021776458 0.0363286 -0.036896504
0002d0 0f 7e 40 bc db f6 dd 3b 12 1e 5d b8 b0 1c 3c 3b
       -0.011748805 0.006773812 -5.271851e-05 0.0028703623
0002e0 6b 1d 2a bd 75 65 22 3c 33 cb 8e 3c 3d 32 9c bc
       -0.04153196 0.009911885 0.017430877 -0.019066924
0002f0 3b 36 b5 3c 7b 4c 08 bd 09 8e 04 bd a4 b5 47 bc
       0.022120586 -0.033276062 -0.032362018 -0.012189303
000300 8d ff 66 bc 67 62 11 bd e0 b6 31 3d f2 bf 33 bc
       -0.014099014 -0.035494234 0.043387294 -0.010971056
000310 bc 5e 31 3d be 84 0a bd 6b 8b 1c 3d 83 c1 8b bc
       0.043303236 -0.033818 0.038218897 -0.017060047
000320 e2 cf 07 bd 4d 85 18 bd 2d bb 2b 3d 22 d2 06 bd
       -0.033157237 -0.0372365 0.04192655 -0.032915242
000330 43 2f 71 3c f3 94 f7 b9 d6 88 03 3b bf dc 0f bd
       0.014720741 -0.00047222487 0.0020070574 -0.03512263
000340 e2 7a bb bc e3 94 16 bd 2f 54 4d 3d af 30 c6 bc
       -0.022885744 -0.036763083 0.05012911 -0.024193136
000350 00 e6 97 3c 9f c3 b4 bc 04 e0 f8 bc 9e c0 b1 bc
       0.01854229 -0.022065936 -0.030380256 -0.021698292
000360 cf 7c f8 bc 1a 97 e9 bb cf ed 0d 3b 48 44 b9 bc
       -0.03033295 -0.0071286084 0.0021656638 -0.022615567
000370 1f 13 2e 3d 43 c7 b3 3b 94 21 ac bc ed 7d b8 bc
       0.042498704 0.0054864003 -0.021012105 -0.022520984
000380 b7 ec 50 3c 00 ef 2b bd 53 b3 b4 3c f1 bd b5 39
       0.01275175 -0.041975975 0.022058165 0.00034664528
000390 b6 61 38 bd 34 cc db bc 75 05 33 3d 8a b1 9e 3c
       -0.04501506 -0.02683077 0.043706376 0.019371767
0003a0 a5 94 40 3d f3 09 2f 3d 51 14 ed bb 7f 02 91 bc
       0.04701676 0.042734098 -0.007235088 -0.017701386
0003b0 fb 23 ad bc 39 2e 45 bc 07 db a2 3c bc 9d bf bc
       -0.02113532 -0.012034946 0.019879831 -0.023390643
0003c0 a1 95 cf 3c 17 76 4b 3c 14 9a d0 3c 0e 44 ab ba
       0.025339903 0.0124182915 0.025464095 -0.0013066547
0003d0 b1 0d b2 3c dd 1f 1c bd 14 b9 e9 3a ec 0a 00 bd
       0.021735044 -0.038116325 0.0017831647 -0.031260416
0003e0 fb c8 20 ba a3 50 34 bc 1a 0a b1 3c db 39 30 bc
       -0.0006133464 -0.011005553 0.021611262 -0.010755981
0003f0 c5 bf 0e 3c f4 0c 03 bd aa 39 bb bc 3f 75 2f bd
       0.008712714 -0.031994775 -0.022854645 -0.042836424

network_body._body_endoder.seq_layers.0.bias f4 [128]
000000 aa b0 2c 38 b3 93 3c bc 7a 05 59 bb cc a2 01 3d
       4.1172527e-05 -0.011509824 -0.0033114837 0.031649396
000010 a9 e3 14 bc ac d1 61 3b 46 16 ae 3b 00 8b bb 3c
       -0.009087482 0.003445725 0.005312714 0.022893429
000020 43 fb 30 3d 0d 26 d4 bb 23 8d 1b bc ad 81 de 3c
       0.04320837 -0.0064742626 -0.009494099 0.027161444
000030 2b 45 3a 3d cf ef 0c bd f6 f0 2e 3d 66 8d 69 3c
       0.04547612 -0.034408387 0.042710267 0.014254903
000040 ac a8 d1 3c 3e dc af 3c 99 92 97 3c 78 a2 59 3c
       0.025593124 0.021467324 0.01850252 0.0132833645
000050 38 d7 d5 3c d3 e7 5b 3c ac 53 7b 3c 21 14 0d bd
       0.0261036 0.01342197 0.015339773 -0.034443025
000060 65 f5 5d 3c 00 47 20 bc db 97 96 ba b9 3b ff 3b
       0.013547276 -0.009782553 -0.0011489348 0.007789102
000070 33 e8 0c bd bf 81 01 3b c0 c5 8c 3c f9 da fd 3c
       -0.03440113 0.0019761173 0.017184138 0.030988203
000080 fc 84 5a 3c 3c 1c 88 3c ea 8b 24 bd cc 58 59 3c
       0.01333737 0.016615026 -0.040172495 0.0132658
000090 ad 16 d7 3c 20 8e 9a 3c 78 6a 86 3c cc 92 bf 3c
       0.02625593 0.018866599 0.01640819 0.023385428
0000a0 2e 6e 1d 3d bf 04 0a 3d da a8 93 b8 bc e4 5e 3c
       0.038435154 0.033695932 -7.040957e-05 0.013604339
0000b0 11 bc 06 3d 58 51 af 3b 2b 71 8d 3b ea 0a 8a 3c
       0.032894198 0.005350273 0.004316469 0.016850907
0000c0 66 63 ed 3c e6 a3 76 3b 28 76 e2 3c db 1d 9b 3c
       0.02897806 0.0037634312 0.027644232 0.018935135
0000d0 ea c9 ba 3c d2 08 b3 3c 6f 7e ab bc cd 87 6c 3c
       0.022801358 0.021854792 -0.020934312 0.014436674
0000e0 53 f3 7a 3b bc ee 42 3d 4e 33 eb 3c c7 32 a0 bc
       0.0038292005 0.047590956 0.028710987 -0.019555463
0000f0 b9 a5 d9 3c b4 6a 27 bd be d1 d2 3c a3 86 58 3d
       0.02656828 -0.040873244 0.025734778 0.052862775
000100 69 bf c4 3b f4 ca 8d bc e0 b8 44 3c 46 2c 3a 3c
       0.006004263 -0.01730869 0.012006968 0.011363095
000110 1d f9 6e bb b8 cd 2f 3c 93 a1 7f 3c 19 37 f4 3c
       -0.00364644 0.0107301995 0.015602487 0.029811429
000120 5a 2a 63 3c fc b2 6f 3c 85 96 9a 3b 72 f2 97 3c
       0.013865078 0.014630076 0.0047176504 0.018548224
000130 39 cb 7f 3c d0 42 07 3d 60 ce b1 3b 9e 64 a1 3b
       0.015612417 0.0330227 0.005426213 0.0049253246
000140 c7 32 b8 3c f6 77 ce 3c 2e 7d 17 3d 53 93 c8 3c
       0.02248515 0.025203686 0.036984615 0.024484312
000150 ea 36 bb 3b 71 a1 48 3d 58 77 27 3c 19 c4 35 3d
       0.0057133334 0.048982088 0.010221325 0.044376466
000160 ab 1d 65 3c 15 97 ee 3c 46 e0 2c bb fc 34 1d 3d
       0.013984124 0.029124776 -0.0026378795 0.038380608
000170 1c 56 2b bc ee 40 d4 3a 85 71 15 3d 94 c4 03 3b
       -0.010457542 0.0016193667 0.036485214 0.0020106183
000180 b6 a5 a8 3b 33 d9 8e bc 4d ec 12 3d de ad b6 b9
       0.0051467074 -0.017437553 0.035869885 -0.00034843286
000190 e5 1a 66 3b df 51 03 3d c2 e2 b7 3c fe 92 bc 3c
       0.0035111245 0.0320605 0.022446994 0.02301931
0001a0 63 c5 89 3c de 6a 8d 3b 2a 44 ac 3c a3 ee 6e 3c
       0.016817754 0.004315718 0.021028597 0.014583263
0001b0 57 bb dd 3c b7 51 8a ba ab ea ed 3b b4 77 c4 3c
       0.02706687 -0.0010552917 0.0072606406 0.02398286
0001c0 1a 8c 11 3c ea a6 9e 3c 75 96 f4 3c a3 32 4e 3c
       0.0088835005 0.0193667 0.0298569 0.012585315
0001d0 3f ac 32 3c 7b ef f7 3c 3b 0b 66 3d ac 20 d6 3c
       0.0109053245 0.03026556 0.056163054 0.026138626
0001e0 bd bc e0 3c 2e 6f 14 3d 0c 4f 47 3c a1 8a 59 3d
       0.027433747 0.03623884 0.012164842 0.053110722
0001f0 97 17 15 3c ed 81 0b 3d d9 ce 31 bb 02 39 bb 3b
       0.009099863 0.034059454 -0.0027131347 0.005713583

network_body._body_endoder.seq_layers.0.weight f4 [128, 75]
000000 be 7f 9f be cf d5 1c be e4 d6 82 3d 72 ee bb bc
       -0.31152147 -0.15315937 0.063886434 -0.022940848
000010 cb 0e 2f 3d 7a ba 25 3e e5 a6 7f 3e 4f d0 97 bc
       0.042738717 0.16184416 0.24966009 -0.018531946
000020 0a 97 7d 3e 7e 7a 48 bd 37 54 54 be 31 9e 80 bd
       0.24764648 -0.048944943 -0.2073525 -0.062801726
000030 8f 23 8b 3b dc b5 dc bd 58 5e 0d bd 06 16 db bd
       0.0042461823 -0.107768744 -0.0345138 -0.1069756
000040 8a 67 af 3d d1 54 0d be 78 5d 71 3b 7f 24 7f bd
       0.085646704 -0.13801886 0.0036829393 -0.062290665
000050 f8 b6 7f 3e 09 91 c1 bd 92 5c c6 bc fe 1f 56 3d
       0.24972141 -0.094514914 -0.024214063 0.052276604
000060 b6 91 44 bd d6 d9 a0 bd 16 e2 0d be a6 1e 84 3d
       -0.047990523 -0.07854049 -0.13855776 0.06451158
000070 59 86 3a be 8d a2 09 3e fe f0 b9 bd ff 88 ac 3e
       -0.18215312 0.13440914 -0.09079169 0.3369827
000080 ed 0d ca bd 12 13 85 3d 79 7d c9 bb d1 9b c9 3d
       -0.098659374 0.06497778 -0.0061489907 0.09844173
000090 ae c6 41 3e 98 2e 28 bd a6 b6 15 be 0e a5 01 bd
       0.18923447 -0.04106006 -0.14620456 -0.03165155
0000a0 0f ff 3e 3d bf c6 3c 3d d8 27 2b be a8 1b 01 3d
       0.04662996 0.046087977 -0.16714418 0.031520516
0000b0 f1 eb fa 3c d1 6d 39 bd 1c 8e 58 be 85 1f 8a bd
       0.030630084 -0.045270745 -0.2114796 -0.06744293
0000c0 49 57 b2 3b f6 3c 2a 3e 5c d2 97 bd be b9 6e bd
       0.005442534 0.16624817 -0.0741317 -0.058282606
0000d0 9e c5 bf 3e 61 b2 ad 3d 47 b2 3a bd 47 05 82 3e
       0.37455457 0.08481289 -0.045580175 0.2539465
0000e0 e5 b7 88 3d f7 27 44 3e 18 a3 9a bd 72 cf 3a 3d
       0.066757 0.1915587 -0.07550639 0.04560799
0000f0 84 a6 91 bd a3 67 09 bd ce f2 ed bc 7c d4 b1 bc
       -0.071118385 -0.0335461 -0.029046442 -0.021707766
000100 ce 4c bd 3d a7 8b 8c ba c2 95 b2 bd ce 63 82 bd
       0.09243165 -0.0010722772 -0.0871997 -0.063666925
000110 93 52 90 3d 8a 2a 5f bd c4 d4 58 3c 28 00 67 3c
       0.07047 -0.054483928 0.013234321 0.014099158
000120 b2 fc da bd 53 6e 1d bd 16 66 c4 3d d7 e5 2d be
       -0.10692729 -0.03843529 0.09589784 -0.16982208
000130 a6 68 2c 3d 87 1d d4 bd f3 a1 4b bd 55 df a5 3d
       0.042091988 -0.103571944 -0.049714994 0.08099238
000140 44 57 c6 bd 43 86 31 3d 3e fc 80 3d 6c c2 6e bd
       -0.09684613 0.043340933 0.062981114 -0.058290884
000150 1d 9e be bd 3e 4f 1f 3e e0 77 1d bc 42 f6 15 be
       -0.093075015 0.15557572 -0.0096111 -0.14644721
000160 3b ff 3d be 02 2d 82 be c5 75 05 3c 63 3f 95 3c
       -0.18554394 -0.25424963 0.008145754 0.018218702
000170 99 71 49 bd 39 56 81 3e 4b 83 91 be c7 59 0c bc
       -0.0491806 0.25261095 -0.2842048 -0.008566326
000180 72 a7 92 bd a5 4d 6c be 6a c1 14 bb 4a 1d ae 3d
       -0.07160844 -0.23076494 -0.0022698292 0.0850168
000190 d7 a4 d4 bc 10 43 5d ba 0a e9 3c 3e b2 de 82 bd
       -0.025957508 -0.0008440474 0.18448272 -0.06390132
0001a0 2e 69 19 3e 50 9c 87 be 54 97 58 3e 37 df 47 3d
       0.14981529 -0.26486444 0.21151477 0.04879686
0001b0 36 2e bf bd 42 19 1d 3e 36 7c b5 3d ab ac f3 bd
       -0.09334986 0.15341666 0.08861582 -0.11898168
0001c0 a7 ef bf bc 40 4b 9f 3d 22 b8 6f 3e e7 bd 5e 3d
       -0.023429705 0.07778025 0.23410085 0.054380324
0001d0 ac c1 f3 3d 25 c6 02 be 98 c2 ed bd bf b1 88 be
       0.11902174 -0.12770899 -0.116093814 -0.2669811
0001e0 7f fb 01 3c 40 10 81 3d 4a 31 01 be 40 9e 02 be
       0.0079334965 0.063019276 -0.12616459 -0.1275568
0001f0 2d fd 8c be 3c 7b 1c bd cc 33 68 be ae 29 3b 3e
       -0.27536908 -0.038203463 -0.22676009 0.18277618
000200 8b dc a8 bd dc a2 c0 bc f6 2c b3 bd d2 a9 39 3d
       -0.0824519 -0.023515157 -0.0874881 0.04532797
000210 90 08 87 bd 5a a4 97 3d c4 cb 3c be 09 ac 04 bd
       -0.0659343 0.074043944 -0.18437105 -0.032390628
000220 d2 1e 04 be 65 33 84 be 2e 7f 56 be 51 d9 49 3e
       -0.12902382 -0.2582046 -0.20946953 0.19711806
000230 61 c8 1d bc 87 96 38 3e a9 b0 25 3e 89 bc 13 3d
       -0.009630294 0.18026172 0.16180672 0.036068473
000240 5c 30 06 be ea 05 79 3e b2 b4 4b bc 98 da c7 3d
       -0.13104385 0.24318662 -0.012433218 0.0975849
000250 38 6d c5 bd b8 cb 4e 3d d1 4f d7 bd 94 87 5d 3d
       -0.096399724 0.05048725 -0.10513271 0.054084376
000260 8b 93 7e 3d 63 8a 33 3e 8b c1 cc bd b2 76 55 3e
       0.062152427 0.17533259 -0.09997853 0.2084606
000270 7d 03 c8 3d 9e 4e da 3b 45 1e d1 bd df 0d 18 3e
       0.0976629 0.006662204 -0.102108516 0.14849041
000280 1e 56 69 bd af b9 20 3d 01 b3 1a bc d8 89 6a bd
       -0.056966893 0.03923958 -0.009442092 -0.057260364
000290 3f d3 1f bc 69 d8 c5 3d 32 e0 8a 3d b4 de 40 bd
       -0.009754955 0.096604176 0.06781043 -0.047087386
0002a0 17 6d 9d 3d b4 84 2f 3c 4d da f9 bd 36 e8 3d 3d
       0.07686823 0.010712791 -0.12199841 0.04636403
0002b0 88 fa 2c 3b f5 91 c3 3d cd 17 74 3c 17 dd ec 3c
       0.0026394445 0.095493235 0.014898253 0.028914018
0002c0 23 00 2e be e2 71 f8 3d b5 1b 23 3e 3c e7 ab bd
       -0.1699224 0.121310964 0.15928538 -0.08393714
0002d0 95 0f 5b be 36 56 ea bc d5 05 fc bc b2 c2 d0 3c
       -0.21392663 -0.028605562 -0.0307645 0.025483463
0002e0 b8 1b 9b bd 4b 6c 99 ba 2b b8 32 be d2 ed 9c 3d
       -0.07573646 -0.0011705247 -0.17453067 0.07662548
0002f0 66 30 3a 3d f7 8a 20 3e 1d 31 41 be 54 56 fa 3c
       0.045456313 0.15678011 -0.18866391 0.030558743
000300 3a fa 12 3b 09 b7 b5 3d 2a 6f a8 3c 9e 91 87 bd
       0.0022426979 0.08872802 0.02056082 -0.06619571
000310 1c f8 b6 3c 38 73 f6 3d 60 4c 45 bd 48 e4 36 3e
       0.022335105 0.12033695 -0.04816854 0.1786052
000320 9f 6a e0 3c 87 ab a0 3b 9b c9 1e 3c cd a8 be bc
       0.02739459 0.00490326 0.009691621 -0.02327385
000330 e9 cb 6c 3e 80 db 56 bc 8e ad c0 3d 4b 53 00 be
       0.2312466 -0.013113856 0.09408103 -0.12531774
000340 ef c4 94 be 00 d7 0f bd b3 4b 11 be ac db 73 be
       -0.29056498 -0.03511715 -0.14189033 -0.23814267
000350 7a 1f 1c 3d e7 e6 aa bb fd 02 bf 3d 37 55 9c bd
       0.038115956 -0.005215514 0.09326742 -0.07633441
000360 bb 5d 6a 3d 10 ab cf bd 17 06 b8 3b ed 88 52 3c
       0.057218295 -0.101400495 0.0056159603 0.012850028
000370 b8 9e 31 bd 03 ee 9f 3d 6d 93 48 3d 91 9d c5 bd
       -0.043364257 0.07809069 0.04896872 -0.09649194
000380 57 8a 9f bc 38 e9 5b be 96 0e 18 3c e3 e7 d5 bd
       -0.019475145 -0.21475685 0.009280821 -0.104446195
000390 f6 68 14 3c 35 3e 09 bc d1 eb 38 bc 28 f8 f3 bc
       0.009058228 -0.008376648 -0.011286692 -0.029781416
0003a0 30 5f 0f 3e 48 1e d1 3d 07 22 6a 3d b3 89 1e be
       0.14001155 0.10210854 0.057161357 -0.15482216
0003b0 56 d2 59 3d 95 07 eb 3d fe b4 08 bd 5c 2a 8d bd
       0.053179108 0.114760555 -0.033375733 -0.06892845
0003c0 4d 12 8a bc 3d 66 01 3d 79 58 56 be 6a d8 d9 3d
       -0.01685443 0.031591643 -0.20932187 0.10636981
0003d0 c2 e3 d7 3d 35 d7 34 3d 4a 45 8b 3c b5 bb 03 be
       0.10541488 0.04415055 0.017000813 -0.12864573
0003e0 5a eb 97 3d 73 b9 99 3d 8e 32 88 3d 07 e3 93 3d
       0.074179366 0.07506075 0.066502675 0.072210364
0003f0 5c 74 dd bc 81 26 d7 3c 9e a6 43 3e 83 e0 20 bd
       -0.027033024 0.026263477 0.19106528 -0.03927661

network_body._body_endoder.seq_layers.2.bias f4 [128]
000000 42 e7 ca 3c 1b 64 e5 bb 4c 65 e3 3c 15 cb 80 3c
       0.024768475 -0.007000459 0.027758263 0.015721837
000010 e5 10 bc 3c 5b da d5 3c bc 9f ac 3c 50 7a c0 ba
       0.022957275 0.026105097 0.021072261 -0.001468489
000020 bc 09 9f 3c cc fc a2 3c 9a 57 95 3c 12 b9 1e 3d
       0.019413821 0.019895934 0.018230248 0.038750716
000030 6a 52 53 3c 35 87 d0 3b f5 cc f9 3c 49 08 73 3c
       0.012898067 0.006363774 0.030493239 0.014833518
000040 c0 38 ac 3a 4f a7 f4 3c f0 15 ae 3c bb 52 73 3c
       0.0013139471 0.029864935 0.021250695 0.014851267
000050 10 78 e2 bb f5 e7 e7 3c 1b ac d8 3c 82 b5 9f 3c
       -0.006911285 0.028308848 0.026449254 0.01949573
000060 89 02 e8 3c f7 54 b0 3c 6e 0b 1c 3c d1 1b 0b 3d
       0.028321521 0.02152489 0.009524209 0.033962075
000070 91 6d 88 3b 84 67 9c 3c d7 48 d9 3c 2f 66 e0 3c
       0.004163452 0.019092329 0.02652399 0.027392475
000080 1d b3 d0 3c 2d d5 f4 39 48 62 9b 3c b2 52 91 3c
       0.025476033 0.00046698135 0.018967763 0.017739628
000090 24 a7 e3 3c 5f 9f 9c 3b 5e f2 0a 3c fc 96 24 3c
       0.02778966 0.0047797407 0.008480636 0.010045763
0000a0 5c 4b 16 3c 2a 8d dd 3c b4 14 20 3c 4f c2 86 3c
       0.0091732405 0.027044851 0.009770561 0.016450075
0000b0 e7 0a a3 3c 6b c4 40 3b ed 3f e6 3b 61 22 36 3c
       0.01990266 0.002941395 0.0070266635 0.011116595
0000c0 93 de 15 3d 04 b9 b2 3c 7f 97 e1 3b af d3 e2 3c
       0.036589216 0.021816738 0.006884515 0.02768883
0000d0 c2 aa fa 3c ae 38 ac 3c b4 ee fe 3b 04 46 8e 3c
       0.030599002 0.02102312 0.0077799205 0.01736737
0000e0 6d 93 e7 3c 5c 90 70 3c 0e f1 ba 3c ba dd c6 3c
       0.02826854 0.014682855 0.022820022 0.02427565
0000f0 75 5a 5f 3c 2a a7 c0 3c cf 0c 5e 3b 71 4a d0 3c
       0.0136324065 0.02351721 0.0033882146 0.025426121
000100 a4 e1 6c 3c 52 09 71 3c cc 7b 74 3b b1 1d 0c 3d
       0.014458094 0.014711695 0.0037305234 0.034208003
000110 92 df 99 3c bd 51 8a 3c 17 8c 2d 3d 5c 1a 9b 3b
       0.018783364 0.016884679 0.04236993 0.004733367
000120 00 9e a3 3c fa 22 e2 3c 1d 82 ae 3b 71 d1 91 3b
       0.019972801 0.027604569 0.0053255693 0.004450016
000130 fe 29 36 3b f1 94 24 3d fd 87 0f 3c 19 3e ab 3c
       0.0027796025 0.040181104 0.0087604495 0.020903634
000140 8f 9b 90 3c 73 1d ad 3c 09 c7 cb 3c 48 78 9b 3c
       0.017652301 0.021132207 0.02487518 0.018978253
000150 96 ca 0b 3c 58 0f 1a 3c bd 59 07 3d 0b bd 98 3c
       0.008532187 0.009403072 0.033044565 0.01864483
000160 f8 a8 05 3c b6 74 ab 3b e3 24 98 3c d4 fd 58 3c
       0.008157961 0.005232419 0.018572276 0.013244111
000170 55 74 24 3c 0f 6d 8e 3c 07 bb e1 3c ba 77 64 3b
       0.010037501 0.017385988 0.027555002 0.0034861402
000180 f0 84 72 3c 53 5d 3b 3c f9 19 84 3c 05 07 0e 3c
       0.014802203 0.011435824 0.016125666 0.008668666
000190 13 89 43 3c ac 75 fb 3c 5f e1 22 3c fc 13 4d 3b
       0.0119345365 0.030695759 0.009941428 0.003129243
0001a0 e0 9d fd 3b a0 51 61 ba 3e e2 20 3d dd c1 d6 3c
       0.0077397674 -0.0008595232 0.03927826 0.026215488
0001b0 cd 74 08 3d 3f ad d7 3c 22 5f a4 3c 42 79 bf 3c
       0.033314515 0.026327727 0.020064894 0.02337325
0001c0 41 93 fa 3c 04 61 df 3b 0f 9b 8d 3b 18 af 04 3c
       0.030587794 0.006816985 0.004321463 0.008098386
0001d0 b3 12 65 3c 97 d0 04 3d bc 59 99 3c d9 90 e1 3c
       0.013981509 0.03242549 0.018719546 0.027534889
0001e0 5a 65 36 3c 4a ac aa 3c 9b 6d 57 3c 97 fe 18 3d
       0.0111325625 0.020834107 0.013148691 0.03735217
0001f0 fe 9d 60 3c 26 6f e6 3b 5d 85 d8 3c 5b a3 e4 3c
       0.013709543 0.007032293 0.02643078 0.027909925

network_body._body_endoder.seq_layers.2.weight f4 [128, 128]
000000 b0 da 08 be 54 72 ad bd 3c 7b 61 bd 78 94 06 3e
       -0.13364673 -0.08469072 -0.055049166 0.13142574
000010 f9 fb 48 3e d9 6a 8a bd ad f5 a1 bd 20 91 35 3e
       0.1962737 -0.06758661 -0.07908187 0.17731142
000020 e1 0f a1 3d 71 0d b0 bd 59 14 e6 bc 44 33 1d 3e
       0.07864357 -0.08596314 -0.028085874 0.15351588
000030 35 ef 0a 38 f3 c0 92 3c 75 22 54 bc e6 88 3e bd
       3.3124543e-05 0.017914271 -0.012947668 -0.046517275
000040 6f 18 96 bd a0 19 88 3d 5d 01 07 bd 68 b9 21 bd
       -0.07328879 0.066455126 -0.032960285 -0.039483458
000050 5d 17 a8 3d 02 fc f6 3c ab fe 06 3e 95 ac 31 be
       0.08207581 0.030149464 0.13183086 -0.17350991
000060 4d 37 21 3e ad b2 86 3d 71 a7 6f 3d e2 a3 f6 bc
       0.15743752 0.065770485 0.058509294 -0.030107442
000070 3b a8 ae bd c9 5d ec bb 16 b1 65 3e 16 f6 86 bd
       -0.08528181 -0.0072133285 0.22430834 -0.06589906
000080 1d b0 04 be fe 4c 61 bd 40 33 95 bd 55 dd 84 be
       -0.12957807 -0.055005066 -0.07285166 -0.25950113
000090 53 84 23 3c 55 f2 f3 3d 52 7f f6 bd 8d 73 f4 bd
       0.009980279 0.119114555 -0.12036003 -0.11936102
0000a0 02 9b a3 bd d5 44 9c bd f6 fe 20 be 6a 5f ea bd
       -0.0798855 -0.07630316 -0.1572226 -0.1144398
0000b0 09 44 77 3d 99 2a 16 bd 45 ff 29 3d 9a 60 2b 3d
       0.060367618 -0.036661718 0.04150321 0.041840173
0000c0 40 f8 de 3d 40 e1 97 3c 2a 6c 29 bd d4 74 c4 3d
       0.10887194 0.018540025 -0.04136292 0.09592596
0000d0 10 e6 ce bb ce 01 84 bd c7 69 20 be c1 64 ba bd
       -0.0063140467 -0.06445657 -0.15665351 -0.091012485
0000e0 0f a0 c8 3d dc 0d 25 3e 25 cb cc 3c d5 a5 ad 3d
       0.09796154 0.16118568 0.02499921 0.084788956
0000f0 5b 15 e5 bd af 7f 77 3d ad f2 2b 3e f1 6f 04 be
       -0.11185714 0.060424503 0.16791792 -0.12933327
000100 f8 af 95 bd 33 da 89 bd e4 67 07 be 00 87 ee bd
       -0.07308954 -0.06731071 -0.13223225 -0.11646843
000110 5e e1 38 3e 60 40 04 3d eb 1b b5 3d de 22 d3 3d
       0.18054721 0.032287955 0.088432156 0.10309385
000120 8f 6a 41 3e 8b 55 1e be f1 07 7f be 5f ec 24 3e
       0.18888305 -0.1546232 -0.24905373 0.16105793
000130 ab ea 43 3e a9 c9 86 3c e9 e8 8d 3c 49 00 e3 bd
       0.19132487 0.01645358 0.017322974 -0.11084039
000140 49 32 0d 3e 6d 70 4a bc 04 60 be bd b5 07 c0 bc
       0.13788714 -0.012355906 -0.09295657 -0.023441175
000150 4a 73 3b 3d 0f ec 09 3e df 33 18 be 3b 46 1f 3d
       0.045764245 0.13468955 -0.14863537 0.038885336
000160 dc 73 95 3c 99 f8 a9 3c f6 49 83 3c a4 34 1d 3e
       0.018243723 0.020748423 0.016026478 0.15352112
000170 e9 17 45 bd e0 53 98 bd 79 3d 19 bd df 9d 0d bb
       -0.048118506 -0.07437873 -0.03741214 -0.002160899
000180 78 71 3b 3d 00 80 45 bd 75 c9 18 3e 34 6d b0 3d
       0.04576251 -0.048217773 0.149206 0.08614579
000190 f5 60 cf bc 96 6e 00 be 8f 9d 50 be 70 bc 10 3d
       -0.025314787 -0.12542185 -0.20372604 0.035335958
0001a0 bd 6a c9 bc 5f 39 86 bd 4d d5 3a 3c 0f e2 fb bc
       -0.02458703 -0.065539114 0.011403394 -0.030747442
0001b0 0a 7b 08 3e 00 00 09 3e a4 21 f8 3d 83 92 f2 bc
       0.13328186 0.13378906 0.121157914 -0.029610878
0001c0 71 17 0d 3e 31 2e 65 bd 5e 87 ef 3d 75 d2 81 bc
       0.13778473 -0.055952255 0.11695741 -0.015847424
0001d0 47 cd 5f 3d 15 51 80 bd 17 1b 95 3d 35 f0 24 3e
       0.054639127 -0.06265465 0.072805576 0.16107257
0001e0 2d 20 0a 3d 91 1f 3d 3e fc 97 bd bd 8b 12 61 3d
       0.03372209 0.18469073 -0.09257504 0.054949325
0001f0 10 b5 b3 3d 7b 41 0a be 7b 6c 76 3e bc bd f9 bd
       0.08774769 -0.13501541 0.2406482 -0.12194392
000200 7e 16 81 3d cd 62 f4 3d a1 b9 ab bb bf 9a 99 3d
       0.06303118 0.11932907 -0.0052406345 0.075002186
000210 3c fe 8f 3d 95 2f 6c 3d 79 45 2d bd 28 9e 06 bd
       0.07030913 0.057662565 -0.042302582 -0.032865673
000220 85 72 08 3e d5 e8 6a 3e 42 72 0f 3e 8b e4 b8 3c
       0.13324936 0.22940381 0.1400843 0.022569915
000230 85 3a 7f 3c ce e6 22 3e 4f 42 41 3d 3f 04 f2 bb
       0.015577917 0.15908358 0.047182377 -0.00738576
000240 a4 d5 09 ba 57 c1 6c 3d 7c 42 28 3e 95 b4 9a 3d
       -0.000525797 0.05780157 0.16431612 0.075539745
000250 cd ff 90 bd 8c 43 62 3c 1d a6 de 3d cb 75 a3 bd
       -0.0708004 0.01381005 0.10871527 -0.079814516
000260 18 5a c8 3d fb 7a a9 3d 19 7b bb bc 20 ae dc 3d
       0.09782809 0.0827541 -0.022885846 0.10775399
000270 fd 6d c7 bd 0b ee 0d be 14 77 f9 3d 51 02 27 3d
       -0.097377755 -0.13860337 0.121809155 0.040773693
000280 d9 14 0e 3d d9 e9 66 bd 4c 48 1b 3e 46 30 29 3e
       0.03468785 -0.05637536 0.15164298 0.16522321
000290 1d ba 8a 3c 7c 86 47 be 3b b1 35 3e 9b ee 7c 3c
       0.016934449 -0.19484895 0.1774339 0.015437747
0002a0 33 e2 14 3c e1 72 2d 3d 4c 86 0a 3e ae 42 87 3d
       0.009087133 0.042345885 0.13527793 0.06604515
0002b0 42 8c 27 3d 92 87 6f bd ee 13 12 bd 3e 13 09 be
       0.040905245 -0.0584789 -0.035663538 -0.13386247
0002c0 a7 29 22 be 42 e2 34 3e 2a 1a 54 3c 2e bc d0 bc
       -0.15836202 0.17664436 0.012945691 -0.025480356
0002d0 37 48 66 3b a8 b6 2c bd c9 b6 a8 bd cf 41 08 bd
       0.0035138258 -0.042166382 -0.082379885 -0.033265885
0002e0 d5 23 db 3d 66 23 5b bd 17 d3 4e 3e ea 24 a0 3d
       0.10700194 -0.053500555 0.20197712 0.07819541
0002f0 42 62 a3 bc 6f 63 16 be 6e ed c0 bb ad c8 aa bd
       -0.019944314 -0.14686368 -0.005887679 -0.08339057
000300 2b b3 f7 bd d3 5a 12 be a8 bf 94 3d c5 1d 22 be
       -0.120947205 -0.14292459 0.07263118 -0.15831669
000310 6a 9a d6 bc f2 72 5c bd 8e 98 1d bd 21 fb f0 bb
       -0.026196677 -0.053820558 -0.038475566 -0.0073541556
000320 1e 14 0f be b7 ee ad 3c 41 86 37 3e 67 b3 dc 3b
       -0.13972518 0.021231992 0.17922308 0.0067352536
000330 6f ab 0f 3d 40 42 09 bc 3b 15 91 bd 67 27 a2 3d
       0.0350756 -0.008377612 -0.070841275 0.07917672
000340 39 32 42 3d dd 6b 8c 3d 0b 67 f6 3a 38 31 a6 3c
       0.047411177 0.06856511 0.001879902 0.020287141
000350 fb 3a 2e bd b7 26 59 be 6e dd d0 3c 87 ef 7b bd
       -0.042536717 -0.21206175 0.02549621 -0.061507728
000360 3f 21 19 3d 59 fb 9f 3d 9b 20 b2 3c eb 35 6e 3d
       0.03738522 0.07811613 0.021744063 0.05815689
000370 a6 d9 8a 3d 1c f2 d9 3d d8 cd 1c be 5a 92 4b 3d
       0.067797944 0.10641882 -0.15312898 0.04970012
000380 83 de 2b bd 31 d8 01 be 81 cf 00 3e 76 36 5e 3d
       -0.04196025 -0.12680127 0.12579156 0.054251157
000390 a7 db 17 3d d8 01 14 3e 2e ce 83 bc 2d 33 88 3c
       0.03707471 0.14453828 -0.016089525 0.016625965
0003a0 aa d4 0b be bf 11 d2 3c d8 f6 d8 bc 8e 51 b4 3c
       -0.13655344 0.025643228 -0.026484892 0.022011545
0003b0 0f ef e9 bc 91 db b1 bc 35 18 5c 3e 42 05 cb bc
       -0.028556375 -0.021711143 0.21493609 -0.02478278
0003c0 c9 04 14 be 71 17 ab 3c 4f 71 d6 3d 78 85 64 3d
       -0.1445495 0.020885201 0.10470831 0.05579135
0003d0 70 2b 5c 3e 32 7b 27 bd 10 c8 2c bd ce a8 56 3d
       0.21500945 -0.040888973 -0.042182982 0.05240708
0003e0 7d 08 87 bd 56 58 f4 bc 58 9f ba bd f4 9b ad bd
       -0.06593416 -0.029827278 -0.09112424 -0.08477011
0003f0 f1 c2 e4 3b 1a 34 05 be 8f c7 b3 3d 23 93 8e 3c
       0.0069812466 -0.13008156 0.08778297 0.017404145
