results/ppo/My Behavior/My Behavior-161659.pt (torch, 652295 bytes, 33 tensors)

network_body._body_endoder.seq_layers.0.weight f4 [128, 75]
0	0xbea9cc46	-0.3316366
1	0xbe1ba7ed	-0.15200777
2	0x3d82d6e4	0.063886434
3	0x3bdc0f77	0.0067157107
4	0x3d36ab69	0.044597063
5	0x3e255b7e	0.16148183
6	0x3e7fa6e5	0.24966009
7	0x3bb74d6b	0.0055939457
8	0x3e7aae86	0.24480638
9	0xbd477ffa	-0.048706032
10	0xbe545437	-0.2073525
11	0xbd2a373e	-0.04155659
12	0x3cab7ac1	0.020932557
13	0xbdf39ca2	-0.1189511
14	0xbca25bd1	-0.019819172
15	0xbdcad45b	-0.09903785
16	0x3daef298	0.08542365
17	0xbe0d54d1	-0.13801886
18	0x3b6b35eb	0.0035890292
19	0xbd75a379	-0.059970353
20	0x3e5c59ae	0.21518585
21	0xbdb15065	-0.08657912
22	0xbc7f0182	-0.015564324
23	0x3d59fd88	0.053220302
24	0xbd9b9662	-0.075970426
25	0xbd939409	-0.0720597
26	0xbe0de216	-0.13855776
27	0x3d697975	0.057000596
28	0xbe3a080a	-0.18167129
29	0x3e07fe03	0.13280492
30	0xbdb9f0fe	-0.09079169
31	0x3ea62a90	0.32454348
32	0xbcf5c9db	-0.030003479
33	0x3d520cff	0.051281925
34	0xbbc97d79	-0.0061489907
35	0x3da3ec6c	0.08004078
36	0x3e4640d4	0.19360667
37	0xbd5dfba3	-0.054195058
38	0xbde10f06	-0.109891936
39	0xbc840d7c	-0.016119711
40	0x3d1531d5	0.036424477
41	0x3d0448e1	0.032296065
42	0xbe010543	-0.12599663
43	0x3d3978b4	0.045281127
44	0x3c5d9458	0.013524137
45	0xbd478e17	-0.04871949
46	0xbe3ef771	-0.18649079
47	0xbd792457	-0.060825672
48	0xbbf7bffa	-0.007560727
49	0x3e381517	0.17976795
50	0xbdad6fbb	-0.084685765
51	0xbd618e10	-0.055067122
52	0x3eb018de	0.34393972
53	0x3dadb261	0.08481289
54	0xbcadbbc1	-0.021207692
55	0x3e83f19f	0.2577028
56	0x3d5c2cd3	0.053753685
57	0x3e33f568	0.17574084
58	0xbd7b78c1	-0.061394457
59	0x3d49305f	0.049118396
60	0xbd94e048	-0.07269341
61	0xbc8481d7	-0.016175194
62	0xbd13844a	-0.036014833
63	0xbcb8c559	-0.02255504
64	0x3da49fc4	0.080382854
65	0x3d2bcd85	0.041944046
66	0xbdd50835	-0.10401956
67	0xbd984929	-0.07435829
68	0x3d653186	0.055955432
69	0xbd2e976e	-0.042624883
70	0x3c81a904	0.015827663
71	0x3bbeb139	0.0058194664
72	0xbd82e3c8	-0.06391102
73	0xbd770b72	-0.06031365
74	0x3da82720	0.082105875
75	0xbe5ce496	-0.21571574
76	0x3d490f82	0.049087055
77	0xbdd41d87	-0.103571944
78	0xbc48a55f	-0.012246459
79	0x3d9f2f19	0.07772655
80	0xbdbf539f	-0.09342121
81	0x3d318643	0.043340933
82	0x3dc4f27b	0.09616562
83	0xbd7ad124	-0.06123461
84	0xbdb81452	-0.08988251
85	0x3e1f4f3e	0.15557572
86	0x3c9ce8f9	0.019154059
87	0xbe14650d	-0.14491673
88	0xbe3c268f	-0.18374084
89	0xbe816748	-0.2527411
90	0x3cc7b470	0.024378031
91	0x3d16cef9	0.03681848
92	0xbd497199	-0.0491806
93	0x3e760138	0.24023902
94	0xbe9228fb	-0.2854689
95	0xbd3a01cb	-0.045411866
96	0xbd518ca3	-0.051159512
97	0xbe5cf597	-0.2157806
98	0x3c39f0b1	0.011348889
99	0x3d569612	0.052389212
100	0xbbdc5763	-0.0067242845
101	0xba5d4310	-0.0008440474
102	0x3e39f6f8	0.18160617
103	0xbdbbf6e2	-0.091779485
104	0x3e295316	0.16535601
105	0xbe879c50	-0.26486444
106	0x3e4e9b72	0.20176485
107	0x3d4a7fc3	0.04943825
108	0xbdbace5d	-0.09121392
109	0x3e1d1942	0.15341666
110	0x3d9460f1	0.072450526
111	0xbddb806f	-0.10717856
112	0xbce6420b	-0.028107664
113	0x3db9ef59	0.09078855
114	0x3e873983	0.26411065
115	0x3d32556d	0.0435385
116	0x3db991e7	0.09061032
117	0xbd90cb9d	-0.07070086
118	0xbdad7557	-0.084696464
119	0xbe89e6d0	-0.26933908
120	0x3a9ba535	0.0011874797
121	0x3db168ef	0.086625926
122	0xbdf4a60b	-0.11945733
123	0xbe04afd6	-0.12957701
124	0xbe88ebe2	-0.26742464
125	0xbd19aacc	-0.0375164
126	0xbe66c9b2	-0.22537878
127	0x3e209901	0.15683366
128	0xbda8dc8b	-0.0824519
129	0x3c623de9	0.013808706
130	0xbda94f60	-0.08267093
131	0x3d3163a4	0.043307915
132	0xbd841937	-0.06450122
133	0x3da3d666	0.07999878
134	0xbe3b496c	-0.18289727
135	0xbcb02bcf	-0.021505265
136	0xbdfa52bc	-0.122228116
137	0xbe893381	-0.26797107
138	0xbe57f414	-0.21089202
139	0x3e47ad48	0.19499695
140	0x3c2ea5d6	0.010659656
141	0x3e3367cd	0.17520066
142	0x3e23e6c9	0.16006006
143	0x3d052c4f	0.03251296
144	0xbdcb1d82	-0.099177375
145	0x3e6abdc1	0.22923948
146	0xbc77699a	-0.015100861
147	0x3df1685b	0.11787482
148	0xbd1faded	-0.038984228
149	0x3cb4d833	0.022075748
150	0xbd4c800d	-0.049926806
151	0x3d347373	0.044055413
152	0x3d7e938b	0.062152427
153	0x3e2667ed	0.16250582
154	0xbdbec3a1	-0.09314657
155	0x3e5297b8	0.20565689
156	0x3dc8037d	0.0976629
157	0xba281214	-0.0006411385
158	0xbdcd3e7a	-0.10021682
159	0x3e15df9a	0.14636078
160	0xbd69561e	-0.056966893
161	0x3d0b395d	0.033990253
162	0xbcb98fde	-0.022651609
163	0xbd62a479	-0.055332635
164	0xbc33de59	-0.010978305
165	0x3dc4f382	0.09616758
166	0x3d651612	0.05592925
167	0xbd40deb4	-0.047087386
168	0x3da1ef90	0.07907021
169	0x3c0b515f	0.008503287
170	0xbde99555	-0.11405436
171	0x3d4632c2	0.04838825
172	0xbbaa87de	-0.005204185
173	0x3dbc5f3b	0.09197851
174	0x3cc4b9ce	0.02401438
175	0x3cd282c1	0.025697114
176	0xbe2e0023	-0.1699224
177	0x3dfa55f0	0.122234225
178	0x3e11aef1	0.14226891
179	0xbda88efd	-0.08230398
180	0xbe5b0f95	-0.21392663
181	0xbcc633d2	-0.024194632
182	0xbdbdfbb9	-0.09276528
183	0x3d09909e	0.033585183
184	0xbd9b1bb8	-0.07573646
185	0x3bf12404	0.0073590297
186	0xbe32eb01	-0.1747246
187	0x3da16d94	0.078822285
188	0x3d1cdf30	0.038298786
189	0x3e1b25cb	0.15151136
190	0xbe3147fb	-0.17312615
191	0x3d0cc048	0.03436306
192	0xbc35658e	-0.011071576
193	0x3daa417a	0.0831327
194	0x3d1dbb37	0.03850862
195	0xbd8c2b1a	-0.068441585
196	0x3c4ce7f9	0.0125064785
197	0x3dee4a67	0.11635285
198	0xbd3e2572	-0.04642243
199	0x3e29e582	0.16591457
200	0x3d0deb84	0.034648433
201	0x3b30a51a	0.0026953877
202	0x3c6ac9f7	0.014330379
203	0xbcbea8cd	-0.02327385
204	0x3e679657	0.22615944
205	0xbc6e2ee9	-0.014537551
206	0x3dc44101	0.09582711
207	0xbdeda05e	-0.11602853
208	0xbe9a7c48	-0.30172944
209	0xbd19eefe	-0.037581436
210	0xbe17fb02	-0.14841846
211	0xbe766801	-0.24063112
212	0x3d2668e3	0.04062737
213	0xbbfc1abb	-0.007693616
214	0x3daf8c93	0.08571734
215	0xbdb2abbc	-0.08724162
216	0x3d8a02f0	0.067388415
217	0xbdc73b11	-0.09728063
218	0x3b2564dd	0.002523712
219	0x3c5ff8d9	0.01367017
220	0xbd3ca264	-0.046053305
221	0x3da67002	0.081268325
222	0x3d1be65b	0.03806148
223	0xbdb99c73	-0.090630434
224	0xbc805ffb	-0.015670767
225	0xbe64a03f	-0.22326754
226	0xbb26c1a4	-0.0025445009
227	0xbdd5e7e3	-0.104446195
228	0x3c3cc7c7	0.01152224
229	0xbcaf1b2d	-0.021375263
230	0xbcacd0b4	-0.021095611
231	0xbcf3f828	-0.029781416
232	0x3e0f5ab9	0.13999452
233	0x3db0c8b3	0.0863203
234	0x3d4a70e6	0.049424075
235	0xbe1e89b3	-0.15482216
236	0x3d50eaf3	0.051005315
237	0x3dda6ac1	0.10664893
238	0xbd4ed215	-0.05049332
239	0xbd8c8c9d	-0.06862757
240	0xbcaf7642	-0.021418694
241	0x3c3c9137	0.011509231
242	0xbe565879	-0.20932187
243	0x3dd0467a	0.10169692
244	0x3dcac343	0.099005245
245	0x3c77b741	0.015119375
246	0x3c3470fc	0.011013266
247	0xbe04a6c6	-0.12954244
248	0x3d88218f	0.06647026
249	0x3d8a29a4	0.067462236
250	0x3d5dee15	0.05418213
251	0x3d93e307	0.072210364
252	0xbd2bc080	-0.04193163
253	0x3d24227d	0.040071953
254	0x3e31f5fb	0.1737899
255	0xbd20e083	-0.03927661

network_body._body_endoder.seq_layers.0.bias f4 [128]
0	0xba088180	-0.0005207285
1	0xbc164b7b	-0.009173269
2	0xbba41676	-0.0050075604
3	0x3c960691	0.018313678
4	0xbc1c1194	-0.009525675
5	0x3b06543b	0.0020496983
6	0x3b425c0e	0.002965692
7	0x3ca44ec2	0.020057086
8	0x3d1edf73	0.038787317
9	0xbc49ab12	-0.012308853
10	0xbbbb77f2	-0.0057210857
11	0x3cc29b65	0.023755739
12	0x3d276bc3	0.040874254
13	0xbd018fe5	-0.03163137
14	0x3cce755b	0.025202444
15	0x3be885ff	0.0070960517
16	0x3caa2cab	0.020773252
17	0x3c2f8372	0.010712491
18	0x3c8922f2	0.016740296
19	0xbb1d79b7	-0.0024028847
20	0x3c81a727	0.015826775
21	0x3be62d6d	0.007024458
22	0x3c457d2a	0.012053767
23	0xbd00f78d	-0.031486083
24	0x3c5763a5	0.013146316
25	0xbc87b420	-0.016565382
26	0xbbe3c9b0	-0.0069515333
27	0x3b9be470	0.0047574565
28	0xbd285e9a	-0.041105844
29	0x3b71aa46	0.0036875173
30	0x3c6ad57a	0.014333123
31	0x3ce8b0c8	0.028404608
32	0x3b889df6	0.004169221
33	0x3c3e676f	0.01162134
34	0xbce1175a	-0.027476955
35	0x3b94851f	0.004532471
36	0x3c8b5198	0.01700668
37	0x3c9ca922	0.019123618
38	0x3c414560	0.011796325
39	0x3c9a2da4	0.018820591
40	0x3cfe9cf1	0.031080695
41	0x3cf010cf	0.02930489
42	0xbb7cacc2	-0.003855512
43	0x3c4c6346	0.0124748405
44	0x3cd6d3f9	0.026224123
45	0xb84eb0c5	-4.9278857e-05
46	0x38dbec47	0.00010486744
47	0x3c7ed660	0.015554041
48	0x3cd84578	0.026400313
49	0x3b70e89f	0.0036759747
50	0x3c8a8155	0.016907373
51	0x3c69d933	0.014272976
52	0x3c9088cf	0.01764336
53	0x3c8be06d	0.017074788
54	0xbca8a490	-0.020586282
55	0x3c1a7013	0.009426135
56	0x3a9b7779	0.0011861167
57	0x3d173a9c	0.03692113
58	0x3ca4435b	0.020051649
59	0xbc9c729e	-0.019097622
60	0x3c3dcecd	0.01158495
61	0xbcfbc02d	-0.030731285
62	0x3c9682d1	0.018372925
63	0x3d3da570	0.04630035
64	0xbaa77c1f	-0.001277808
65	0xbc45f632	-0.012082623
66	0x3c0779e5	0.008268808
67	0x3c0e0059	0.008667075
68	0xbba3af2d	-0.004995248
69	0x3c47a3f0	0.012185082
70	0x3c41d465	0.011830424
71	0x3ce00cd7	0.027349873
72	0x3c4f1fad	0.012641829
73	0x3c39516d	0.011310917
74	0xbc17e18e	-0.009270085
75	0x3ca71c6c	0.020399295
76	0x3c5acaa4	0.013353977
77	0x3c9c6fc9	0.019096272
78	0x3b71f2c7	0.0036918388
79	0xbb6b0a36	-0.003586424
80	0x3cac3f92	0.021026406
81	0x3ca5c3c9	0.02023496
82	0x3d032f3d	0.03202747
83	0x3ca7b7d1	0.020473393
84	0xbaef8be2	-0.0018275941
85	0x3d1bd0c4	0.03804089
86	0x3c1f5e9d	0.009727147
87	0x3d23c529	0.03998295
88	0x3c8284d2	0.015932474
89	0x3cbeba60	0.02328223
90	0xbc041291	-0.008061067
91	0x3d063357	0.032763805
92	0xbc1d4a78	-0.009600274
93	0x399d172b	0.00029962635
94	0x3d018b64	0.031627074
95	0xba1b514d	-0.00059248955
96	0x3af36020	0.0018568076
97	0xbce06eb5	-0.02739654
98	0x3cf635ca	0.030054945
99	0xbca4232a	-0.020036299
100	0xbb9cf823	-0.0047903224
101	0x3cd4ef93	0.025993144
102	0x3c3766c5	0.011193936
103	0x3bc1c235	0.005913044
104	0x3c55ca85	0.013048773
105	0xb9218dfe	-0.00015407053
106	0x3c992f88	0.018699422
107	0x3ba7e6ce	0.0051239496
108	0x3cd675bd	0.026179189
109	0xb90d3b30	-0.00013468857
110	0x3bdb8634	0.006699348
111	0x3c8fc168	0.017548278
112	0x3c0b6677	0.008508316
113	0x3c549db9	0.012977057
114	0x3cce65b6	0.025194984
115	0x3be4394d	0.0069648386
116	0x3c05ab8f	0.008158579
117	0x3cefb528	0.029261187
118	0x3d1bb302	0.038012512
119	0x3ca8fb96	0.020627778
120	0x3ca0a946	0.019611966
121	0x3cee4254	0.029084362
122	0x3c35502d	0.011066479
123	0x3d39e011	0.045379702
124	0x3bd2b174	0.0064298455
125	0x3ce42c65	0.0278532
126	0xbbd894a2	-0.0066095153
127	0xbbb87f2e	-0.0056303954

network_body._body_endoder.seq_layers.2.weight f4 [128, 128]
0	0xbdef6a28	-0.116901696
1	0xbd9be568	-0.07612115
2	0xbd73c5a2	-0.05951465
3	0x3e0761a3	0.13220839
4	0x3e4e6a93	0.20157842
5	0xbd9a9d1f	-0.075495
6	0xbdc2ecdc	-0.095178336
7	0x3e16cb46	0.1472598
8	0x3d66a208	0.05630687
9	0xbd8b23c6	-0.067939326
10	0xbcfcfda1	-0.030882658
11	0x3e11c840	0.14236546
12	0xbbdab571	-0.0066744615
13	0x3a997961	0.0011709147
14	0xbc8a9415	-0.016916314
15	0xbd4355e1	-0.047689322
16	0xbd7ed9d7	-0.062219467
17	0x3d7e2a2d	0.06205194
18	0xbd167271	-0.036730234
19	0xbd8efbb6	-0.06981604
20	0x3d5dbf1f	0.054137345
21	0x3b4bd59b	0.003110266
22	0x3e0a01f7	0.13477312
23	0xbe3097a4	-0.17245346
24	0x3e19e1a5	0.15027483
25	0x3d87b4f4	0.06626311
26	0x3d9ba435	0.075996794
27	0xbce00d8b	-0.027350208
28	0xbdab4117	-0.08362024
29	0xbad11b0b	-0.0015953494
30	0x3e5ce136	0.21570286
31	0xbd91efa6	-0.071257874
32	0xbdb89605	-0.09012989
33	0xbcf83aa9	-0.030301409
34	0xbd911c6e	-0.07085501
35	0xbe859fd7	-0.2609851
36	0x3c9b5cb9	0.018965112
37	0x3e007a7f	0.12546729
38	0xbde7137c	-0.11283013
39	0xbde201b6	-0.110354826
40	0xbd7c1c68	-0.061550528
41	0xbd89b88e	-0.06724654
42	0xbe1d462e	-0.15358803
43	0xbdedb6d4	-0.11607137
44	0x3d8ee9e6	0.06978206
45	0xbd4cdac0	-0.050013304
46	0x3d21160d	0.03932767
47	0x3d231a54	0.03982003
48	0x3dd6ecf8	0.10494417
49	0x3ca9cb02	0.020726684
50	0xbc1cc88b	-0.009569298
51	0x3db0d012	0.08633436
52	0x3c4cf135	0.01250868
53	0xbd88f4b4	-0.066872984
54	0xbe23f251	-0.16010405
55	0xbd9259b7	-0.07146018
56	0x3db11849	0.0864721
57	0x3e1b1a2d	0.15146704
58	0x3c5e77d5	0.013578375
59	0x3db4bd94	0.08825222
60	0xbdeaa53f	-0.114572994
61	0x3d7eae9c	0.06217824
62	0x3e1292f9	0.14313878
63	0xbde009aa	-0.10939343
64	0xbd910391	-0.07080758
65	0xbd9f4b6b	-0.07778057
66	0xbdf97edb	-0.12182399
67	0xbdf1de52	-0.11809982
68	0x3e19437c	0.1496715
69	0x3ce10184	0.027466543
70	0x3dc79a31	0.097462066
71	0x3daf7dce	0.08568917
72	0x3e1916bd	0.1495008
73	0xbe16feea	-0.1474568
74	0xbe84f266	-0.25966185
75	0x3e1ee25a	0.15516034
76	0x3e38d756	0.18050894
77	0xbc04d6e7	-0.008107877
78	0x3b85b605	0.0040805363
79	0xbdb61787	-0.08891206
80	0x3e0ee872	0.13955858
81	0x3bbfe571	0.005856209
82	0xbddf7991	-0.10911859
83	0xbca465cc	-0.020068072
84	0x3cfc71b0	0.03081593
85	0x3df0614e	0.117373094
86	0xbe13de2b	-0.14440219
87	0x3cab77ba	0.020931114
88	0x3c71dade	0.014761655
89	0x3cc1a273	0.023637032
90	0x3af8c213	0.0018978737
91	0x3e041466	0.12898406
92	0xbd22c22f	-0.03973597
93	0xbd962b57	-0.07332485
94	0xbd098684	-0.03357555
95	0x3c068179	0.00820958
96	0x3d8c5a25	0.06853131
97	0xbd5ce45e	-0.053928725
98	0x3e105bd3	0.14097528
99	0x3da8dcd4	0.082452446
100	0xbcccfa81	-0.025021793
101	0xbde32967	-0.11091881
102	0xbe39f1dd	-0.1815867
103	0x3c8a52ac	0.016885124
104	0xbc7740d5	-0.015091141
105	0xbd142054	-0.036163643
106	0x3a31d346	0.00067834964
107	0xbc855964	-0.016277976
108	0x3e07611e	0.13220641
109	0x3e0ee590	0.13954759
110	0x3deb9eed	0.11504922
111	0xbcd8c689	-0.026461856
112	0x3e0572a5	0.13032015
113	0xbd415367	-0.04719868
114	0x3dcbfb9a	0.099600986
115	0xbcb2c687	-0.02182318
116	0x3d539c3a	0.05166266
117	0xbd5505ea	-0.052007593
118	0x3d836c9c	0.064172
119	0x3e25bd23	0.16185431
120	0x3d35dff5	0.044403035
121	0x3e32ae8f	0.17449401
122	0xbda8ae1e	-0.08236335
123	0x3d5bdffa	0.053680398
124	0x3d9665a1	0.07343603
125	0xbe01f3d9	-0.12690677
126	0x3e698a5d	0.22806688
127	0xbe01635c	-0.12635559
128	0x3dae6626	0.08515577
129	0x3de87149	0.113497324
130	0xbbfe38d2	-0.0077582384
131	0x3d9ba4b8	0.07599777
132	0x3da0be3a	0.07848783
133	0x3d1690a6	0.03675904
134	0xbd3f07f0	-0.04663843
135	0xbcd5b95f	-0.026089368
136	0x3e0a70c0	0.13519573
137	0x3e666e35	0.22502978
138	0x3e15baa6	0.14621982
139	0x3c954136	0.018219572
140	0xbc9d4442	-0.019197587
141	0x3e16603e	0.14685151
142	0x3d4d7c76	0.050167523
143	0xbc1ee02c	-0.009697001
144	0xbc4cb986	-0.012495404
145	0x3d431910	0.047631323
146	0x3e277768	0.16354144
147	0x3da4718e	0.08029471
148	0xbd96beeb	-0.073606335
149	0xbc039df9	-0.008033269
150	0x3da3080f	0.079605214
151	0xbda32fdc	-0.07968113
152	0x3de8c0c7	0.11364894
153	0x3d9e825f	0.0773971
154	0x3c5a812a	0.013336459
155	0x3ddd7628	0.10813552
156	0xbdd5479c	-0.10414049
157	0xbe0c911a	-0.13727227
158	0x3dd74da9	0.105128594
159	0x3d288fac	0.04115264
160	0x3d5f0105	0.05444433
161	0xbd5517c6	-0.052024625
162	0x3e21c54b	0.15797918
163	0x3e256592	0.16152027
164	0x3c894a3a	0.016759027
165	0xbe49152e	-0.19636986
166	0x3e3082c8	0.17237389
167	0x3c590374	0.013245452
168	0x3ca86903	0.020557886
169	0x3d7017d6	0.05861648
170	0x3df882cf	0.12134325
171	0x3d85187d	0.064988114
172	0x3d2f00c7	0.04272535
173	0xbd945865	-0.072434224
174	0xbd4d92ea	-0.050188936
175	0xbe081735	-0.13290103
176	0xbe20fba8	-0.15720999
177	0x3e3766a3	0.17910247
178	0x3d137c2b	0.036007088
179	0xbca97d34	-0.020689584
180	0xbc5664ed	-0.013085586
181	0xbd438f60	-0.047744155
182	0xbdcb9ee7	-0.099424176
183	0xbd170f95	-0.036880095
184	0x3dd63687	0.10459619
185	0xbd5da1c3	-0.054109346
186	0x3e38802c	0.18017644
187	0x3daeda6a	0.08537753
188	0xbcac19c7	-0.021008385
189	0xbe13a611	-0.14418818
190	0xbd043352	-0.032275505
191	0xbdb1c634	-0.08680382
192	0xbe03d009	-0.12872328
193	0xbe0b33cf	-0.13593982
194	0x3d961751	0.07328666
195	0xbe1edf7b	-0.15514939
196	0xbcad606e	-0.021164145
197	0xbd8de4cb	-0.069284044
198	0xbd1688a5	-0.036751408
199	0xbc3f8eb6	-0.01169174
200	0xbe0023bb	-0.1251363
201	0x3ccbe22d	0.024888122
202	0x3e151e96	0.14562449
203	0x3c25e4b6	0.01012533
204	0x3cce371e	0.025172766
205	0xbcfea14c	-0.031082772
206	0xbd9a5e89	-0.075375624
207	0x3db3465d	0.08753655
208	0x3d39b77b	0.045340996
209	0x3db885f0	0.090099216
210	0xbb5e4a57	-0.0033918822
211	0x3b222fe3	0.002474778
212	0xbc83368b	-0.016017219
213	0xbe503663	-0.20333247
214	0x3c46b5e7	0.01212833
215	0xbdab1dea	-0.08355315
216	0x3ce01996	0.02735595
217	0x3d9f60ce	0.07782136
218	0x3af5e565	0.0018760381
219	0x3d18fab4	0.037348464
220	0x3d90e055	0.07074038
221	0x3df77b96	0.12084119
222	0xbe10bab6	-0.14133725
223	0x3d4ec045	0.05047633
224	0xbce12a56	-0.027486008
225	0xbe0a53f3	-0.13508587
226	0x3dfd7730	0.12376249
227	0x3ce825cd	0.028338337
228	0x3c45c2d4	0.012070376
229	0x3e128f67	0.14312516
230	0x3c12d4d5	0.008961876
231	0xbbf151f7	-0.0073645073
232	0xbe039f45	-0.12853725
233	0x3c17948b	0.009251724
234	0xbcc947b5	-0.024570325
235	0x3d232d78	0.039838284
236	0xbd42232a	-0.047396816
237	0xbc4cf959	-0.012510621
238	0x3e55e260	0.20887136
239	0xbc7cfa9b	-0.015440608
240	0xbe15bdbe	-0.14623162
241	0x3cc3f547	0.023920668
242	0x3dd6477b	0.104628526
243	0x3d17b075	0.037033517
244	0x3e4ec9fd	0.2019424
245	0xbd5774aa	-0.052601494
246	0xbd20d2d8	-0.039263576
247	0x3d34ec78	0.044170827
248	0xbd78f21d	-0.060777772
249	0xbd5e663c	-0.054296717
250	0xbdc20c95	-0.09475056
251	0xbdbb2477	-0.091378145
252	0x3c2c1b28	0.010504521
253	0xbdf115f1	-0.11771763
254	0x3d9ef16d	0.07760892
255	0x3c82d35d	0.015969926

network_body._body_endoder.seq_layers.2.bias f4 [128]
0	0x3cbd5b25	0.02311475
1	0xbc1fee09	-0.009761342
2	0x3c50d665	0.012746428
3	0x3c3958c6	0.011312669
4	0x3c9db2cb	0.019250294
5	0x3ca0c4e2	0.019625131
6	0x3c858e81	0.016303303
7	0xbbc8627d	-0.0061152563
8	0x3c282228	0.01026205
9	0x3c71c8ee	0.014757378
10	0xbc0a7400	-0.008450508
11	0x3ce14e7a	0.02750324
12	0x3c2cbf9a	0.010543728
13	0x3900a874	0.00012269785
14	0x3ccd7717	0.0250812
15	0x3c633f7b	0.013870115
16	0xbb92a3dc	-0.0044751
17	0x3ccb9a51	0.024853857
18	0x3c98496c	0.018589698
19	0x3bf17c83	0.0073695793
20	0xbaf7bda8	-0.0018901126
21	0x3caf1341	0.021371486
22	0x3c3556e5	0.011068081
23	0x3c84c3e1	0.016206684
24	0x3cb4336c	0.021997176
25	0x3c65b8d3	0.014021116
26	0x3c4ac3db	0.012375797
27	0x3cb3e4e3	0.021959728
28	0xbb0b1529	-0.002122233
29	0x3b9f4ac0	0.004861206
30	0x3cacba5c	0.021084957
31	0x3c9e7cb1	0.019346567
32	0x3c8e06e9	0.01733728
33	0x3a11f112	0.00055672333
34	0x3c8ea121	0.017410817
35	0x3c556334	0.01302414
36	0x3cbee8a6	0.023304295
37	0xbb3355c0	-0.0027364343
38	0x3b2128bd	0.0024590932
39	0x3c548e63	0.012973401
40	0x3c1e15ca	0.00964875
41	0x3cc69aea	0.02424379
42	0x3c4c16a6	0.012456572
43	0x3c725e52	0.0147929955
44	0x3c6416fa	0.013921494
45	0xbad4766c	-0.0016209609
46	0x3be512c7	0.006990764
47	0x3b5b5b20	0.0033471063
48	0x3cd73ee0	0.026275098
49	0x3c20cf62	0.009815069
50	0xbabd14cd	-0.0014425755
51	0x3cd797ac	0.02631744
52	0x3cc03d3c	0.023466699
53	0x3c5c3f7a	0.013442868
54	0x3b9c6455	0.0047727027
55	0x3bc98909	0.006150369
56	0x3ccb62d0	0.02482739
57	0x3c4511e9	0.012028196
58	0x3c318c5e	0.010836689
59	0x3c98f37b	0.018670788
60	0x3bc5021e	0.0060122153
61	0x3c9ecc3d	0.019384498
62	0x3bbe0a64	0.0057995785
63	0x3ca0bf9b	0.019622615
64	0x3c453c06	0.0120382365
65	0x3c1e5d21	0.009665758
66	0xbb54d0b6	-0.0032473034
67	0x3cc4fa49	0.024045127
68	0x3c3e0ff8	0.011600487
69	0x3c5c8a3f	0.013460695
70	0x3cee9b86	0.029126894
71	0xb956181c	-0.00020417612
72	0x3c954bba	0.018224586
73	0x3c933aed	0.017972434
74	0xbb034cf3	-0.002003488
75	0x3b867f17	0.0041045058
76	0xbb1f4f14	-0.002430861
77	0x3cdbdcdc	0.026838712
78	0x3b44c92b	0.0030027132
79	0x3c998ee1	0.018744888
80	0x3c7980d7	0.015228472
81	0x3c92541a	0.017862368
82	0x3b15ba87	0.0022846775
83	0x3c7cdbe9	0.01543329
84	0xbb653bf1	-0.0034978355
85	0x3beec32a	0.007286449
86	0x3cc1c915	0.023655454
87	0x3c8d5057	0.017250223
88	0x3c017ff9	0.007904046
89	0x3b7688a9	0.0037618077
90	0x3c3049f6	0.010759821
91	0x3c53681c	0.01290324
92	0xbb051481	-0.002030641
93	0x3c2919d2	0.010321097
94	0x3c940955	0.018070856
95	0x3c0bc44f	0.00853069
96	0x3b9f6812	0.004864701
97	0x3c5cefbe	0.013484893
98	0x3bb28278	0.005447682
99	0x3b6849c2	0.0035444354
100	0x3c5dd348	0.013539143
101	0x3cc4a56c	0.02400466
102	0x3a5477ee	0.0008105029
103	0xbc06d9de	-0.0082306545
104	0xbb0d2f36	-0.0021543032
105	0xbc0870b2	-0.00832765
106	0x3cbe8b36	0.02325974
107	0x3c8fa9ec	0.01753708
108	0x3cdf3ad3	0.02724973
109	0x3ca74ff9	0.020423876
110	0xbc8b198b	-0.016979953
111	0x3c991f47	0.018691672
112	0x3c987600	0.018610954
113	0xbb752014	-0.0037403153
114	0xbb47ec73	-0.0030505925
115	0x3b91d857	0.0044508385
116	0x3c0c40d4	0.008560378
117	0x3ce0d13f	0.027443526
118	0x3bfd0639	0.007721689
119	0x3cc3fe16	0.023924869
120	0x3bf75170	0.00754755
121	0x3c2baded	0.010478479
122	0x3c0203a1	0.0079354355
123	0x3cd7e4e5	0.026354263
124	0x3c17d625	0.009267365
125	0x3bf14928	0.007363457
126	0x3ca219a9	0.019787626
127	0x3ccc7992	0.024960313

action_model._discrete_distribution.branches.0.weight f4 [3, 128]
0	0xbd3ac618	-0.045599073
1	0xba9004fc	-0.0010987814
2	0x3cbcb467	0.023035241
3	0xbd1c62a9	-0.038180027
4	0xbcd6f7c7	-0.026241196
5	0x3d52b069	0.05143777
6	0x3d22051f	0.039555665
7	0x3c4c54ef	0.012471422
8	0xbc79a1f6	-0.015236368
9	0x3d3aee0b	0.04563717
10	0xbc6754c0	-0.014119327
11	0x3d87de39	0.066341825
12	0xbd0fc0c5	-0.03509595
13	0xbd1969a5	-0.037454266
14	0x3d5cd0e4	0.05391015
15	0xbd34333c	-0.043994173
16	0xba846ea8	-0.0010103779
17	0xbd491a81	-0.04909754
18	0xbd46929d	-0.048479665
19	0x3cc30aac	0.0238088
20	0x3af75644	0.0018870314
21	0x3d433335	0.047656257
22	0xbd26bfe4	-0.040710345
23	0xbced0715	-0.028934041
24	0xbd6cc956	-0.057809196
25	0xbd8f5413	-0.06998458
26	0xbb58e75b	-0.0033096883
27	0x3d1d7a2c	0.03844659
28	0xbcbcba89	-0.023038166
29	0x3b6e040c	0.003631833
30	0xbc9cfab0	-0.019162506
31	0x3d64491a	0.055733778
32	0xbd16cf85	-0.036819
33	0xbd041ccf	-0.032254037
34	0xbc88db9a	-0.016706277
35	0xbd7c31f2	-0.06157107
36	0x3d3e2966	0.0464262
37	0x3ca1b3bf	0.01973903
38	0xbc4c29a8	-0.0124611035
39	0xbbd947b8	-0.006630864
40	0x3c9f140f	0.019418744
41	0x3cf98a8c	0.030461572
42	0xbcd8428e	-0.026398923
43	0x3d0f4bad	0.03498428
44	0xbccbe688	-0.0248902
45	0xbc6b6f6f	-0.01436983
46	0xbb67c0f4	-0.0035362812
47	0xbd32113c	-0.043473467
48	0x3d3e1906	0.046410583
49	0x3c5ee4b5	0.013604333
50	0xbcb8655f	-0.022509275
51	0xbd22a6b0	-0.039709747
52	0x3d52fd71	0.05151123
53	0xbd4c6db9	-0.049909327
54	0xbd3b8041	-0.04577661
55	0x3c61d4f2	0.01378368
56	0x3d46297d	0.04837941
57	0xbd0c5fba	-0.03427098
58	0xbd5431b4	-0.051805213
59	0xbd415d0f	-0.04720789
60	0xbd517dae	-0.051145248
61	0x3d0cb718	0.0343543
62	0x3c429758	0.0118769035
63	0x3d67aa1b	0.05655871
64	0xbd59e257	-0.05319437
65	0xbd17708c	-0.036972567
66	0xbcb0309c	-0.021507554
67	0x3d3f5357	0.04671034
68	0xbd893c55	-0.067009605
69	0xbd42418f	-0.047425803
70	0xbd1baa4c	-0.038004205
71	0xbc0715d7	-0.008244953
72	0x3cd3db05	0.025861273
73	0x3d3d26f4	0.046179727
74	0xbc9b5868	-0.018963054
75	0xbc5d4900	-0.013506174
76	0xbced484d	-0.02896514
77	0x3d2735f7	0.04082295
78	0xbd60119c	-0.054704294
79	0x3d2dd74d	0.042441655
80	0xbd2ff34b	-0.04295663
81	0xbceafa8e	-0.028683927
82	0xbc029f39	-0.007972532
83	0xbce087d0	-0.02740851
84	0xbbe854bd	-0.0070901797
85	0xbd32a113	-0.043610644
86	0x3d450b33	0.048106384
87	0xbce60f9c	-0.028083615
88	0x3bf7ef5b	0.007566375
89	0x3cb96144	0.022629388
90	0xbd4ad133	-0.049515914
91	0x3cbb0ce2	0.022833291
92	0xbd24dafd	-0.040247906
93	0x3cc550ca	0.024086375
94	0x3d32fcba	0.04369805
95	0x3bec0134	0.007202292
96	0x3c8e518f	0.017372875
97	0x3c50b95f	0.012739508
98	0xbcc0eea1	-0.023551287
99	0x3c8c6253	0.017136728
100	0x3d0da7a1	0.03458369
101	0x3d277fdc	0.04089342
102	0x3c51a284	0.012795094
103	0xbbe49179	-0.0069753495
104	0xbc5acd32	-0.013354586
105	0xbb8987ab	-0.004197081
106	0x3d1ef9c9	0.038812432
107	0x3d1048ab	0.03522555
108	0xbd3d7e3b	-0.04626296
109	0x3d595dfb	0.053068142
110	0xbc7a7c5f	-0.015288441
111	0xbd28a5e0	-0.041173816
112	0xbcf4e8c3	-0.029896146
113	0xbc581a19	-0.013189816
114	0xbd4be15a	-0.04977546
115	0xbce0cdab	-0.02744182
116	0xbd8c787b	-0.06858917
117	0x3d57bb03	0.052668583
118	0xbd2f5312	-0.04280383
119	0x3d309e76	0.04311987
120	0x3c71585c	0.014730539
121	0x3ce6c27d	0.028168911
122	0xbd907145	-0.070528544
123	0x3d3cb11f	0.046067353
124	0x3d38a78b	0.045081656
125	0xbcb59a5b	-0.022168329
126	0x3d2d8007	0.042358425
127	0x3d49bc31	0.04925174
128	0xbd1a5663	-0.03768004
129	0x3c4e246f	0.012581929
130	0x3cf860ca	0.03031959
131	0xbb94d8ad	-0.0045424313
132	0xbcb5d78d	-0.02219751
133	0xbcddb242	-0.027062539
134	0xbc4006ca	-0.011720369
135	0x3cf814e9	0.030283408
136	0xbba7834c	-0.0051120874
137	0xbb6e84cf	-0.0036395078
138	0x3cce6b51	0.025197657
139	0x3c83d917	0.016094727
140	0xbd0309c7	-0.031991746
141	0x3a699730	0.00089107733
142	0xbd117223	-0.03550924
143	0xbca4c2aa	-0.020112354
144	0x3ccd21a7	0.02504046
145	0xbb83e9af	-0.00402566
146	0xbd3026f1	-0.043005887
147	0xbb3f6c5b	-0.0029208872
148	0xbc309d72	-0.010779725
149	0xbcab8a1c	-0.02093988
150	0xb9913930	-0.00027699163
151	0xbc90b54d	-0.017664576
152	0xbcb44e70	-0.022010058
153	0x3c78ee94	0.0151936
154	0xbcafb5dc	-0.021449022
155	0xba1888df	-0.0005818735
156	0x3bb4b0c4	0.005514236
157	0x3c15e06e	0.0091477465
158	0xbc6401ee	-0.013916476
159	0xbba67204	-0.0050795097
160	0xbc57cfbf	-0.013172089
161	0xbc41afbe	-0.011821685
162	0xbd25d6a9	-0.04048792
163	0x3c434859	0.0119191045
164	0xbcac2f91	-0.021018775
165	0x3ca2646c	0.019823276
166	0xbb597305	-0.003318013
167	0xbcfd8629	-0.030947762
168	0xbc88774a	-0.016658444
169	0xbcf53d51	-0.029936465
170	0xbcda23d0	-0.026628405
171	0xbc529d8d	-0.012854946
172	0xbc390576	-0.011292806
173	0x3d025021	0.031814698
174	0xbcb7bf44	-0.02243007
175	0x3ba1bc92	0.0049358094
176	0xba6a656d	-0.0008941505
177	0x3c3b8349	0.011444875
178	0x3cf57bee	0.02996632
179	0xbd09599b	-0.03353272
180	0xbc2fc4ce	-0.010728074
181	0x3b767f96	0.0037612668
182	0x3b48867b	0.0030597735
183	0x3be9e763	0.007138179
184	0xbd075699	-0.03304157
185	0x3c377188	0.011196502
186	0x3b955b5b	0.0045580096
187	0xbc7b9d42	-0.015357317
188	0x3c36b4af	0.011151477
189	0xbcc2905b	-0.023750475
190	0xbc88a54c	-0.016680382
191	0xbbce694d	-0.006299174
192	0xbc4bfac4	-0.012449924
193	0xbcafd91e	-0.021465834
194	0x3ce96e4c	0.028494976
195	0xbb7ebaf9	-0.0038868769
196	0x3d0ed447	0.034870412
197	0xbd00f761	-0.03148592
198	0x3c8bda7d	0.017071957
199	0xbc24cd76	-0.010058751
200	0xbcec2896	-0.028827947
201	0xbccc25a1	-0.024920287
202	0x3d200536	0.03906747
203	0xbc8ccaac	-0.017186485
204	0x3c52437f	0.012833475
205	0xbaecfbaa	-0.0018080373
206	0x3bd886db	0.006607873
207	0xbcddec08	-0.027090088
208	0xbca78fc5	-0.020454297
209	0xbcac533f	-0.021035789
210	0x3cff0008	0.031127945
211	0xbc889042	-0.01667035
212	0x3c8fed12	0.017569099
213	0xbca0e8fd	-0.019642347
214	0xbc93c118	-0.01803641
215	0xbcc27b71	-0.023740502
216	0xbcad3f3d	-0.021148318
217	0xbbbec4a9	-0.0058217836
218	0x3b1d83b9	0.0024034812
219	0xbc910f5a	-0.017707516
220	0x3cef4602	0.029208187
221	0x3ba3410e	0.0049821204
222	0xbbf00cd7	-0.0073257494
223	0xbca4165d	-0.020030195
224	0x3ba96f1e	0.005170717
225	0xbcf40dbc	-0.029791705
226	0x3c8300b2	0.015991542
227	0x389f1478	7.5855234e-05
228	0xbd24736e	-0.040149145
229	0xbcb078d1	-0.021541985
230	0x3d00f409	0.03148273
231	0x3c3e4aac	0.011614483
232	0x3cfd6c23	0.030935353
233	0x3d00e7af	0.03147095
234	0x3982533c	0.00024857547
235	0xbc6da064	-0.014503572
236	0xbcafe8c7	-0.021473302
237	0xbc1384b1	-0.009003804
238	0x3bc481d1	0.0059969206
239	0xbcbcf9b3	-0.023068285
240	0x3c36b675	0.0111519
241	0x3c7e04f7	0.015504113
242	0x3c217246	0.009853905
243	0xbb10af3c	-0.0022077104
244	0x3c4f6d56	0.012660345
245	0xbcf261dc	-0.029587679
246	0x3bff3926	0.007788795
247	0xbcd639e6	-0.026150655
248	0xbbac9b04	-0.0052675027
249	0xbc05494b	-0.00813515
250	0x3c8a4ec5	0.016883263
251	0xba222194	-0.0006184813
252	0x3c182a4b	0.009287427
253	0xbcdff4cd	-0.02733841
254	0xbc7a45e7	-0.015275455
255	0xbd02b942	-0.031914957

action_model._discrete_distribution.branches.0.bias f4 [3]
0	0x3c097e66	0.008391952
1	0xbc23b983	-0.00999296
2	0x38736957	5.803382e-05

exp_avg f4 [128, 75]
0	0x3814775b	3.5397108e-05
1	0x390db011	0.00013512398
2	0x00000000	0.0
3	0x3833319b	4.2723124e-05
4	0x383870b2	4.3973974e-05
5	0x3904b1bd	0.00012654714
6	0x00000000	0.0
7	0x384dba2f	4.9049206e-05
8	0x383254df	4.251755e-05
9	0x390638b1	0.00012800355
10	0x00000000	0.0
11	0x38915eb3	6.931778e-05
12	0xb6ceed76	-6.1669225e-06
13	0x386de7ea	5.672119e-05
14	0x38fb96bb	0.000119966884
15	0x38b1f450	8.4855244e-05
16	0x385b9a26	5.235723e-05
17	0x00000000	0.0
18	0x38f7ceca	0.00011816395
19	0x391268ba	0.00013962659
20	0x378f3036	1.7069378e-05
21	0x38bdb1fc	9.0453745e-05
22	0x38841dd4	6.2998064e-05
23	0x38b458d8	8.599617e-05
24	0x38a52bd2	7.875975e-05
25	0x38c07007	9.17614e-05
26	0x00000000	0.0
27	0x38197679	3.658838e-05
28	0x38ad1e38	8.2549115e-05
29	0x38b87da3	8.7972054e-05
30	0x00000000	0.0
31	0x38290d6b	4.0305236e-05
32	0x3930374a	0.00016805265
33	0x3625a812	2.4684746e-06
34	0x00000000	0.0
35	0x37b8baf4	2.2021566e-05
36	0x373c2b22	1.1215716e-05
37	0x38e85d12	0.00011079958
38	0x384b72c4	4.8505855e-05
39	0x38d1c389	0.00010002318
40	0x378b8d83	1.6635988e-05
41	0x39086058	0.00013005862
42	0x37c7df2d	2.3826573e-05
43	0x38c80095	9.5368516e-05
44	0x389fc9b9	7.6192846e-05
45	0x38cf9a99	9.899325e-05
46	0xb69c87a6	-4.664954e-06
47	0x38e56869	0.00010939019
48	0x37639003	1.3563785e-05
49	0x39012e04	0.00012319541
50	0x380d9ba0	3.3761957e-05
51	0x391e4bea	0.00015096334
52	0x37f0436e	2.8641629e-05
53	0x00000000	0.0
54	0x3914c580	0.00014187954
55	0x39328ade	0.00017027135
56	0x37639003	1.3563785e-05
57	0x38805b86	6.120563e-05
58	0x38c8ce51	9.5751726e-05
59	0x391f92d8	0.00015218125
60	0x391df55f	0.00015064095
61	0x38c9fc86	9.631463e-05
62	0xb8a04b6a	-7.6434415e-05
63	0x38b634e9	8.6882916e-05
64	0x37d0c560	2.4887442e-05
65	0x3901ddbd	0.00012385003
66	0x37b6bc20	2.1783693e-05
67	0x38a44597	7.8330915e-05
68	0xb8cd8254	-9.799437e-05
69	0x38a99dfe	8.087976e-05
70	0x3944c01a	0.0001876358
71	0x38bcd218	9.0036716e-05
72	0x3901ddbd	0.00012385003
73	0xb8aee04d	-8.338746e-05
74	0x39086058	0.00013005862
75	0xb775678e	-1.4627249e-05
76	0xb62c61ee	-2.5687e-06
77	0x00000000	0.0
78	0xb70db48a	-8.44629e-06
79	0xb67d7c66	-3.7772347e-06
80	0xb76120fb	-1.3418724e-05
81	0x00000000	0.0
82	0xb74c8f24	-1.2192675e-05
83	0x37d461c1	2.531789e-05
84	0xb83250e6	-4.251385e-05
85	0x00000000	0.0
86	0xb797d0f5	-1.8097906e-05
87	0x38095ac0	3.2747863e-05
88	0xb79b9f70	-1.8551684e-05
89	0xb803ab0a	-3.1392126e-05
90	0xb7c5aacf	-2.3563769e-05
91	0x37a044f3	1.9105593e-05
92	0x00000000	0.0
93	0xb818427a	-3.6301535e-05
94	0xb80a7df3	-3.3019063e-05
95	0x3832aef3	4.260144e-05
96	0xb7fe797e	-3.0335734e-05
97	0xb7f7246f	-2.946166e-05
98	0xb7a663cb	-1.9835212e-05
99	0x37c7f31b	2.3835853e-05
100	0xb82c1991	-4.1031806e-05
101	0x00000000	0.0
102	0xb78a9208	-1.6518883e-05
103	0x37aaa38e	2.034174e-05
104	0xb81d71c9	-3.7537688e-05
105	0x00000000	0.0
106	0xb6b5e2cf	-5.4206243e-06
107	0x37e15765	2.6862786e-05
108	0xb838cbb5	-4.4058736e-05
109	0x00000000	0.0
110	0xb6b816b5	-5.4862708e-06
111	0xb6cc3571	-6.085895e-06
112	0x37eaecd1	2.800525e-05
113	0xb8240fbb	-3.9115297e-05
114	0xb7522c40	-1.2527278e-05
115	0xb74d2de6	-1.2229639e-05
116	0xb723cda9	-9.763441e-06
117	0x36a0f70b	4.797131e-06
118	0xb6d7a46f	-6.426642e-06
119	0xb758ebeb	-1.2929532e-05
120	0x37affa87	2.0978287e-05
121	0xb7d3c493	-2.5244697e-05
122	0xb78c72c6	-1.6742746e-05
123	0xb7880589	-1.621504e-05
124	0x374c4764	1.21759695e-05
125	0xb75cbc5a	-1.3156876e-05
126	0xb7101c6a	-8.5896845e-06
127	0xb80481d4	-3.1592164e-05
128	0x00000000	0.0
129	0x3771873b	1.4396205e-05
130	0xb6be5433	-5.6722433e-06
131	0xb7880589	-1.621504e-05
132	0xb6a08e30	-4.7849244e-06
133	0x367f4866	3.8040102e-06
134	0xb70a84d2	-8.256366e-06
135	0xb707040d	-8.04757e-06
136	0xb792cb5e	-1.7499257e-05
137	0x370c1aa8	8.350857e-06
138	0xb5a57c83	-1.2329696e-06
139	0xb679d872	-3.722988e-06
140	0xb811a8be	-3.4727847e-05
141	0x37b24c83	2.1254882e-05
142	0x3675531b	3.6556219e-06
143	0xb73a8a95	-1.111873e-05
144	0xb765574f	-1.3669792e-05
145	0x36fec39b	7.5925614e-06
146	0x35cb0722	1.5126755e-06
147	0xb811a8be	-3.4727847e-05
148	0x37e4f84e	2.7295344e-05
149	0xb723cda9	-9.763441e-06
150	0xb8599450	-5.187496e-05
151	0xb8d53e6a	-0.00010168257
152	0x00000000	0.0
153	0xb8110433	-3.4574605e-05
154	0xb8b0a67a	-8.423343e-05
155	0xb8916215	-6.932408e-05
156	0x00000000	0.0
157	0xb813c459	-3.5230394e-05
158	0xb66281da	-3.3752208e-06
159	0xb91d7a3f	-0.00015018227
160	0x00000000	0.0
161	0xb8861777	-6.3939886e-05
162	0x377aa2ca	1.49390635e-05
163	0xb795b51c	-1.784652e-05
164	0xb91df7d1	-0.00015065006
165	0xb88831ed	-6.494285e-05
166	0xb82139ac	-3.8439102e-05
167	0x00000000	0.0
168	0xb8f16bba	-0.00011511841
169	0xb91f1c8a	-0.00015174053
170	0xb8305bf8	-4.2047322e-05
171	0xb86e7426	-5.6851793e-05
172	0xb86540e0	-5.4658274e-05
173	0xb887356b	-6.4472515e-05
174	0xb8c8d55b	-9.576484e-05
175	0xb8726654	-5.7792597e-05
176	0x00000000	0.0
177	0xb7e4782c	-2.7235677e-05
178	0xb8d00a83	-9.920171e-05
179	0xb863fc1c	-5.4355813e-05
180	0x00000000	0.0
181	0xb7f36d70	-2.9018818e-05
182	0xb939da1f	-0.00017724231
183	0x37c6aeb6	2.3684795e-05
184	0x00000000	0.0
185	0xb736c29e	-1.0893358e-05
186	0xb7c01f12	-2.2902652e-05
187	0xb88ae64d	-6.62325e-05
188	0xb8871a77	-6.442231e-05
189	0xb8af2b1d	-8.352681e-05
190	0xb8a409ef	-7.82198e-05
191	0xb90f3e7d	-0.00013660821
192	0x38807e5d	6.1270526e-05
193	0xb87d638d	-6.0412614e-05
194	0xb8d05d38	-9.935576e-05
195	0xb906a9f5	-0.0001284255
196	0x389ba89c	7.422382e-05
197	0xb8d64bee	-0.00010218458
198	0x3727c846	1.00006055e-05
199	0xb90195c9	-0.00012358198
200	0xb827abed	-3.997602e-05
201	0xb92611ef	-0.00015837674
202	0xb8ae928f	-8.324265e-05
203	0x00000000	0.0
204	0xb89375f9	-7.03148e-05
205	0xb934765e	-0.00017210233
206	0x3727c846	1.00006055e-05
207	0xb8c0d9ca	-9.19584e-05
208	0xb89627c5	-7.159965e-05
209	0xb926b8b2	-0.00015899798
210	0xb9009890	-0.00012263865
211	0xb8f93c0a	-0.000118844284
212	0x38b864a4	8.7925495e-05
213	0xb8b833a6	-8.783424e-05
214	0xb86977b8	-5.5663026e-05
215	0xb904f57f	-0.00012679955
216	0x37f27935	2.890509e-05
217	0xb83b3e2e	-4.4642184e-05
218	0x38c60a45	9.4432886e-05
219	0xb8a82ada	-8.018846e-05
220	0xb92ff3f5	-0.00016780182
221	0xb86e9655	-5.688363e-05
222	0xb904f57f	-0.00012679955
223	0x38e65f76	0.000109850356
224	0xb90f3e7d	-0.00013660821
225	0x38578395	5.138254e-05
226	0x3800567c	3.0598123e-05
227	0x00000000	0.0
228	0x380054bd	3.0596497e-05
229	0x37f57107	2.9258908e-05
230	0x385d2190	5.2721763e-05
231	0x00000000	0.0
232	0x3830af7a	4.2125095e-05
233	0xb7872eb8	-1.611501e-05
234	0x38cdb8b5	9.809566e-05
235	0x00000000	0.0
236	0x388509b6	6.343743e-05
237	0xb83846bd	-4.39349e-05
238	0x35e61d83	1.7144924e-06
239	0x39023bf6	0.00012420103
240	0x38b12f5c	8.448839e-05
241	0x3702119b	7.752703e-06
242	0x00000000	0.0
243	0x389baad3	7.4227944e-05
244	0x38b97eeb	8.845128e-05
245	0xb8a9f1c8	-8.103583e-05
246	0x38982876	7.255461e-05
247	0x38bdb659	9.046187e-05
248	0x388476a1	6.316347e-05
249	0xb8039edd	-3.1380787e-05
250	0x38edbc76	0.00011336144
251	0x00000000	0.0
252	0x3812d76f	3.500975e-05
253	0xb7588798	-1.2906174e-05
254	0x38c6fdfb	9.488683e-05
255	0x00000000	0.0

exp_avg_sq f4 [128, 75]
0	0x313043b4	2.5649856e-09
1	0x34026fc9	1.214786e-07
2	0x00000000	0.0
3	0x3219e8ea	8.958731e-09
4	0x31a59884	4.819471e-09
5	0x34001550	1.1928682e-07
6	0x00000000	0.0
7	0x323e1346	1.1063838e-08
8	0x3221c7bc	9.416848e-09
9	0x33f1bc9f	1.1256747e-07
10	0x00000000	0.0
11	0x329c6404	1.8206272e-08
12	0x325a3d16	1.2703159e-08
13	0x33b379e0	8.357506e-08
14	0x32858e5a	1.5547972e-08
15	0x33001e08	2.9829636e-08
16	0x32bb3db5	2.1797726e-08
17	0x00000000	0.0
18	0x33c156ca	9.00305e-08
19	0x33db1792	1.02022696e-07
20	0x32a3272c	1.899351e-08
21	0x3314a951	3.4612928e-08
22	0x3378db34	5.7941364e-08
23	0x339a23e0	7.1777094e-08
24	0x3257fdac	1.2572325e-08
25	0x33e95069	1.08645345e-07
26	0x00000000	0.0
27	0x33476782	4.6427438e-08
28	0x3202bcc9	7.609921e-09
29	0x33e95424	1.0865213e-07
30	0x00000000	0.0
31	0x32e57841	2.6713794e-08
32	0x321d27b3	9.147629e-09
33	0x33e96453	1.0868157e-07
34	0x00000000	0.0
35	0x32b6f3c0	2.1298433e-08
36	0x32977412	1.7631496e-08
37	0x33bbdf41	8.748476e-08
38	0x3237388b	1.0664858e-08
39	0x32fba76a	2.9296377e-08
40	0x32849d29	1.543829e-08
41	0x33ac1b0a	8.0142925e-08
42	0x329ffae1	1.8624123e-08
43	0x331e867a	3.6909547e-08
44	0x32abe13f	2.000945e-08
45	0x33960d62	6.9873536e-08
46	0x32a9d7ce	1.9772326e-08
47	0x3354ae8c	4.9518846e-08
48	0x32e0fda5	2.6192376e-08
49	0x33826aeb	6.073045e-08
50	0x32e100a5	2.619374e-08
51	0x33c34ddc	9.0945576e-08
52	0x33130f5c	3.4240074e-08
53	0x00000000	0.0
54	0x3397e499	7.073067e-08
55	0x33c12a2a	8.9949324e-08
56	0x32e0fda5	2.6192376e-08
57	0x32a1fc92	1.8857722e-08
58	0x3390a9b3	6.736391e-08
59	0x33c6cce3	9.257362e-08
60	0x32d00d79	2.4220514e-08
61	0x32ca30fe	2.3538174e-08
62	0x33839f82	6.129177e-08
63	0x33b2be7b	8.323419e-08
64	0x32bce6f2	2.1991102e-08
65	0x32f5974a	2.8590552e-08
66	0x337e1e58	5.916658e-08
67	0x33a71c69	7.781711e-08
68	0x32f635d0	2.866264e-08
69	0x331e2578	3.682132e-08
70	0x3345030b	4.5870404e-08
71	0x33990c73	7.126882e-08
72	0x32f5974a	2.8590552e-08
73	0x323028d0	1.0253828e-08
74	0x33ac1b0a	8.0142925e-08
75	0x2f11becc	1.3255458e-10
76	0x31befd06	5.558493e-09
77	0x00000000	0.0
78	0x2fe5dec6	4.1813147e-10
79	0x2f8f3c51	2.6054406e-10
80	0x31baacab	5.4329425e-09
81	0x00000000	0.0
82	0x300905e2	4.984867e-10
83	0x300f5942	5.214994e-10
84	0x31b89d81	5.373011e-09
85	0x00000000	0.0
86	0x306b50cd	8.5607327e-10
87	0x301ff297	5.8188604e-10
88	0x3184296c	3.8464147e-09
89	0x306caa8e	8.609867e-10
90	0x30eff74a	1.7459822e-09
91	0x30f79630	1.8014301e-09
92	0x00000000	0.0
93	0x317a9f64	3.6470391e-09
94	0x31936642	4.2898884e-09
95	0x30c18036	1.4079038e-09
96	0x30f3049a	1.7681885e-09
97	0x311e0d15	2.2999462e-09
98	0x31554920	3.1037146e-09
99	0x30857c88	9.712418e-10
100	0x31a163d2	4.697065e-09
101	0x00000000	0.0
102	0x31023b83	1.8951318e-09
103	0x30630223	8.2585155e-10
104	0x31a8e93e	4.91596e-09
105	0x00000000	0.0
106	0x30939bc4	1.0739929e-09
107	0x3069f249	8.5109214e-10
108	0x31a086aa	4.6719224e-09
109	0x00000000	0.0
110	0x3064649a	8.308888e-10
111	0x2f27dcdf	1.5267031e-10
112	0x318e3d4f	4.139714e-09
113	0x308f2671	1.0415545e-09
114	0x311612fc	2.1838664e-09
115	0x2f30ce7a	1.6080462e-10
116	0x316bcf25	3.4314749e-09
117	0x3117d84f	2.209635e-09
118	0x313d38eb	2.7535474e-09
119	0x30bea4e0	1.387118e-09
120	0x311a13c0	2.2421176e-09
121	0x30c5c9a3	1.4390945e-09
122	0x3129f96e	2.473452e-09
123	0x31175494	2.202147e-09
124	0x30d971f1	1.5821212e-09
125	0x30996677	1.1161337e-09
126	0x3172178e	3.5229024e-09
127	0x313325dc	2.6069449e-09
128	0x00000000	0.0
129	0x3136c7b8	2.6598013e-09
130	0x31704c7a	3.4968068e-09
131	0x31175494	2.202147e-09
132	0x300f656c	5.2167226e-10
133	0x310f0b69	2.0815725e-09
134	0x3175037d	3.5654175e-09
135	0x311c21da	2.272023e-09
136	0x304c5aaf	7.4343637e-10
137	0x30f2db79	1.7670195e-09
138	0x31617027	3.280556e-09
139	0x30cf2421	1.5071501e-09
140	0x309bc731	1.1334348e-09
141	0x3132efb5	2.6038667e-09
142	0x317a7cfa	3.645083e-09
143	0x30b2f224	1.3020025e-09
144	0x31089ee8	1.9880932e-09
145	0x3129710f	2.4657003e-09
146	0x31635a24	3.3084087e-09
147	0x309bc731	1.1334348e-09
148	0x30a1224c	1.172404e-09
149	0x316bcf25	3.4314749e-09
150	0x325d1c72	1.2870361e-08
151	0x34b4e527	3.3694343e-07
152	0x00000000	0.0
153	0x332bdf4f	4.0017138e-08
154	0x327aa6b5	1.458982e-08
155	0x34b44b01	3.3582185e-07
156	0x00000000	0.0
157	0x33593f19	5.0581637e-08
158	0x32a9123b	1.968248e-08
159	0x34ab0805	3.1857067e-07
160	0x00000000	0.0
161	0x33bd613d	8.818686e-08
162	0x329d98c8	1.8346682e-08
163	0x3447f9c9	1.862419e-07
164	0x33d129a2	9.739894e-08
165	0x3430f26f	1.6479474e-07
166	0x332b9aaa	3.9954706e-08
167	0x00000000	0.0
168	0x348f8cd7	2.67383e-07
169	0x34a22c57	3.0207113e-07
170	0x32db0323	2.5496382e-08
171	0x344a6490	1.88493e-07
172	0x33e5fa56	1.0709179e-07
173	0x342e272e	1.6219266e-07
174	0x32ad1314	2.0148526e-08
175	0x34aecbef	3.2558407e-07
176	0x00000000	0.0
177	0x33c0edcd	8.9839524e-08
178	0x3285509c	1.5519895e-08
179	0x34aaf770	3.1845002e-07
180	0x00000000	0.0
181	0x3357f32a	5.0279745e-08
182	0x328c561d	1.6337305e-08
183	0x34ada80a	3.2346026e-07
184	0x00000000	0.0
185	0x332d5a28	4.0361698e-08
186	0x330ac4ad	3.2309504e-08
187	0x34491c60	1.8729907e-07
188	0x33a661d8	7.747775e-08
189	0x342a4895	1.5858889e-07
190	0x32f0cc93	2.8032707e-08
191	0x340ec7bf	1.3297448e-07
192	0x3417ddae	1.4143617e-07
193	0x344a25c6	1.8826458e-07
194	0x332b6c39	3.9912468e-08
195	0x34002068	1.1932718e-07
196	0x3412ffd4	1.369038e-07
197	0x345f2380	2.0781408e-07
198	0x3358c34d	5.0469044e-08
199	0x33dfcc28	1.04213825e-07
200	0x3422ca93	1.5161122e-07
201	0x349311c9	2.7393824e-07
202	0x339e6d0d	7.3772846e-08
203	0x00000000	0.0
204	0x346f54d7	2.2289474e-07
205	0x3491541e	2.7069558e-07
206	0x3358c34d	5.0469044e-08
207	0x33d3764f	9.8469734e-08
208	0x341f1fa5	1.4819541e-07
209	0x349320e0	2.7404803e-07
210	0x3327a924	3.903655e-08
211	0x33f06b40	1.11953796e-07
212	0x341fd50b	1.4885534e-07
213	0x34632265	2.1153535e-07
214	0x330e273a	3.3097628e-08
215	0x34012cd4	1.203037e-07
216	0x341c0c5e	1.4533131e-07
217	0x344f26c7	1.9292484e-07
218	0x3334c8d0	4.2092154e-08
219	0x344de708	1.9176161e-07
220	0x33b33a46	8.345937e-08
221	0x342f06ba	1.6300592e-07
222	0x34012cd4	1.203037e-07
223	0x336f117f	5.5662436e-08
224	0x340ec7bf	1.3297448e-07
225	0x31b765d7	5.337579e-09
226	0x32fca69c	2.9412426e-08
227	0x00000000	0.0
228	0x31ac2451	5.0099875e-09
229	0x320b09c9	8.09309e-09
230	0x32e5b43e	2.6741073e-08
231	0x00000000	0.0
232	0x31cdacc1	5.985925e-09
233	0x3231aee3	1.0342521e-08
234	0x32d59364	2.4863489e-08
235	0x00000000	0.0
236	0x322e3af7	1.014154e-08
237	0x3204334b	7.695074e-09
238	0x325a30c7	1.2700361e-08
239	0x32555e6b	1.24197e-08
240	0x32a81412	1.9566901e-08
241	0x31835fd0	3.8234944e-09
242	0x00000000	0.0
243	0x33164118	3.49838e-08
244	0x3322bb02	3.7888647e-08
245	0x318f2b5c	4.166777e-09
246	0x32da27c7	2.5396629e-08
247	0x31f0f2e4	7.0125328e-09
248	0x3240b027	1.1215923e-08
249	0x3188bf34	3.979858e-09
250	0x330b6f39	3.2464616e-08
251	0x00000000	0.0
252	0x31b61f9a	5.30049e-09
253	0x314ff62c	3.0262397e-09
254	0x3311db48	3.395988e-08
255	0x00000000	0.0

exp_avg f4 [128]
0	0x3932cded	0.00017052116
1	0xb7904009	-1.7195956e-05
2	0xb9210446	-0.00015355748
3	0x38abed06	8.1980645e-05
4	0x3880a2cb	6.133838e-05
5	0xb893550a	-7.025346e-05
6	0x38371499	4.3649783e-05
7	0xb8fe6118	-0.00012129749
8	0x38cfceb1	9.9090284e-05
9	0xb8aa23b1	-8.11288e-05
10	0x38ede91f	0.00011344463
11	0xb987dd79	-0.00025914217
12	0xba01014e	-0.0004921154
13	0xb80d26e9	-3.3653258e-05
14	0x394c9160	0.00019509112
15	0x37ec1bb7	2.8146298e-05
16	0x38e78c1c	0.00011041036
17	0xb94187ed	-0.0001845655
18	0x39ac4ed9	0.00032865143
19	0xb7ea85a8	-2.7957212e-05
20	0x38b792cb	8.753462e-05
21	0xb9ce1af1	-0.00039311455
22	0xb9be4065	-0.00036287602
23	0x3746418c	1.1816981e-05
24	0xb970266a	-0.00022902494
25	0xb7eb7c5f	-2.8072098e-05
26	0x380c0b7a	3.338929e-05
27	0x39a156a8	0.00030772877
28	0xb8102e2b	-3.4375273e-05
29	0x385a96ab	5.211557e-05
30	0xb9946766	-0.00028305798
31	0xb9f53e08	-0.00046776258
32	0x3865f428	5.4825243e-05
33	0x392890e9	0.00016075712
34	0xb79871db	-1.817283e-05
35	0xb91a1bdb	-0.00014696961
36	0x39585ce9	0.00020633977
37	0x39890ad1	0.00026138735
38	0x3920ce30	0.000153356
39	0x3991478f	0.0002770987
40	0x39c276cb	0.0003709107
41	0x39b3b922	0.00034279475
42	0xb8be4c16	-9.074078e-05
43	0xb92465d7	-0.00015678197
44	0x399dd5b7	0.00030104604
45	0xb941d8e9	-0.0001848672
46	0xb904a5a2	-0.00012650204
47	0xb8ca2e08	-9.6406846e-05
48	0x39b190d4	0.00033867976
49	0x392c8a82	0.00016454796
50	0x3964e66d	0.00021829615
51	0xb987d847	-0.00025910346
52	0x39aab2f5	0.0003255826
53	0xb93470ac	-0.00017208111
54	0xb8b44221	-8.595386e-05
55	0x379f8ce1	1.9019879e-05
56	0xb9ae92d6	-0.00033297268
57	0x399f670e	0.00030403625
58	0xb95611cf	-0.00020415265
59	0xb6f3bd94	-7.264034e-06
60	0xb88dbdbd	-6.7587454e-05
61	0x36c68fd9	5.917606e-06
62	0xb9af3a0c	-0.0003342185
63	0x39ffef2e	0.00048815593
64	0x38eda9ce	0.00011332669
65	0xb82f6491	-4.181691e-05
66	0x392efd8c	0.00016688387
67	0x3999a40f	0.00029304667
68	0xb8be8d1e	-9.086191e-05
69	0xb8dcf6ac	-0.00010536364
70	0x39149856	0.0001417113
71	0xb84e6845	-4.9211336e-05
72	0xb8c6580b	-9.457775e-05
73	0x3a17421e	0.0005770045
74	0xb9446204	-0.0001872853
75	0xb89452fa	-7.0726455e-05
76	0xb9a02587	-0.00030545538
77	0xb9186155	-0.00014532109
78	0xb8a396e3	-7.8005505e-05
79	0x37edc440	2.8343988e-05
80	0xb9076108	-0.0001291075
81	0x38bfc507	9.144289e-05
82	0xb99ad351	-0.00029530612
83	0xb97f8a3a	-0.00024370188
84	0x38735ef3	5.8024143e-05
85	0xb8db1e61	-0.00010448392
86	0xb99d436f	-0.00029995615
87	0xb9be1239	-0.000362532
88	0x38793db5	5.9423695e-05
89	0x396ca2db	0.00022567382
90	0xb9cea1e7	-0.00039412008
91	0xb9dbf470	-0.00041953055
92	0x3936ea6c	0.00017444202
93	0x389bc328	7.427327e-05
94	0x39f7ee7b	0.00047289193
95	0x3987425c	0.00025798648
96	0x3912028f	0.00013924598
97	0xb88e9ff1	-6.800879e-05
98	0xb8fc7594	-0.00012038197
99	0xb83aab97	-4.450566e-05
100	0xb8cfce62	-9.908971e-05
101	0x397f7264	0.00024361309
102	0x388737a5	6.447666e-05
103	0xb898a823	-7.279243e-05
104	0x38f47ed7	0.000116584524
105	0x3684945e	3.9511788e-06
106	0xb7fcbe35	-3.0129313e-05
107	0x38ae6460	8.315663e-05
108	0x3892c1b6	6.997904e-05
109	0xb94e0ca2	-0.00019650397
110	0xb9404963	-0.00018337886
111	0x39ab30ac	0.00032651925
112	0xb8e72785	-0.000110222994
113	0x39863014	0.00025594293
114	0xb97961c0	-0.00023782905
115	0xb835d894	-4.3355467e-05
116	0xb9cf423b	-0.00039531462
117	0x39b35614	0.00034205674
118	0x38d6e52a	0.00010247
119	0xb8fe96d0	-0.00012139755
120	0x38eea6b5	0.00011379776
121	0xb9a52a2a	-0.00031502667
122	0x39a6c927	0.00031811857
123	0xb94a3c30	-0.00019286643
124	0xb8a8da26	-8.0514976e-05
125	0x39e4d947	0.00043649433
126	0xb9730b47	-0.00023178487
127	0x378b2511	1.6587352e-05

exp_avg_sq f4 [128]
0	0x34020fb0	1.21129e-07
1	0x31cfa4e8	6.0432406e-09
2	0x34b8edce	3.4445696e-07
3	0x33363750	4.2425484e-08
4	0x33a7c8d6	7.813075e-08
5	0x32967146	1.7513809e-08
6	0x348d3cb9	2.6307478e-07
7	0x35455aef	7.3520545e-07
8	0x339d759f	7.3322774e-08
9	0x33846f7f	6.16701e-08
10	0x339c97bd	7.291917e-08
11	0x3581e1a8	9.676924e-07
12	0x35ee1bcd	1.7740473e-06
13	0x31e8e487	6.778069e-09
14	0x33ec73c6	1.10106654e-07
15	0x324b9b10	1.1851412e-08
16	0x33c11d46	8.992588e-08
17	0x33c67b11	9.242479e-08
18	0x3538b141	6.880328e-07
19	0x3087a564	9.86955e-10
20	0x3323f512	3.8174285e-08
21	0x35326c4d	6.6467766e-07
22	0x354c75f8	7.616759e-07
23	0x2f661be1	2.0928283e-10
24	0x35b08704	1.3152317e-06
25	0x319972a4	4.465919e-09
26	0x32772979	1.4386722e-08
27	0x35b7ea0d	1.370268e-06
28	0x3134b18c	2.6294371e-09
29	0x32e1781e	2.624807e-08
30	0x356eb6bd	8.892783e-07
31	0x361df0e9	2.3535051e-06
32	0x33aa3912	7.926623e-08
33	0x3484466e	2.463816e-07
34	0x311c700e	2.2764683e-09
35	0x340c1a7d	1.3048152e-07
36	0x34a7ddc3	3.1267527e-07
37	0x35b52837	1.3497255e-06
38	0x34bad35f	3.4798992e-07
39	0x3599227e	1.1409427e-06
40	0x35c55893	1.4703422e-06
41	0x35f9482f	1.8572954e-06
42	0x33688578	5.41381e-08
43	0x3560487d	8.3551987e-07
44	0x3524d84c	6.1409514e-07
45	0x344824c5	1.8639828e-07
46	0x34258790	1.541614e-07
47	0x3575175f	9.130362e-07
48	0x353e6214	7.092324e-07
49	0x35178c65	5.6456184e-07
50	0x3512cbce	5.4685813e-07
51	0x357204ea	9.0159176e-07
52	0x34dc691a	4.1054665e-07
53	0x34cfe8e1	3.8726196e-07
54	0x32a9600a	1.9717863e-08
55	0x33bf6a43	8.9134595e-08
56	0x35311f0b	6.598281e-07
57	0x349c4bc9	2.9112405e-07
58	0x335940a6	5.0583047e-08
59	0x32029cec	7.602676e-09
60	0x32887cca	1.5889231e-08
61	0x308788f2	9.861465e-10
62	0x3594e7b3	1.1094293e-06
63	0x355de7cf	8.266624e-07
64	0x33a67609	7.751448e-08
65	0x30cb9d67	1.481493e-09
66	0x35a295eb	1.2113572e-06
67	0x356657b3	8.5809296e-07
68	0x33d92ce1	1.01130134e-07
69	0x34c92316	3.7464696e-07
70	0x344cde73	1.9079907e-07
71	0x35403980	7.160925e-07
72	0x3485f35a	2.4950242e-07
73	0x36132c0a	2.193034e-06
74	0x33594955	5.0590945e-08
75	0x35754a1a	9.1377444e-07
76	0x35a9a47a	1.263935e-06
77	0x33a09c6e	7.479035e-08
78	0x3464ddb2	2.1314807e-07
79	0x3243e5ba	1.1402728e-08
80	0x3588063c	1.0134604e-06
81	0x33e3108e	1.05735225e-07
82	0x35736590	9.0672347e-07
83	0x345684b6	1.9978583e-07
84	0x32c7f7bc	2.3279306e-08
85	0x33e10005	1.04773825e-07
86	0x35254595	6.1568545e-07
87	0x350a148c	5.1438906e-07
88	0x3465d861	2.1406005e-07
89	0x340bfe74	1.3037953e-07
90	0x3504f54b	4.953078e-07
91	0x352e4f4a	6.493543e-07
92	0x34440f94	1.825959e-07
93	0x330c2bf4	3.2636265e-08
94	0x355bd152	8.188846e-07
95	0x352fb7a6	6.5459824e-07
96	0x33841fea	6.152534e-08
97	0x3238169e	1.0715352e-08
98	0x35581c22	8.050721e-07
99	0x30c24cfe	1.413724e-09
100	0x32c96231	2.3444132e-08
101	0x35c209a3	1.4456931e-06
102	0x3307b0e1	3.1593007e-08
103	0x326aa535	1.3658156e-08
104	0x34d40e26	3.9498372e-07
105	0x33b4c45b	8.41762e-08
106	0x33bf94f9	8.9212286e-08
107	0x3324f5c6	3.8407755e-08
108	0x347bb3a5	2.3441551e-07
109	0x34a6c9dc	3.1066782e-07
110	0x34d8f477	4.0411007e-07
111	0x35690200	8.6802174e-07
112	0x34a97694	3.156498e-07
113	0x34fa6b25	4.6644087e-07
114	0x34ef0bb2	4.4525729e-07
115	0x328d74dd	1.6467704e-08
116	0x35aa8604	1.2704991e-06
117	0x350cfc44	5.252116e-07
118	0x33bef310	8.891777e-08
119	0x350f25a2	5.3326414e-07
120	0x3530ca6e	6.5859683e-07
121	0x3501e097	4.8383066e-07
122	0x355f662d	8.322266e-07
123	0x3570524c	8.9526725e-07
124	0x332448f6	3.8250583e-08
125	0x35d315ce	1.5727071e-06
126	0x35470a5e	7.4148363e-07
127	0x32ab7a38	1.9962599e-08
