Assets/Models/2023-06-11_new_sensors/My Behavior.onnx (onnx, 138799 bytes, 9 tensors)

action_model._discrete_distribution.branches.0.bias f4 [3]
0	0xbcdb8453	-0.026796496
1	0x3d1d1fe5	0.038360495
2	0xbd424355	-0.047427494

action_model._discrete_distribution.branches.0.weight f4 [3, 128]
0	0x3daa6f7c	0.08322045
1	0xbdbaf71a	-0.09129162
2	0x3dd882c4	0.105718166
3	0xbdbfb278	-0.09360212
4	0xbd9c5770	-0.07633865
5	0x3df08910	0.117448926
6	0x3de4048c	0.1113368
7	0xbdae73ee	-0.085182056
8	0xbdb64b85	-0.08901123
9	0xbe1f95eb	-0.15584533
10	0xbda90fca	-0.08254965
11	0xbe10016d	-0.14063044
12	0xbd8fd56d	-0.070231296
13	0xbdcf393d	-0.10118339
14	0x3de3f8f3	0.11131468
15	0x3dca3f13	0.09875312
16	0x3dc41492	0.09574236
17	0x3e03ee04	0.12883765
18	0x3dcbcc7e	0.09951113
19	0xbd7ab264	-0.061205283
20	0x3d8aa39a	0.06769486
21	0xbd678cce	-0.056530766
22	0xbde2e297	-0.11078375
23	0x3e04374b	0.12911718
24	0xbd8d1d37	-0.06890338
25	0x3da2e95f	0.07954668
26	0xbd7ccf7e	-0.061721317
27	0x3db0203f	0.085999005
28	0x3e1c81c8	0.15283883
29	0x3d9e89c5	0.07741121
30	0xbddec1d5	-0.10876814
31	0x3daad3d0	0.08341181
32	0xbd9ca0d9	-0.07647867
33	0xbd70fc7d	-0.05883454
34	0xbdb5afe4	-0.08871439
35	0x3d1aa1d3	0.037751984
36	0x3d868fef	0.06570422
37	0x3d9f7737	0.0778641
38	0xbdbb3c39	-0.09142346
39	0xbd751469	-0.059833918
40	0x3d3b446b	0.045719545
41	0xbdddb49a	-0.10825463
42	0x3dc226a4	0.09480026
43	0xbd8475ee	-0.06467806
44	0xbe24ebc4	-0.16105562
45	0xbd7df3e7	-0.06200018
46	0xbd744145	-0.05963256
47	0x3d882f91	0.066496976
48	0x3e1884f1	0.14894463
49	0xbdbba385	-0.09162048
50	0x3de45f76	0.1115102
51	0xbd99540b	-0.07486733
52	0xbdd4de58	-0.10393971
53	0x3dbd88cc	0.092546076
54	0xbe0a1cd0	-0.13487554
55	0x3e110b00	0.14164352
56	0xbda92024	-0.082580835
57	0x3dfb4d93	0.122706555
58	0xbd8c53cf	-0.06851923
59	0xbda237f7	-0.07920831
60	0x3db5f177	0.088839464
61	0xbd956820	-0.07295251
62	0xbde0b345	-0.10971693
63	0x3db9ad72	0.09066285
64	0xbdcfb61c	-0.101421565
65	0xbd4702d9	-0.0485867
66	0x3d9ee04d	0.07757626
67	0x3df8d394	0.1214973
68	0x3dbda26b	0.092594944
69	0x3de5b233	0.112156294
70	0xbe0e35d6	-0.13887724
71	0x3dc4caa9	0.09608967
72	0x3e1846af	0.14870714
73	0xbc830f88	-0.015998617
74	0xbd54c5cb	-0.051946443
75	0xbd52b686	-0.0514436
76	0xbdb2028b	-0.08691891
77	0xbd50864d	-0.05090933
78	0xbd86f286	-0.065892264
79	0x3da40ae7	0.08009892
80	0x3e0ead5d	0.1393332
81	0xbd624f86	-0.05525162
82	0xbd8cb395	-0.0687019
83	0x3dc0ff46	0.094236895
84	0x3d7c6c66	0.061626814
85	0xbe1a8967	-0.15091477
86	0x3de4bdb2	0.11168994
87	0x3df70665	0.120617665
88	0xbd794c03	-0.060863506
89	0x3d96fd97	0.07372587
90	0xbd86b6d2	-0.06577839
91	0xbd5e2112	-0.054230757
92	0x3dcb9a54	0.09941545
93	0xbd97ed49	-0.074183054
94	0xbd5c4c2f	-0.05378359
95	0x3d65512f	0.055985626
96	0xbda6e0ee	-0.08148371
97	0xbd88a37d	-0.06671808
98	0xbdb8b62e	-0.09019123
99	0xbd4ad9bf	-0.049524065
100	0x3d53cdae	0.051709823
101	0xbd7769bf	-0.06040358
102	0xbd855bd3	-0.06511655
103	0xbd6516ad	-0.05592983
104	0xbd606187	-0.05478051
105	0x3e089dd2	0.13341454
106	0x3e00c42a	0.1257483
107	0xbd86fa98	-0.06590766
108	0xbdd9c1fc	-0.10632703
109	0xbdc620ac	-0.096742004
110	0x3e0f1e4c	0.13976401
111	0x3e18de9f	0.14928673
112	0x3dfb483f	0.12269639
113	0xbda414a8	-0.08011752
114	0x3db65a54	0.089039475
115	0x3ded2821	0.115799196
116	0xbd805a5c	-0.06267235
117	0xbdaa960b	-0.083294
118	0xbd3b63a2	-0.045749314
119	0xbddd696c	-0.10811123
120	0xbd8c2707	-0.068433814
121	0xbd99b8f0	-0.07505977
122	0x3dcf480f	0.10121166
123	0xbd99243f	-0.074776165
124	0xbd877ba9	-0.06615383
125	0xbd867e27	-0.065670304
126	0xbdb1eb0b	-0.08687409
127	0x3dddc251	0.108280785
128	0xbd9b4b37	-0.075827055
129	0x3dc78cf3	0.09743681
130	0xbd9a6112	-0.07538046
131	0x3db58202	0.08862688
132	0x3db938de	0.0904405
133	0xbd90bf2e	-0.07067715
134	0xbd350e59	-0.044203136
135	0x3d9e4c0b	0.07729348
136	0x3db784e3	0.08960893
137	0x3e3873b2	0.18012884
138	0x3dc0f5b1	0.09421862
139	0x3e127988	0.14304173
140	0x3d7a3156	0.061082207
141	0x3db66f90	0.089079976
142	0xbd9c6f0b	-0.07638367
143	0xbd959ca4	-0.073052675
144	0xbda1e595	-0.079051174
145	0xbdaec24a	-0.085331514
146	0xbd9b921a	-0.07596226
147	0x3da4fa28	0.08055526
148	0xbd9eaeb9	-0.077481695
149	0x3cb1d3de	0.021707471
150	0x3e0755f7	0.13216387
151	0xbd826a9d	-0.06367991
152	0x3d888951	0.06666816
153	0xbd822dbb	-0.06356379
154	0x3d86f14c	0.065889925
155	0xbd8ec136	-0.06970446
156	0xbdab98c1	-0.08378745
157	0xbd8db4f8	-0.06919283
158	0x3dbee050	0.09320128
159	0xbd8113f4	-0.06302634
160	0x3da3e43c	0.080025166
161	0x3d87fde0	0.0664022
162	0x3da380e8	0.07983571
163	0xbd8de66d	-0.06928716
164	0xbd8f0a27	-0.06984358
165	0xbd9b869b	-0.07594033
166	0x3da1aa54	0.07893816
167	0x3d9d5239	0.07681698
168	0xbd69748a	-0.056995906
169	0x3dc04277	0.09387677
170	0xbd90b0e6	-0.07064991
171	0x3da03b39	0.07823796
172	0x3e1ce9aa	0.15323511
173	0x3db1768e	0.08665191
174	0x3d8460ab	0.064637505
175	0xbd88b811	-0.06675733
176	0xbd95e1a6	-0.0731843
177	0x3dc6a0e6	0.09698658
178	0xbdb4f314	-0.08835426
179	0x3d976cb5	0.07393781
180	0x3daeb815	0.085312046
181	0xbd98fff1	-0.07470692
182	0x3da170db	0.078828536
183	0xbd852e54	-0.06502977
184	0x3dd30098	0.103028476
185	0xbd6bc695	-0.05756243
186	0x3dce5ed8	0.10076684
187	0x3dbcce0f	0.0921899
188	0xbd9d59c8	-0.0768314
189	0x3d99a140	0.07501459
190	0x3dc07d84	0.0939894
191	0xbd942d6e	-0.072352275
192	0x3da1e205	0.07904438
193	0x3da670fc	0.08127019
194	0xbd9bff42	-0.07617046
195	0xbca18dd0	-0.019720942
196	0xbd9bb462	-0.07602765
197	0xbda3f5d2	-0.08005871
198	0x3e0acc0d	0.13554402
199	0xbd927d27	-0.07152777
200	0xbd5b6140	-0.05355954
201	0x3bae9912	0.005328306
202	0x3d8c4d19	0.06850643
203	0x3d6ad45c	0.057331428
204	0x3dbd560e	0.09244929
205	0x3d8de766	0.069289014
206	0x3d84805e	0.064697966
207	0xbd9dfa6d	-0.077137806
208	0xbd980e01	-0.07424546
209	0x3d657379	0.056018326
210	0x3d8b5cc7	0.06804805
211	0xbdae6b3c	-0.08516547
212	0xbd9959ec	-0.07487854
213	0x3e28bf2e	0.1647918
214	0xbd94c0a6	-0.07263307
215	0xbd0aa7f1	-0.033851568
216	0x3d84413e	0.064577565
217	0xbd9fdfea	-0.0780638
218	0x3d859518	0.06522578
219	0x3d8b1ba6	0.06792383
220	0xbd9b3e2f	-0.0758022
221	0x3d97f694	0.07420078
222	0x3dace5da	0.08442278
223	0xbd91fefe	-0.07128714
224	0x3d9a2200	0.07526016
225	0x3d917494	0.07102314
226	0x3d94f035	0.07272378
227	0x3d6899bc	0.056787238
228	0xbd5efd54	-0.05444081
229	0x3d99787d	0.074936844
230	0x3da49bb7	0.08037513
231	0x3dc17cb1	0.09447611
232	0x3d97b6c9	0.074079104
233	0xbd968c3d	-0.07350967
234	0xbd92052d	-0.071298935
235	0x3df5c80a	0.12001045
236	0x3dcfd689	0.10148341
237	0x3dc12d24	0.09432438
238	0xbd9cc38e	-0.076544866
239	0xbdb6adcd	-0.089198686
240	0xbda25b1d	-0.07927535
241	0x3dbd4974	0.09242526
242	0xbd690579	-0.056889985
243	0xbd8b4d26	-0.06801824
244	0x3d8823e8	0.066474736
245	0x3d4975f9	0.049184773
246	0x3d924252	0.07141556
247	0x3de04803	0.10951235
248	0x3d94db1f	0.072683565
249	0x3dc44257	0.09582966
250	0xbdabb33a	-0.08383794
251	0x3d8ed47c	0.06974122
252	0x3d9d7412	0.07688154
253	0x3daf028d	0.085454084
254	0x3db90bd2	0.09035458
255	0xbdb66d93	-0.089076184

action_model._discrete_distribution.branches.1.bias f4 [3]
0	0xbd0f57fe	-0.034996025
1	0x3d7ca84e	0.061683945
2	0xbb9aed3c	-0.0047279876

action_model._discrete_distribution.branches.1.weight f4 [3, 128]
0	0x3d147d25	0.03625216
1	0xbc3a6681	-0.011376978
2	0x3d0113ab	0.031512897
3	0xbcecfaee	-0.028928246
4	0xbbdc8086	-0.0067291884
5	0x3d270ce3	0.040783774
6	0x3bb574fd	0.0055376277
7	0x3d01dbb2	0.03170366
8	0xbc3f11bd	-0.011661944
9	0xbd08271a	-0.033240415
10	0x3cb06732	0.021533582
11	0xbae89697	-0.0017745075
12	0xbc03afca	-0.008037517
13	0xbd1d12e4	-0.038348094
14	0x3cd09de2	0.02546591
15	0x3bf3b6f2	0.0074375803
16	0x3d09748a	0.033558406
17	0x3ce48a96	0.027898114
18	0x3cfdbcd5	0.030973831
19	0x3c8e580d	0.01737597
20	0x3d249fdb	0.040191513
21	0xbcf25eac	-0.029586159
22	0xbc871d05	-0.01649333
23	0x3c985d1b	0.018599084
24	0x3cfb8854	0.030704655
25	0x3d17ea47	0.03708866
26	0x3c57b0d1	0.013164715
27	0x3d265375	0.040606935
28	0x3d4f27fb	0.050575238
29	0x3d265d7e	0.040616505
30	0x3c94978a	0.018138666
31	0x3c2158e1	0.009847851
32	0x3bc313e0	0.005953297
33	0x3d54c6de	0.051947467
34	0xbcd40ef6	-0.02588604
35	0x3d217e44	0.039427057
36	0x3d1ed1d9	0.038774345
37	0x3cafb416	0.021448176
38	0xbcf4771d	-0.029841954
39	0x3ca9f6d2	0.020747576
40	0x3d11a395	0.035556395
41	0xbcd6c99c	-0.026219182
42	0x3c72c789	0.014818081
43	0x3c1cd34f	0.009571864
44	0xbd018038	-0.03161642
45	0xbb0fba2a	-0.002193103
46	0x3cecf1c9	0.028923886
47	0x3cb2ba60	0.021817386
48	0x3cc1d33b	0.023660293
49	0xbb893010	-0.0041866377
50	0x3ca2aa39	0.01985656
51	0x3c5dd1d9	0.013538801
52	0xbc183039	-0.009288841
53	0x3d1ed62a	0.03877846
54	0xbdcc918e	-0.099887
55	0x3da6e283	0.081486724
56	0x3b9c3579	0.0047671166
57	0x3d7f90ca	0.06239394
58	0xbcb57d12	-0.022154365
59	0x3c0a4da3	0.008441362
60	0x3cd814bf	0.02637708
61	0x3d085908	0.03328803
62	0xbc3d086b	-0.0115376515
63	0x3cff8ec7	0.031196011
64	0xbc7e4a34	-0.015520621
65	0x3c40c61a	0.011765981
66	0x3d334cba	0.043774344
67	0xbd1e8bc7	-0.03870752
68	0x3cb24f98	0.021766469
69	0x3c537ddb	0.012908424
70	0xbd2d592d	-0.042321373
71	0x3c3d9a3c	0.011572417
72	0x3d85e0f4	0.06537047
73	0xbd91546f	-0.070961826
74	0x3cbb39dd	0.02285474
75	0x3cef39c9	0.029202359
76	0xbca6efde	-0.02037805
77	0x3caaa78a	0.020831842
78	0x3c7ee1e8	0.01555679
79	0x3d9b308e	0.075776204
80	0x3b85d029	0.0040836525
81	0x3c3098d7	0.010778627
82	0x3be6d1c6	0.00704405
83	0x3d083be9	0.03326026
84	0x3d26c010	0.04071051
85	0xbc962701	-0.018329145
86	0x3d150ee1	0.036391143
87	0xbd00afd2	-0.031417675
88	0x3ca5b439	0.020227538
89	0x3cf44ee1	0.029822769
90	0x3d02d08d	0.03193717
91	0x3ca97489	0.020685451
92	0x3d0d6821	0.034523133
93	0x3ccd9efd	0.025100226
94	0x3cae892e	0.021305647
95	0x3d000fcc	0.031265065
96	0x3bbd7f17	0.0057829726
97	0x3bd49d24	0.006488459
98	0x3c14b94a	0.0090773795
99	0x3d013235	0.03154202
100	0x3cec027a	0.028809775
101	0x3cfe82bc	0.031068198
102	0x3d235e29	0.03988472
103	0x3c8c7938	0.017147645
104	0x3c39a71b	0.011331345
105	0x3d180063	0.037109744
106	0x3d96e568	0.073679745
107	0xbd22b205	-0.039720554
108	0xbcf2d770	-0.029643744
109	0xbafb4a77	-0.0019171973
110	0x3c920519	0.017824696
111	0x3cabe6d4	0.02098409
112	0x3cad6a60	0.021168888
113	0xbb10a899	-0.0022073148
114	0xbca1e77f	-0.019763706
115	0x3d88da03	0.066822074
116	0xbb95fb07	-0.004577044
117	0x3cd5bc88	0.026090875
118	0x3cb0ba4b	0.021573206
119	0xbcca3b42	-0.02468646
120	0x3a2c04e7	0.000656201
121	0x3b8851e0	0.004160151
122	0x3c102cec	0.008799773
123	0x3b0a2689	0.0021080098
124	0x3be8c13e	0.0071031144
125	0x3c6b2cd5	0.0143539505
126	0xbcad8e5e	-0.02118605
127	0x3cd6b2ec	0.026208363
128	0xbda45910	-0.080248
129	0xbce25770	-0.027629584
130	0xbd82dc0a	-0.06389625
131	0x3a483cec	0.00076384726
132	0x3cdb3fbf	0.026763795
133	0xbd7c9a2b	-0.061670464
134	0x3d5430ff	0.05180454
135	0xbcef9a94	-0.029248513
136	0xbce1d2c2	-0.027566317
137	0x3d17e160	0.03708017
138	0xbd976b1c	-0.07393476
139	0xbcc8e6f6	-0.024524193
140	0xbc6902d2	-0.014221864
141	0x3bd8dac6	0.0066178767
142	0xbdd56d12	-0.10421194
143	0xbda9e6a7	-0.082959466
144	0xbdb0b9a0	-0.08629155
145	0xbde20867	-0.11036759
146	0xbdabe404	-0.083931
147	0xbd35fb91	-0.044429366
148	0xbdc1955e	-0.09452318
149	0xbcd3777b	-0.025813809
150	0x3cad7f50	0.021178871
151	0xbc2b7e01	-0.010467053
152	0xbd31c2b0	-0.04339856
153	0xbde64c7a	-0.112450555
154	0xbd6c44d2	-0.05768282
155	0xbde1681f	-0.11006188
156	0xbd1dcd83	-0.03852607
157	0xbdaf8909	-0.08571059
158	0xbc2248f6	-0.009905091
159	0xbdbd8045	-0.09252981
160	0xbd7149b2	-0.058908172
161	0xbd5b5ad5	-0.05355342
162	0xbc856afa	-0.016286362
163	0xbd9b206a	-0.07574542
164	0xbdcd1e97	-0.100156
165	0xbda6a4f5	-0.08136932
166	0x3baf75a0	0.005354598
167	0xbd391bae	-0.045192413
168	0xbd954851	-0.07289184
169	0xbbf6d475	-0.007532651
170	0xbddab10e	-0.10678302
171	0xbd3a0865	-0.045418162
172	0x3bf520b9	0.0074807075
173	0xbc0d6af3	-0.008631456
174	0xbd136718	-0.03598699
175	0xbd6975a0	-0.05699694
176	0xbdadb268	-0.08481294
177	0xbb8addfc	-0.0042378884
178	0xbda3ee2b	-0.08004411
179	0xbd68c480	-0.056828022
180	0xbd3e59bd	-0.0464723
181	0xbdbe9871	-0.0930642
182	0x3cb7277e	0.022357699
183	0xbe1c12bd	-0.15241523
184	0x3c9d3007	0.01918794
185	0xbdcc9c0c	-0.09990701
186	0xbc40963b	-0.011754568
187	0xbc8f4bd0	-0.017492205
188	0xbdc468c3	-0.09590294
189	0xbd8e6091	-0.06952012
190	0xbc568c4c	-0.013094973
191	0xbdcf6f8a	-0.10128696
192	0xbcaff524	-0.021479197
193	0xbd2d8be8	-0.042369753
194	0xbdb7ccc1	-0.089746006
195	0x3e168043	0.14697365
196	0xbdd3cb3a	-0.10341497
197	0xbd9ac99d	-0.07557986
198	0x3ca4056a	0.020022113
199	0xbd80dd6e	-0.06292234
200	0xbc300758	-0.010743938
201	0xbd671a51	-0.05642158
202	0xbcf9fccf	-0.030516056
203	0xbd3924db	-0.045201164
204	0xbd14cce0	-0.036328197
205	0xbcc8fc51	-0.024534376
206	0xbce1a91b	-0.027546456
207	0xbdebfba1	-0.11522604
208	0xbda8001a	-0.08203144
209	0xbd11c9ac	-0.03559272
210	0xbd0f1be7	-0.03493872
211	0xbdd3e5c6	-0.1034656
212	0xbda71707	-0.08158689
213	0x3ce36ead	0.027762735
214	0xbdb86d07	-0.0900517
215	0x3e16d55e	0.1472983
216	0xbd51fa25	-0.051263947
217	0xbdb43214	-0.08798614
218	0xbd2c0a0d	-0.042001773
219	0xbd71457f	-0.058904167
220	0xbdb8b72c	-0.09019312
221	0xbd66b671	-0.056326333
222	0xbd84db3b	-0.064871274
223	0xbda1b471	-0.078957446
224	0xbd3d831a	-0.046267606
225	0xbd3007cf	-0.042976197
226	0x3b78ed84	0.0037983367
227	0xbda77b6f	-0.0817784
228	0xbdc0008c	-0.09375104
229	0xbd3ce89e	-0.04612028
230	0xbd1f4ce4	-0.038891688
231	0xbd8ec44b	-0.06971034
232	0xbcbf0b1b	-0.023320725
233	0xbdf03d32	-0.11730422
234	0xbd6239b1	-0.0552308
235	0x3d085215	0.033281405
236	0x3c508f1a	0.012729431
237	0x3b1c366b	0.0023836147
238	0xbd95785a	-0.07298346
239	0xbd4b546f	-0.04964107
240	0xbdc67370	-0.09689987
241	0xbc9b10f6	-0.018928986
242	0x3c06c4d3	0.0082256375
243	0xbdc805cd	-0.097667314
244	0xbcbf86a8	-0.023379639
245	0xbd4b7770	-0.04967445
246	0xbd9b2d97	-0.07577055
247	0x3c9378bf	0.018001912
248	0x3c996ae9	0.018727737
249	0xbbd3577b	-0.0064496375
250	0xbd966ca7	-0.073449425
251	0xbc96e94d	-0.018421793
252	0xbc8edb45	-0.01743854
253	0xbd41b2df	-0.047289725
254	0xbc275d1e	-0.010215072
255	0xbdcd11fd	-0.100131966

discrete_action_output_shape f4 [1, 2]
0	0x40400000	3.0
1	0x40400000	3.0

network_body._body_endoder.seq_layers.0.bias f4 [128]
0	0x3dc35d7e	0.095393166
1	0xbd6c1a4c	-0.057642266
2	0xbd393410	-0.045215666
3	0x3db62d9a	0.088954166
4	0xbd6bba4b	-0.05755071
5	0xbd2d4a47	-0.042307165
6	0x3d5817f8	0.052757233
7	0x3da96928	0.0827201
8	0x3d717914	0.05895336
9	0x3d86e91a	0.06587429
10	0xbd472ee1	-0.04862869
11	0xbc20e388	-0.009819873
12	0x3d7766b7	0.06040069
13	0xbd3b1a29	-0.045679245
14	0x3d817eba	0.06322999
15	0xbd7c4a80	-0.061594486
16	0xbda15867	-0.078781895
17	0x3d73019c	0.059327707
18	0x3d64e96b	0.055886667
19	0x3d873ae3	0.066030286
20	0x3b8400a3	0.004028396
21	0xbc8217ae	-0.015880432
22	0x3d600677	0.054693665
23	0x3daec22e	0.085331306
24	0xbccc33cc	-0.024927042
25	0xbd29a807	-0.04142001
26	0x3da82be8	0.082114995
27	0x3d9ec735	0.077528395
28	0x3d35c8e9	0.044381056
29	0x3dc2abc0	0.09505415
30	0x3d86710b	0.0656453
31	0x3d91239b	0.07086869
32	0xbd291344	-0.04127814
33	0xbd060a17	-0.032724466
34	0xbd964b39	-0.07338566
35	0x3d95a8a4	0.07307556
36	0x3d6c35d9	0.05766854
37	0x3d7b1b2f	0.06130522
38	0xbd33b448	-0.0438731
39	0x3db71f11	0.08941472
40	0xbd80b4f5	-0.06284515
41	0x3dcde03d	0.10052536
42	0x3d93331c	0.07187483
43	0x3c152935	0.009104063
44	0x3dadfc5a	0.08495398
45	0xbccf8aab	-0.025334677
46	0xbcd9dbce	-0.026594069
47	0xbd64ff3c	-0.055907473
48	0x3d94c4ee	0.07264124
49	0xbd5f473d	-0.054511297
50	0xbd696f0e	-0.056990676
51	0xbcb442a9	-0.022004442
52	0xbcd65dd1	-0.026167782
53	0xbd5101b9	-0.051027033
54	0xbd9598da	-0.07304545
55	0x3d4f749a	0.05064831
56	0x3d945663	0.072430395
57	0x3ce3369d	0.027736003
58	0x3d9e9a35	0.077442564
59	0x3da94e5b	0.08266898
60	0xbd09ea36	-0.033670627
61	0x3d8e6cac	0.06954321
62	0xbc8aa173	-0.016922688
63	0xbd2df1b4	-0.042466834
64	0xbd7bfc20	-0.061519742
65	0xbd61a112	-0.05508525
66	0xbc820f0f	-0.015876321
67	0xbd88c963	-0.066790365
68	0x3d836bfc	0.06417081
69	0x3b9534bd	0.004553406
70	0xbd6c2ebf	-0.057661768
71	0xbce49d03	-0.0279069
72	0x3d97b1a6	0.074069306
73	0x3d7eb96a	0.062188543
74	0xbcbaad1a	-0.02278762
75	0xbd5ed201	-0.054399494
76	0xbd7d9eaa	-0.061918892
77	0x3d0e981a	0.034813024
78	0xbcd9ee65	-0.026602933
79	0xbd39b0da	-0.045334674
80	0x3db3adfd	0.0877342
81	0x3ddda306	0.1082211
82	0x3dbc7828	0.092026055
83	0xbd8a3377	-0.067480974
84	0xbd303e95	-0.043028433
85	0xbd2b3603	-0.041799556
86	0xbd0e929f	-0.034807798
87	0xbd9b51e4	-0.07583979
88	0xbaae5c03	-0.0013302568
89	0xbd1b3dc2	-0.037900694
90	0x3d4f2b72	0.050578542
91	0xbda01667	-0.07816773
92	0xbd220a78	-0.039560765
93	0x3d84a6f5	0.06477157
94	0x3dc84a40	0.09779787
95	0xbd55cde3	-0.052198302
96	0x3d533188	0.05156091
97	0xbd6f2a24	-0.058389798
98	0x3d9ae3d5	0.07562987
99	0x3cad1472	0.021127913
100	0xbd5941e1	-0.053041343
101	0xbcd60c83	-0.026129013
102	0x3d459c40	0.048244715
103	0x3d081aea	0.033228792
104	0x3d8c2729	0.06843407
105	0xbd595b98	-0.053065866
106	0x3d5de47c	0.054172978
107	0xbd7eaa58	-0.06217417
108	0xbd0dc839	-0.034614775
109	0x3d96dd54	0.07366434
110	0xbd56db1f	-0.052455064
111	0x3d4e902d	0.050430465
112	0xbc9c663f	-0.019091723
113	0xbc99b12c	-0.01876124
114	0xbd1cb55a	-0.038258888
115	0xbaf6ffb4	-0.0018844516
116	0xbd0ccc04	-0.034374252
117	0x3da5f127	0.08102637
118	0x3cdcf5ba	0.02697264
119	0x3d380892	0.04493005
120	0xbcab23d7	-0.020891113
121	0x3d6e36f2	0.05815787
122	0x3caf81b8	0.02142416
123	0x3d90a0bc	0.07061908
124	0x3db273f4	0.087135226
125	0x3dbb50ca	0.09146269
126	0xbdac52b6	-0.08414213
127	0x3d4aa709	0.049475703

network_body._body_endoder.seq_layers.0.weight f4 [128, 129]
0	0x3dc54437	0.096321516
1	0xbdc95197	-0.09830015
2	0xbc36904f	-0.011142804
3	0xbc1ea02e	-0.0096817445
4	0xbb908ecf	-0.0044115554
5	0xbd41312e	-0.047166042
6	0xbdb378d8	-0.087632835
7	0x3e902cdc	0.28159225
8	0xbd44b8b5	-0.048027713
9	0xbdfebac4	-0.124379665
10	0x3d451de4	0.04812421
11	0xbda99dcc	-0.082820505
12	0xbdbe8079	-0.09301848
13	0x3ddcc8f9	0.1078052
14	0x3da0f02c	0.07858309
15	0xbde33dc2	-0.11095764
16	0xbc71b0b9	-0.014751607
17	0x3d974d7c	0.07387826
18	0xbd638f71	-0.05555672
19	0xbe4dd779	-0.20101728
20	0x3c1cd008	0.009571083
21	0xbb845bab	-0.004039248
22	0xbdfa3465	-0.12217025
23	0x3c722e5d	0.014781562
24	0xbdac10ec	-0.08401665
25	0xbe508114	-0.2036174
26	0xbd8cc837	-0.068741255
27	0x3d3f3302	0.046679504
28	0xbe17488c	-0.14773768
29	0x3da8cc49	0.08242089
30	0x3ee6cdfd	0.45079032
31	0xbe5f8a85	-0.21830185
32	0xbe5c0791	-0.21487261
33	0x3d6737e4	0.056449786
34	0x3d996b52	0.07491173
35	0xbd17540a	-0.03694538
36	0xbba48718	-0.0050209872
37	0x3dffa5c9	0.12482793
38	0xbe36a1c2	-0.17835143
39	0xbc296b09	-0.010340461
40	0xbcc17a80	-0.023617983
41	0x3dce37a5	0.10069207
42	0xbd5ce671	-0.053930704
43	0x3de1e323	0.11029651
44	0xbdc2fc7d	-0.095208146
45	0xbc73989e	-0.01486793
46	0xbd894747	-0.06703048
47	0xbddc16c9	-0.107465334
48	0xbdc72c58	-0.09725255
49	0xbd844e12	-0.06460203
50	0xbd39a899	-0.045326803
51	0x3e1134f9	0.14180364
52	0xbd489b71	-0.048976365
53	0xbe1d8ac3	-0.15384965
54	0x3c9f7585	0.019465217
55	0x3db5a36a	0.088690594
56	0x3d9d49bd	0.0768008
57	0x3d9f381c	0.07774374
58	0x3e67f40d	0.22651692
59	0x3d63dbe0	0.05562961
60	0x3d4bd8da	0.049767353
61	0xbd9aa33d	-0.075506665
62	0xbca19767	-0.019725515
63	0xbdb3057d	-0.08741281
64	0xbdc0ba67	-0.094105534
65	0xbdaf02b3	-0.08545437
66	0xbd4dd940	-0.050256014
67	0x3cbcf23c	0.023064725
68	0x3e1b558c	0.15169352
69	0xbd932371	-0.07184494
70	0x3e2742e8	0.16334116
71	0x3d50a4c5	0.050938386
72	0x3e47bc8c	0.19505519
73	0x3b540c0f	0.003235582
74	0xbdeb871b	-0.11500379
75	0xbd9ed1a4	-0.077548295
76	0x3d3beff1	0.045883123
77	0x3de8cf4a	0.11367662
78	0x3dacdad6	0.08440177
79	0xbe57db12	-0.21079662
80	0xbd1db619	-0.03850374
81	0xbd6d5b08	-0.057948142
82	0xbe388ed0	-0.18023229
83	0x3c371baa	0.011176029
84	0xbb07d131	-0.0020724053
85	0xbe072fd8	-0.13201845
86	0x3dcff801	0.10154725
87	0x3d11857f	0.035527702
88	0x3dcdcb0b	0.10048493
89	0xbcf8eda7	-0.030386759
90	0x3d67054b	0.056401532
91	0xbe02cb74	-0.12772924
92	0x3d7db3d5	0.06193908
93	0xbcea319c	-0.028588109
94	0xbcc6cf32	-0.02426872
95	0x3d8f7280	0.07004261
96	0x39661351	0.00021941705
97	0xbddcd137	-0.10782092
98	0xbe0c5336	-0.13703617
99	0xbe302366	-0.17201003
100	0x3dc229c9	0.09480626
101	0xbe1eb3b5	-0.1549824
102	0xbe2dddb4	-0.16979104
103	0x3e1a53d4	0.1507104
104	0xbcd17297	-0.025567336
105	0x3d3c5420	0.045978665
106	0x3cd9015a	0.026489902
107	0xbdfaaaba	-0.12239595
108	0xbc074630	-0.00825648
109	0xbd9f7077	-0.07785123
110	0xbd0000e1	-0.03125084
111	0xbcdc4272	-0.026887152
112	0x3dfdb47a	0.12387939
113	0x3c385b2e	0.011252208
114	0x3d27154e	0.040791802
115	0x3ca554e7	0.020182086
116	0xbae240aa	-0.0017261703
117	0xbdaf18d4	-0.085496575
118	0xbdcf988e	-0.10136519
119	0x3c0ca427	0.008584059
120	0xbdcc2aef	-0.099691264
121	0xbbfd1162	-0.0077230195
122	0xbdbe8c15	-0.09304062
123	0xbd6c5be9	-0.05770484
124	0x3dd79a40	0.10527468
125	0x3e016600	0.12636566
126	0x3e85c8fc	0.261299
127	0x3cf409d2	0.029789839
128	0x3e167b32	0.14695433
129	0xbe189c97	-0.14903484
130	0xbe188b80	-0.14896965
131	0xbe1fc194	-0.15601188
132	0x3dfc7029	0.1232608
133	0xbe049b17	-0.12949787
134	0xbe187927	-0.14889966
135	0xbded5995	-0.11589352
136	0x3d7016b3	0.058615398
137	0xbd2b72c6	-0.041857503
138	0x3d13f500	0.036122322
139	0xbcd178eb	-0.025570353
140	0xbdd33551	-0.10312904
141	0xbd99b26f	-0.07504737
142	0xbdf2a446	-0.11847739
143	0x3d797467	0.060902026
144	0xbc78f8dd	-0.015196052
145	0x3c2a3185	0.010387783
146	0xbe199c6f	-0.15001081
147	0xbdb0634b	-0.08612689
148	0x3d30858d	0.043096114
149	0xbd318538	-0.043339938
150	0x3dce6a84	0.1007891
151	0xbe1fbf2d	-0.15600272
152	0x3e1ada6f	0.15122388
153	0x3d6dbfa5	0.058044095
154	0xbb829b2c	-0.003985783
155	0xbdb2715b	-0.08713027
156	0xbe2d2e3c	-0.16912168
157	0x3e073e65	0.13207395
158	0xbcd40a99	-0.02588396
159	0xbdade70c	-0.08491334
160	0x3c813840	0.015773892
161	0xbda11d4f	-0.07866918
162	0xbda9845d	-0.082771994
163	0x3c85ea6c	0.016347133
164	0x3e0125de	0.12612101
165	0xbd4c1a6d	-0.04982989
166	0xbd231d1c	-0.039822683
167	0x3e632af9	0.22184362
168	0x3c93fbec	0.018064462
169	0xbbbaf4ce	-0.0057054525
170	0x3ce6179a	0.028087426
171	0xba92065f	-0.0011140815
172	0xbda033cb	-0.07822379
173	0xbdc5ba8e	-0.09654723
174	0x3d7da771	0.061927263
175	0x3d941cf6	0.07232086
176	0x3bcebba5	0.00630899
177	0x3ccf0db0	0.025275081
178	0xbe2e4955	-0.17020161
179	0xbd6547e8	-0.05597678
180	0xbd61b7db	-0.05510698
181	0x3db9bf2e	0.09069668
182	0xbe3e6d13	-0.18596296
183	0xbd66178d	-0.056174804
184	0xbd13d015	-0.036087114
185	0x3dd00161	0.10156513
186	0x3d8d6d48	0.06905609
187	0xbda0ef46	-0.07858138
188	0xbd4b5ac1	-0.049647097
189	0x3d55bbf6	0.052181207
190	0xbabad5c9	-0.0014254387
191	0xbe27cf1a	-0.16387597
192	0x3e2e4c42	0.17021278
193	0x3d81ffac	0.06347594
194	0xbad219b4	-0.0016029389
195	0x3cd18ccd	0.025579834
196	0x3e2258af	0.15854143
197	0x3dfca58c	0.12336263
198	0xbde8cb53	-0.11366906
199	0x3d90b110	0.07065022
200	0xbd1597b3	-0.036521625
201	0x3dcd492a	0.100237206
202	0x3dd2888e	0.10279952
203	0x3d115b5e	0.035487525
204	0xbd8d4bad	-0.068992
205	0xbe191c14	-0.14952117
206	0x3dc3b5f3	0.095561884
207	0xbe2e02b1	-0.16993214
208	0x3cd0d314	0.025491275
209	0xbd13b43f	-0.036060568
210	0x3c0010d7	0.007816515
211	0xbdc420c9	-0.09576566
212	0xbe5d1172	-0.21588686
213	0xbe3adeda	-0.18249074
214	0xbe0d5afc	-0.13804239
215	0xbda6633d	-0.08124397
216	0xbd20a180	-0.03921652
217	0x3bb99456	0.005663435
218	0xbdd5cb91	-0.10439218
219	0xbcbe5420	-0.023233473
220	0xbcc861d1	-0.024460705
221	0xbe5ca47a	-0.21547118
222	0xbd9af31e	-0.07565902
223	0x3d3ece4d	0.046583463
224	0xbce02156	-0.027359646
225	0xbe289d27	-0.16466199
226	0xbcc84eab	-0.024451574
227	0xbb1817bb	-0.0023207504
228	0xbd74ce22	-0.059766896
229	0xbe1e02fa	-0.15430823
230	0x3e5f51f1	0.21808602
231	0x3ddb5b4a	0.107107714
232	0x3d9de2aa	0.07709248
233	0xbc5b76ae	-0.013394995
234	0x3de47433	0.11154976
235	0xbdd01fc3	-0.10162308
236	0x3d0c906c	0.03431742
237	0x3d296264	0.0413536
238	0x3d301568	0.042989165
239	0xbe7c67d7	-0.24648987
240	0xbdb32a5f	-0.08748316
241	0x3e0c19a2	0.13681653
242	0x3de740ed	0.112916805
243	0xbe29ec6a	-0.16594091
244	0x3c74d68d	0.014943731
245	0xbc6ade3e	-0.014335213
246	0xbbb6cab0	-0.0055783615
247	0xbbafb9a6	-0.005362707
248	0x3e39b1ea	0.18134275
249	0xbd9cdd13	-0.07659354
250	0xbcb76d4c	-0.022390984
251	0x3b896991	0.0041934927
252	0x3d8591e3	0.06521966
253	0xbd8e76e5	-0.06956271
254	0xbe5f101c	-0.21783489
255	0xbdccbb60	-0.099966764

network_body._body_endoder.seq_layers.2.bias f4 [128]
0	0xbd7ba564	-0.061437026
1	0x3d6a59c0	0.0572145
2	0xbd264601	-0.040594105
3	0x3da7e8ed	0.08198724
4	0x3db9b174	0.090670496
5	0xbd1fa68f	-0.038977202
6	0x3a3e2f10	0.00072549377
7	0x3cf2b693	0.029628074
8	0x3d5e8a40	0.054331064
9	0x3dffaec5	0.124845065
10	0x3d087cfb	0.033322316
11	0x3d84e74b	0.06489428
12	0x3d6b5b24	0.057459965
13	0x3da8720f	0.0822488
14	0xbc758f21	-0.014987738
15	0xbcfa0ce4	-0.030523725
16	0xbd276f49	-0.040877614
17	0xbc964fe7	-0.018348647
18	0xbd4e011f	-0.050294038
19	0x3d24bf61	0.040221576
20	0xbd816139	-0.06317372
21	0xbcb6feac	-0.022338234
22	0x3db3d5cc	0.08781013
23	0xbc90d47a	-0.017679442
24	0x3d0afcb0	0.033932388
25	0xbd36cd82	-0.04462958
26	0x3cd53551	0.0260264
27	0xbd5dccf2	-0.05415053
28	0xbcf4d3bf	-0.029886125
29	0xbd419e4a	-0.047270097
30	0x3d72bd4c	0.05926256
31	0xbd36211d	-0.044465173
32	0x3d0f6433	0.035007667
33	0x3ce44235	0.027863601
34	0x3d5ab70f	0.053397235
35	0xbda87f0b	-0.082273565
36	0xbd7a6f35	-0.06114121
37	0xbd376848	-0.044777185
38	0x3da73527	0.08164435
39	0x3d1557a5	0.036460537
40	0xbd726354	-0.059176758
41	0x3d97dc98	0.07415122
42	0xbd1d59e3	-0.0384158
43	0x3d2bcefc	0.041945443
44	0x3dc09956	0.094042465
45	0x3d8a0014	0.06738296
46	0x3d1d7f6c	0.038451597
47	0xbd447ebf	-0.047972437
48	0xbce995c5	-0.028513798
49	0x3d91321c	0.07089636
50	0xbd086a2c	-0.03330438
51	0x3ce3219e	0.02772599
52	0x3d5cd0af	0.053909954
53	0xbd39536f	-0.045245584
54	0x3d354b02	0.044260986
55	0xbc65c46a	-0.01402388
56	0x3d9a4a41	0.07533694
57	0xbc846127	-0.016159607
58	0x3d81a7d6	0.0633084
59	0x3d5275ea	0.051381983
60	0xbd25a0ea	-0.040436663
61	0x3cf5fe8b	0.030028602
62	0x3d93e306	0.07221036
63	0xbd45049a	-0.04810009
64	0x3d0f4a4e	0.03498297
65	0x3d6a7698	0.057242006
66	0xbd5f4a54	-0.054514244
67	0x3d0dc7b3	0.034614276
68	0xbd0ba88d	-0.03409629
69	0xbd2c81a8	-0.042115837
70	0x3dd6c134	0.10486069
71	0xbcf6b682	-0.030116323
72	0xbaeb812b	-0.0017967572
73	0x38bafe3c	8.916526e-05
74	0x3d13ac61	0.036053065
75	0x3d12cdc8	0.03584078
76	0x3d888216	0.06665437
77	0x3d20dd30	0.03927344
78	0x3d155a18	0.036462873
79	0xbd17950b	-0.037007373
80	0xbd272fa4	-0.040816918
81	0x3d3ddfee	0.046356134
82	0x3d271396	0.040790163
83	0xbd6ef3a1	-0.05833781
84	0xbd7850b6	-0.060623847
85	0x3dcd237b	0.10016533
86	0xbd1c3daa	-0.038144745
87	0x3cbbc665	0.02292175
88	0x3d188a7e	0.03724145
89	0xbd48f1c1	-0.04905868
90	0x3cd05610	0.025431663
91	0x3d14a87e	0.0362935
92	0xbd270924	-0.0407802
93	0x3cf61c77	0.03004287
94	0x3cec9357	0.02887885
95	0xbd409fad	-0.04702728
96	0x3d2f4586	0.042790912
97	0x3d1525aa	0.036412872
98	0x3d7548b5	0.059883792
99	0x3cab99d9	0.020947384
100	0xbd39c912	-0.04535777
101	0x3cd7bea8	0.02633603
102	0x3d0bffd0	0.03417951
103	0x3d1b6b1f	0.037943956
104	0x3d3568aa	0.04428927
105	0xbcef1838	-0.029186353
106	0xbce1f1d9	-0.027581142
107	0x3dec041f	0.115242235
108	0x3d9562f6	0.07294266
109	0x3d9218b9	0.07133622
110	0xbcd55a35	-0.02604399
111	0xbd22de98	-0.039763063
112	0xbd0bd5c5	-0.034139413
113	0x3d6abc11	0.05730826
114	0xbcea75bf	-0.028620599
115	0xbd0bc4d0	-0.034123242
116	0x3d6846a1	0.056707982
117	0x3cf17bae	0.02947792
118	0x3ccf9ae9	0.025342422
119	0x3db67f0d	0.08910952
120	0x3d861b17	0.06548136
121	0x3d772f38	0.060347766
122	0xbd2d6f0f	-0.04234224
123	0x3d5cb7a5	0.053886075
124	0x3d3efe06	0.046628974
125	0x3d1e4496	0.038639627
126	0x3d82baad	0.06383262
127	0xbd2f2b6b	-0.042766016

network_body._body_endoder.seq_layers.2.weight f4 [128, 128]
0	0xbe5eb6b2	-0.2174938
1	0x3e0db6cc	0.13839263
2	0xbcb18340	-0.02166903
3	0xbe276db7	-0.16350447
4	0x3e201d6a	0.1563622
5	0xbc2f2810	-0.010690704
6	0xbd089ef1	-0.033354703
7	0xbb3d99c1	-0.0028930756
8	0xbd692fbc	-0.05693029
9	0x3e2a719a	0.16644898
10	0x3dec64ca	0.115426615
11	0xbd1051b9	-0.035234187
12	0xbe56f78f	-0.20992874
13	0x3de53b85	0.11192993
14	0xbe8972d7	-0.26845428
15	0xbc6eeadd	-0.014582363
16	0x3da59bfa	0.08086391
17	0xbe259ff5	-0.161743
18	0xba94f366	-0.0011364042
19	0xbcccbfee	-0.024993863
20	0xbcd14653	-0.025546229
21	0x3db83685	0.08994774
22	0xbe08a9ce	-0.13346025
23	0xbd72d467	-0.059284594
24	0x3e0e708b	0.13910119
25	0xbd4197bb	-0.047263842
26	0x3c8fe338	0.017564401
27	0xbe426784	-0.189848
28	0xbc9c54c1	-0.019083383
29	0x3c7ecc8c	0.015551697
30	0xbdf810e7	-0.12112599
31	0xbce175c8	-0.027521983
32	0x3d94ed27	0.07271796
33	0x3e39f367	0.18159257
34	0x3e5f4844	0.21804911
35	0xbe132c6e	-0.14372417
36	0x3cb87f42	0.022521619
37	0xbe16b0b5	-0.14715846
38	0x3e4a50d0	0.1975739
39	0xbdf5ebd3	-0.120078705
40	0x3ddafe88	0.10693079
41	0x3ade20c5	0.0016947022
42	0xbe04586f	-0.1292436
43	0x3e2bb7fd	0.16769405
44	0xbdef5373	-0.116858386
45	0x3e66fbeb	0.22557037
46	0x3dd15297	0.10220831
47	0xbd5b1c5f	-0.053493854
48	0xbdb25691	-0.087079175
49	0x3df4d27f	0.119542114
50	0xbd6e65c5	-0.058202524
51	0xbd0ee311	-0.034884516
52	0x3e0ff08d	0.14056607
53	0x3e548cc8	0.20756829
54	0x3e2e4e0a	0.17021957
55	0xbd1dce6b	-0.038526934
56	0xbc820214	-0.015870132
57	0xbe4a8f93	-0.19781332
58	0xbd774ada	-0.06037412
59	0xbe37de87	-0.17955981
60	0x3cc13ffe	0.023590084
61	0xbe8150ec	-0.2525705
62	0xbdaf8d42	-0.08571865
63	0xbaa1ca2f	-0.0012343581
64	0xbd0d8dfc	-0.034559235
65	0x3de2160c	0.11039361
66	0x3d80b41c	0.06284353
67	0xbd753b06	-0.059870742
68	0xbd7c6bac	-0.06162612
69	0xbd481f6a	-0.048858084
70	0x3dc017f4	0.09379569
71	0xbe352501	-0.17689897
72	0xbe30ddb4	-0.17272073
73	0xbdec2965	-0.11531333
74	0x3e247b51	0.16062666
75	0x3dbaacad	0.091149665
76	0x3d668a1f	0.056284066
77	0xbd48701a	-0.048935033
78	0x3e1ac217	0.15113102
79	0x3e69286b	0.22769324
80	0xbe2ff880	-0.17184639
81	0xbe24cd84	-0.16094023
82	0x3d329a31	0.04360408
83	0xbdd5d681	-0.10441304
84	0xbc4812b8	-0.012211494
85	0x3d92172f	0.07133328
86	0x3e72eb30	0.2372253
87	0xbc98a987	-0.018635524
88	0xbc79ffec	-0.01525877
89	0x3ddccb03	0.10780909
90	0xbdeac83a	-0.114639714
91	0xbb8b2e7f	-0.004247486
92	0x3e07925d	0.13239427
93	0xbdc8766b	-0.097882114
94	0xbe8d64f6	-0.2761609
95	0x3e16d76c	0.14730614
96	0x3dd55442	0.104164615
97	0xbd52134b	-0.05128793
98	0xbe506206	-0.20349893
99	0x3dc724bf	0.09723806
100	0x3cafe0cd	0.021469498
101	0x3d92cc5f	0.07167887
102	0xbe0b15d8	-0.13582551
103	0xbd9ced4f	-0.076624505
104	0x3ac6ca74	0.0015166537
105	0x3d9a2921	0.07527376
106	0xbd46e5d0	-0.04855901
107	0x3db54109	0.08850295
108	0x3e0e1424	0.1387487
109	0xbd849e06	-0.06475453
110	0x3da5c24e	0.08093701
111	0xbe2daa8f	-0.16959594
112	0x3cd01909	0.025402563
113	0x3dd4c9b0	0.10390031
114	0x3ce68dce	0.02814379
115	0xbd1630f9	-0.036667798
116	0x3de05d6f	0.10955321
117	0xbe079a36	-0.1324242
118	0xbe05844a	-0.13038746
119	0x3c2b8997	0.010469816
120	0xbd41e035	-0.04733296
121	0xbd8bdef9	-0.06829638
122	0xbb050c2e	-0.002030145
123	0xbe1cc9fe	-0.15311429
124	0x3ceea49b	0.029131224
125	0xbde7b657	-0.113140754
126	0x3dbb038c	0.09131536
127	0x3cd3fc1f	0.025877057
128	0x3e42230c	0.18958682
129	0xbe3cff82	-0.18456843
130	0xbe115eba	-0.14196292
131	0x3e2c2a5c	0.16813034
132	0xbb9b336c	-0.0047363546
133	0xbc188cb9	-0.009310895
134	0xbe1541ac	-0.14575833
135	0x3e637443	0.22212319
136	0x3d04c9f0	0.032419145
137	0x3ddaf8b8	0.106919706
138	0xbd291408	-0.04127887
139	0x3dc9080e	0.098159894
140	0x3e654d50	0.22392774
141	0xbdd7230b	-0.10504731
142	0x3d7ffebb	0.06249879
143	0xbd7824c0	-0.060581923
144	0xbe4b3841	-0.19845678
145	0x3d8f1c6d	0.06987844
146	0xbd80237c	-0.06256768
147	0x3cd8d4be	0.02646863
148	0xbc925e57	-0.01786725
149	0x3d53d9f8	0.051721543
150	0x3d9de505	0.07709698
151	0x3e3d3f12	0.1848109
152	0xbdf824b0	-0.121163726
153	0x3af83050	0.0018935297
154	0xbd577616	-0.05260285
155	0x3db8d5d8	0.090251625
156	0xba48ca82	-0.00076595705
157	0xbcc7eca9	-0.02440484
158	0x3cfd4f96	0.030921739
159	0x3e4ed3e5	0.20198019
160	0xbd598a01	-0.053110126
161	0xbe0e7100	-0.13910294
162	0x3d2727bf	0.04080939
163	0xbc3406b2	-0.010987924
164	0x3e26761d	0.16255994
165	0x3e03cb24	0.12870461
166	0xbac297d8	-0.0014846278
167	0x3dd44f57	0.103666954
168	0x3e2aa677	0.16665064
169	0x3df60d09	0.12014205
170	0x3b4c5640	0.0031179339
171	0xbd5b8585	-0.05359413
172	0x3e54cf23	0.20782141
173	0xbe5c8ffe	-0.21539304
174	0xbdde60bd	-0.10858295
175	0xbe198ee1	-0.1499591
176	0x3e04490d	0.12918492
177	0x3df5983d	0.11991928
178	0xbd6d1482	-0.057880886
179	0xbe434d73	-0.19072513
180	0xbd43a33f	-0.047763105
181	0x3be5e62e	0.007015965
182	0xbcdb134b	-0.026742598
183	0x3d7ea599	0.062169645
184	0xbd862f9b	-0.06552049
185	0x3e189b9d	0.14903112
186	0x3d56c144	0.052430406
187	0xbdcd2aa1	-0.100178964
188	0xbdb87994	-0.09007564
189	0x3ed43732	0.4144836
190	0xbe285155	-0.16437276
191	0xbccecefb	-0.02524518
192	0x3ceaa4ed	0.028643096
193	0x3e234d79	0.15947522
194	0x3d3101af	0.043214496
195	0x3d428284	0.04748775
196	0x3d4966da	0.049170353
197	0xbe1a1c68	-0.15049899
198	0x3d3d1d59	0.046170566
199	0xbda239e3	-0.07921197
200	0x3d5333fa	0.05156324
201	0x3dc7cec7	0.097562365
202	0xbd066c74	-0.032818273
203	0xbd6edfa7	-0.05831876
204	0xbd16b0e7	-0.0367898
205	0xbd079721	-0.033103112
206	0x3dc169d1	0.09444011
207	0x3cf8284f	0.030292658
208	0x3d39661c	0.045263395
209	0x3df99480	0.12186527
210	0x3dfe33d5	0.1241223
211	0x3a81c14e	0.0009899528
212	0xbd925800	-0.07145691
213	0xbd70b135	-0.058762748
214	0x3d53266c	0.051550314
215	0x3d4a2bcd	0.049358178
216	0x3db1bffd	0.08679197
217	0xbe231143	-0.15924554
218	0x3e17c298	0.14820325
219	0xbe44e823	-0.19229178
220	0xbd8c66a6	-0.06855516
221	0x3db11400	0.08646393
222	0xbd1a2e7d	-0.03764199
223	0x3d6233c9	0.055225167
224	0x3e183b9b	0.14866488
225	0xbd2c5871	-0.04207653
226	0x3d8a9161	0.0676601
227	0xbdc21975	-0.09477512
228	0xbcbbf1f2	-0.022942517
229	0xbe4ff8cc	-0.20309752
230	0xbe122867	-0.14273225
231	0x3d26a420	0.040683866
232	0x3e557cc3	0.20848374
233	0xbdde5457	-0.1085593
234	0xbc270976	-0.010195127
235	0xbd915ea2	-0.07098128
236	0xbb0e8bb7	-0.0021750757
237	0x3dd76a9a	0.105183795
238	0x3cc6e423	0.024278706
239	0xbd10fc98	-0.035397142
240	0xbd1d0072	-0.038330503
241	0xbdef845a	-0.11695166
242	0xbdb60531	-0.08887709
243	0x3d301761	0.042991046
244	0xbe6a1fe9	-0.22863735
245	0x3e495247	0.19660293
246	0xbcb27aee	-0.021787133
247	0xbca5b705	-0.020228872
248	0xbd6b48c0	-0.057442427
249	0x3d6ead7a	0.05827091
250	0xbae5c554	-0.0017530122
251	0xbd29c65d	-0.04144894
252	0x3d1c5d6c	0.03817503
253	0x3d26245d	0.040562022
254	0xbcc97990	-0.024594098
255	0x3cbceca6	0.023062062
