results/ppo/My Behavior.onnx (onnx, 117930 bytes, 6 tensors)

action_model._discrete_distribution.branches.0.bias f4 [3]
0.0037515059 -0.00015393175 -0.0034326918
00000000: d3db 753b bd68 21b9 03f7 60bb

action_model._discrete_distribution.branches.0.weight f4 [3, 128]
-0.00789752 -0.005520262 0.0018980635 -0.002416773 0.0023953917 -0.024432275 0.017825298 -0.011068228
0.00095095474 -0.0017430207 -0.01574994 -0.0043736873 -0.008870018 -0.002664131 0.0067840293 0.005741253
0.007982672 -0.010234561 0.0028844923 -0.009670752 0.0022612854 -0.0031058185 -0.009793691 0.011946312
0.0012618328 0.014281998 0.0041248286 0.014515597 0.003716935 -0.007886212 0.0042869253 0.017129334
0.00037412206 0.004932864 -0.014492127 -0.00046455918 -0.012596277 0.0053156167 0.0043801907 0.0061040577
-0.00414495 0.006185255 0.009262724 -0.00014334919 -0.016990846 -0.0055462234 0.011852704 0.005317837
-0.010485681 -0.013346191 0.010166407 -0.0031128714 0.012890249 0.010020711 0.0027339393 0.008411354
-0.01758712 -0.007204447 -0.007817861 0.010241077 0.0017425218 0.0062383986 0.001018673 0.0055973763
0.0040912894 0.029658502 0.010311631 0.004424124 0.011734031 0.0044803587 -0.004547528 0.0020897163
-0.00068566354 0.0028031333 -0.015319611 0.01404439 0.0090453 -0.0062095495 0.00010111985 -0.0038145098
-0.007889958 -0.00051043986 -0.018871374 -0.019235201 -0.0047864057 0.012939361 0.012101568 -0.011995626
0.007748022 -0.008670125 -0.015830984 -0.010825912 -0.0033770988 0.0003192078 0.0027656928 0.015843142
-0.005992618 -0.006210055 0.0074244523 0.00037424118 -0.0052784868 -0.008313588 0.015793826 -0.008364148
0.008246922 -0.0009443815 -0.008030276 -0.02195418 -0.010036021 -0.0029657674 -0.005913679 -0.0023580708
0.022771422 0.021934185 -0.000537189 0.0147939185 0.0020359405 0.01242919 -0.012592335 -0.0070225573
-0.0012350683 -8.34231e-05 0.0047981455 -0.0008470165 -0.004460374 0.011286546 0.010987816 -0.008685435
-0.0027839716 -0.005800369 0.017593466 0.0036075676 -0.0152804665 -0.0064472314 -0.006437907 -0.008523797
0.016876863 0.007371712 0.005599119 -0.0036373392 0.023987805 0.00532864 -0.01552401 0.0023996138
0.007005909 -0.012282056 -0.00988993 -0.012667137 0.013541932 0.012638666 0.00464401 -0.013902778
0.017170269 0.01517072 0.008628488 -0.0022386 0.010190522 -0.0068756077 -0.0019759624 -0.0076878956
-0.0010903339 0.016498892 -0.001152573 0.004918814 -0.003233586 0.0027050336 0.004495939 0.008729681
-0.011742493 -0.00022579732 -0.0011335457 0.005631359 -0.012351297 -0.0022330584 0.004818397 0.003964571
-0.00422242 -0.0048591727 -0.0011205126 0.006524072 -0.003938527 -0.004178598 0.007408788 -0.0046788366
-0.00041113718 -0.004434107 -0.007068572 0.005096541 0.010529797 -0.0008809455 -0.0015422555 -0.001464019
0.007862036 0.010051841 0.00087835 0.021739608 0.011734793 3.536363e-05 -0.0027489131 -0.0023810163
0.010717758 0.0017364686 0.0053147115 -0.012549287 0.010999271 0.0028504566 0.005868753 -0.010792463
-0.013340766 -0.008385027 -0.0029510192 -0.010811782 0.0018961498 0.009592644 0.0093386555 0.006722794
0.011905712 4.4424043e-05 0.008117335 0.0025336535 -0.0055302777 -0.0011832247 0.015114112 0.0062292805
0.004746722 0.0049549732 0.0010690651 0.0038059745 0.00027870145 0.0009076462 -0.001309135 0.017236063
0.005946126 -0.01005818 -0.010001656 -0.00046212575 0.0073576504 -0.00636057 -0.004521815 0.010808397
-0.004231754 0.007096809 0.0016502688 -0.0062236316 -0.0048307152 -0.006741463 0.012132441 -0.002620439
-0.0070844246 0.022378232 0.003052324 -0.007976563 4.6891102e-05 -0.00253168 -0.012293657 -0.013963467
00000000: 9a64 01bc 50e3 b4bb 71c8 f83a b962 1ebb
00000010: 01fc 1c3b 3226 c8bc 5c06 923c 8357 35bc
00000020: 7e49 793a 1276 e4ba 0506 81bc 2651 8fbb
00000030: 8d53 11bc b498 2ebb 904c de3b 1f21 bc3b
00000040: c1c9 023c dcae 27bc c009 3d3b 1372 1ebc
00000050: 1332 143b fd8a 4bbb b875 20bc 77ba 433c
00000060: 1564 a53a 0bff 693c 9229 873b d4d2 6d3c
00000070: d297 733b 2c35 01bc 5679 8c3b d152 8c3c
00000080: d025 c439 dda3 a13b 6370 6dbc 1490 f3b9
00000090: 9d60 4ebc a02e ae3b b487 8f3b 8c04 c83b
000000a0: 5cd2 87bb aead ca3b aec2 173c 0150 16b9
000000b0: 6330 8bbc 18bd b5bb d831 423c 4041 ae3b
000000c0: 22cc 2bbc fba9 5abc 0091 263c 5101 4cbb
000000d0: 9f31 533c e92d 243c e42b 333b c7cf 093c
000000e0: dd12 90bc 4813 ecbb 7c16 00bc 31ca 273c
000000f0: 5465 e43a 7b6b cc3b fe84 853a 326a b73b
00000100: 3910 863b 63f6 f23c 1df2 283c 3ef8 903b
00000110: 1840 403c f9cf 923b 6e03 95bb 9ff3 083b
00000120: 1abe 33ba c6b4 373b 1bff 7abc 711a 663c
00000130: bd32 143c 7a79 cbbb 4e10 d438 dbfc 79bb
00000140: e244 01bc 0acf 05ba 2498 9abc 2493 9dbc
00000150: 48d7 9cbb 9dff 533c a845 463c 4d89 44bc
00000160: 1fe3 fd3b 240d 0ebc fbaf 81bc 2a5f 31bc
00000170: 5152 5dbb 585b a739 a040 353b 7ac9 813c
00000180: b95d c4bb b87d cbbb d248 f33b cd35 c439
00000190: 28f7 acbb b735 08bc 0e62 813c c809 09bc
000001a0: 191e 073c 5f90 77ba 6b91 03bc 41d9 b3bc
000001b0: 1f6e 24bc 525d 42bb 89c7 c1bb dd89 1abb
000001c0: 228b ba3c 52af b33c 25d2 0cba 3162 723c
000001d0: 6a6d 053b cda3 4b3c 1550 4ebc 7b1d e6bb
000001e0: 04e2 a1ba 70f3 aeb8 c339 9d3b 510a 5eba
000001f0: 5428 92bb 34eb 383c 3e06 343c 5b4d 0ebc
00000200: 4b73 36bb 0611 bebb 2c20 903c f16c 6c3b
00000210: ec5a 7abc 4c43 d3bb 14f5 d2bb 65a7 0bbc
00000220: 5941 8a3c 678e f13b d078 b73b 6d60 6ebb
00000230: 1382 c43c df9b ae3b 6b58 7ebc d742 1d3b
00000240: d391 e53b ad3a 49bc 5f09 22bc d389 4fbc
00000250: fbde 5d3c 6812 4f3c c82c 983b 7ac8 63bc
00000260: aaa8 8c3c 9d8e 783c 805e 0d3c 7ab5 12bb
00000270: 26f6 263c c74c e1bb 267f 01bb beea fbbb
00000280: 89e9 8eba af28 873c ef11 97ba 012e a13b
00000290: 92ea 53bb ef46 313b ab52 933b f006 0f3c
000002a0: 9663 40bc 02c4 6cb9 7b93 94ba 4387 b83b
000002b0: 185d 4abc 8158 12bb a5e3 9d3b 3be9 813b
000002c0: 3a5c 8abb b239 9fbb 2ade 92ba e2c7 d53b
000002d0: c20e 81bb 9fec 88bb 6bc5 f23b ed50 99bb
000002e0: e68d d7b9 fc4b 91bb 7b9f e7bb e200 a73b
000002f0: 2b85 2c3c 40ef 66ba 8225 caba 53e4 bfba
00000300: c5cf 003c 7ab0 243c 1241 663a 4317 b23c
00000310: 4a43 403c 6953 1438 1c27 34bb d30a 1cbb
00000320: 8999 2f3c 389a e33a 0827 ae3b 869b 4dbc
00000330: 4936 343c bace 3a3b ab4e c03b dfd2 30bc
00000340: 3a93 5abc 5a61 09bc e365 41bb e723 31bc
00000350: 3b88 f83a 772a 1d3c 2901 193c e24a dc3b
00000360: 2d10 433c f453 3a38 92fe 043c a70b 263b
00000370: 5537 b5bb 6f16 9bba 2ea1 773c fe1e cc3b
00000380: 648a 9b3b 545d a23b df1f 8c3a a86d 793b
00000390: ad1e 9239 1bef 6d3a 4897 abba a532 8d3c
000003a0: b8d7 c23b 11cb 24bc fcdd 23bc 7849 f2b9
000003b0: 7218 f13b 546c d0bb bc2b 94bb b415 313c
000003c0: 87aa 8abb 598c e83b d54d d83a 9bef cbbb
000003d0: fa4a 9ebb 7ee7 dcbb 25c7 463c acbb 2bbb
000003e0: 7624 e8bb 8e52 b73c 8009 483b 21b0 02bc
000003f0: f0ac 4438 8bea 25bb 566b 49bc 07c7 64bc

network_body._body_endoder.seq_layers.0.bias f4 [128]
0.0031055596 0.0019317375 0.0039244513 -0.00042957554 0.003499126 0.005958212 -0.004011155 0.0033187384
-0.0036542416 0.0019948785 0.0024838366 -0.003494803 0.0021414005 -0.0013515706 0.0040212628 -0.002439155
0.0051365155 0.004372786 0.0044549047 -0.0042307596 0.0064485027 0.0033865243 -0.0030350136 0.0017004358
-0.0030994425 0.0046115043 0.0013105876 0.0036961597 -0.0039693383 -0.0030126763 -0.0052483254 -0.0058265394
-0.0029295941 -0.0044239014 -0.0038669738 -0.0049691084 -0.0019613476 -0.00039662898 -0.0015458728 0.0008076088
0.0028698558 0.0018582981 0.0027357445 0.0052638683 0.0016970313 -0.00021343536 0.0052210423 0.0008356524
0.006249629 0.0040367814 -0.003507114 0.005664604 -0.0036236905 -0.004110483 0.0011294477 -0.00048403582
0.002841174 3.867829e-05 0.0030184004 -0.0051429467 -0.005438838 -0.0042342967 0.002247241 -0.00017765316
0.0029314514 -0.0027936054 0.0023468805 -0.0043529165 0.004258466 -0.0010732656 0.00022966665 -0.0026384748
0.0043038763 -6.2718136e-05 -0.0031122335 -0.0002385244 -0.00026931585 0.0027951146 -0.0019282954 -0.0036649287
-0.0016603852 0.005398025 0.00011636077 0.00045860946 -0.003095864 0.002699685 -0.0036187805 0.0035172964
0.0052762637 0.0033504989 -0.007201514 0.00010482949 -0.0016459385 0.0034597556 -0.00084114727 -0.0037306014
0.0002679457 -0.0030389065 0.0035568129 0.0055899713 -0.0029875454 -0.0051221927 0.0015397655 -0.0022799056
-0.0044315583 0.003918446 0.0057424153 0.0051069064 -0.00354564 0.0021417963 0.004374191 0.0033970964
-0.0026807464 0.0015389126 0.00074880134 0.0027001577 0.00429014 0.004190094 -0.000117195275 0.00446207
-0.0036638456 -0.002002142 0.0030680613 0.0023629693 -0.00022249513 -0.002025243 -0.0014437464 -0.001655713
00000000: a586 4b3b 5b32 fd3a af98 803b a738 e1b9
00000010: 9851 653b 1b3d c33b 0270 83bb 317f 593b
00000020: 007c 6fbb 82bc 023b ddc7 223b 1109 65bb
00000030: bd56 0c3b 2f27 b1ba ccc4 833b 3bda 1fbb
00000040: 3750 a83b 9649 8f3b 73fa 913b 2fa2 8abb
00000050: f64d d33b 73f0 5d3b 14e7 46bb 28e1 de3a
00000060: 0420 4bbb 1a1c 973b 06c8 ab3a 453b 723b
00000070: 3911 82bb 5270 45bb 25fa abbb 8eec bebb
00000080: 6ffe 3fbb 60f6 90bb 0e6d 7dbb e7d3 a2bb
00000090: f489 00bb a4f2 cfb9 e29e caba b6b5 533a
000000a0: 3114 3c3b 2392 f33a 2d4a 333b 877c ac3b
000000b0: ec6e de3a 9ecd 5fb9 4715 ab3b af0f 5b3a
000000c0: b0c9 cc3b fa46 843b 9cd7 65bb 249e b93b
000000d0: 707b 6dbb 3bb1 86bb fa09 943a 30c6 fdb9
000000e0: fd32 3a3b 7f3a 2238 5bd0 453b 2a86 a8bb
000000f0: 4838 b2bb dbbf 8abb 7346 133b 6848 3ab9
00000100: 981d 403b ec14 37bb 1fce 193b e9a2 8ebb
00000110: 9a8a 8b3b d1ac 8cba acd2 7039 43ea 2cbb
00000120: 8807 8d3b 8b87 83b8 9df6 4bbb 681c 7ab9
00000130: f632 8db9 3e2e 373b dbbe fcba 4d2f 70bb
00000140: 48a1 d9ba eae1 b03b b606 f438 8571 f039
00000150: fbe3 4abb 33ed 303b 1029 6dbb 7182 663b
00000160: 82e4 ac3b 0b94 5b3b aefa ebbb e7d7 db38
00000170: 88bc d7ba 11bd 623b 7080 5cba 1b7d 74bb
00000180: 107b 8c39 6428 47bb 6b19 693b 142c b73b
00000190: b2ca 43bb 11d8 a7bb f5d1 c93a 786a 15bb
000001a0: 9b36 91bb 4f66 803b df2a bc3b d657 a73b
000001b0: f85d 68bb 615d 0c3b 6055 8f3b d2a1 5e3b
000001c0: 76af 2fbb 57b5 c93a 354b 443a 21f5 303b
000001d0: 4d94 8c3b 0e4d 893b bcc6 f5b8 8e36 923b
000001e0: 211d 70bb 5e36 03bb 8711 493b 0cdc 1a3b
000001f0: 954d 69b9 f0b9 04bb 173c bdba 8204 d9ba

network_body._body_endoder.seq_layers.0.weight f4 [128, 93]
-0.08636394 -0.056221843 0.13754153 0.086257316 0.030546179 -0.082314625 0.05293087 0.044678256
-0.00091260805 -0.007666003 0.044077996 0.039004374 -0.114152536 0.09601148 -0.06996673 0.06290163
0.1862966 0.08859204 -0.0014552111 -0.14108974 0.09348557 0.1405276 -0.06877953 -0.036057066
0.10710194 0.027960733 0.0055478304 -0.049587682 -0.043385174 0.13295954 -0.053932276 -0.025843138
0.00997193 0.062942736 0.060203847 -0.32404986 0.023444455 -0.06437053 -0.06663164 -0.013443415
0.111079186 0.08410873 -0.10088795 0.13285476 -0.009304951 -0.11069742 0.026046421 -0.19305809
-0.11395288 0.10888263 0.056250066 0.04996328 -0.16552722 0.08006817 -0.18583114 -0.1329314
0.10877402 -0.07072158 0.055708047 0.11699838 -0.014997423 -0.022560218 -0.15168856 -0.05719496
-0.16630144 0.0141827455 0.088469446 -0.08614292 0.1401185 -0.07954722 -0.117785476 -0.061638936
0.030621558 -0.074627064 0.06481894 -0.23529497 -0.09941875 -0.120093636 -0.04265318 0.04724202
0.011415225 -0.12411929 -0.14411087 -0.082021154 -0.030416084 -0.013260378 0.04529429 0.0916272
0.02573839 0.10271414 0.124598034 -0.01494432 0.0741763 0.017574 0.010334942 0.08139167
-0.14874083 0.16858836 0.0027801902 -0.10282718 0.23154432 -0.105490446 0.17877221 0.019613316
0.037301987 0.050493095 0.0031108172 0.07970919 -0.21248347 -0.1076395 -0.0061432356 -0.09423412
-0.008682993 0.02748357 0.10260475 -0.04900796 -0.077292286 0.19318177 -0.08722692 -0.20636016
0.3008438 0.005174554 -0.13734625 0.0032428436 -0.1262518 0.0027909898 0.05414306 0.16976973
-0.09518356 -0.0423459 -0.048514493 0.1711096 -0.0761805 0.0056880014 -0.020189086 -0.011812482
-0.16624147 -0.19209887 0.05604883 -0.040678214 0.00011885049 -0.021698369 0.0996784 -0.05536382
0.012388152 -0.00020534937 -0.051088702 0.13272652 0.09011938 -0.04157234 -0.2339205 -0.087287754
-0.09814905 -0.12787199 -0.10426444 -0.08454825 0.086857505 0.057981584 0.16142473 -0.04952845
0.027697785 0.12935367 -0.10851192 -0.09131751 0.059652667 -0.13089211 -0.0043346523 0.008429098
-0.10448321 -0.027552946 -0.1944929 -0.02275558 0.11550071 -0.067803875 0.12579077 -0.0012377552
-0.22216462 -0.091851026 -0.08024111 0.0035305575 0.119261704 -0.084498614 0.21350928 -0.15633443
0.16252916 0.21358751 -0.32028663 -0.093192816 -0.20682383 0.14515018 -0.01705542 -0.026146952
0.018596081 -0.03333433 0.12763679 -0.029006487 0.1703192 0.101338156 -0.0602691 0.21335262
0.032799125 -0.1533578 0.07843816 0.038701914 -0.045812156 -0.012229199 -0.12546755 -0.023361731
-0.0041874256 -0.097994946 -0.04420411 -0.13085172 0.02536536 0.01642467 0.10258856 0.065962896
0.010113886 0.007896479 -0.00203842 1.7011243e-05 -0.22219174 -0.014807451 0.18295999 0.18460022
-0.17130892 0.13667941 -0.14616619 -0.045345176 -0.0982926 0.059102844 -0.030955378 -0.028606169
-0.009157828 -0.09587252 0.065612964 0.06162325 -0.02151585 -0.096019685 -0.0027826617 0.19521964
0.08638733 -0.0787091 -0.11218908 0.07488289 0.19273648 0.24870335 0.1882549 -0.06825918
-0.0868859 -0.018317532 0.14412928 -0.100222446 -0.08389021 -0.0070871385 -0.06212826 0.20240879
00000000: 94df b0bd e048 66bd b0d7 0c3e ada7 b03d
00000010: fb3b fa3c 9294 a8bd 0ace 583d 8c00 373d
00000020: 173c 6fba 1833 fbbb 218b 343d 0dc3 1f3d
00000030: cec8 e9bd aba1 c43d b84a 8fbd 92d2 803d
00000040: 89c4 3e3e be6f b53d c8bc beba d479 10be
00000050: 5d75 bf3d 78e6 0f3e 48dc 8cbd 93b0 13bd
00000060: 4358 db3d e80d e53c 93ca b53b 741c 4bbd
00000070: a7b4 31bd 8c26 083e 17e8 5cbd fdb4 d3bc
00000080: 4e61 233c 1fe8 803d 4f98 763d dde9 a5be
00000090: 960e c03c b2d4 83bd 2b76 88bd c541 5cbc
000000a0: 7c7d e33d 3341 ac3d 579e cebd 140b 083e
000000b0: cb73 18bc 54b5 e2bd 4e5f d53c 05b1 45be
000000c0: 2160 e9bd dbfd de3d 7866 663d 4ca6 4c3d
000000d0: f87f 29be c8fa a33d 854a 3ebe 2b1f 08be
000000e0: eac4 de3d 7ad6 90bd 1f2e 643d d99c ef3d
000000f0: c0b7 75bc 35d0 b8bc 3f54 1bbe 4345 6abd
00000100: ed4a 2abe bf5e 683c 782f b53d b36b b0bd
00000110: 397b 0f3e a7e9 a2bd 8339 f1bd 1c79 7cbd
00000120: 10da fa3c 13d6 98bd cbbf 843d 2af1 70be
00000130: 0f9c cbbd a7f3 f5bd 1ab5 2ebd d980 413d
00000140: ed06 3b3c 4132 febd cd91 13be b5fa a7bd
00000150: 272b f9bc 0e42 59bc 8186 393d 0ba7 bb3d
00000160: 51d9 d23c cb5b d23d 412d ff3d 05d9 74bc
00000170: bee9 973d 59f7 8f3c e353 293c adb0 a63d
00000180: 844f 18be 6da2 2c3e da33 363b 0e97 d2bd
00000190: f419 6d3e 600b d8bd 1010 373e 1bac a03c
000001a0: f8c9 183d d9d1 4e3d dade 4b3b 923e a33d
000001b0: 4495 59be 1972 dcbd 324d c9bb d1fd c0bd
000001c0: 1d43 0ebc 3925 e13c 7022 d23d 92bc 48bd
000001d0: 6b4b 9ebd 71d1 453e 07a4 b2bd 1450 53be
000001e0: 3308 9a3e 4e8f a93b 7fa4 0cbe e385 543b
000001f0: 2748 01be 0ae9 363b 1dc5 5d3d 1ed8 2d3e
00000200: 99ef c2bd e572 2dbd 22b7 46bd 5b37 2f3e
00000210: 8604 9cbd 6a62 ba3b 9563 a5bc 2489 41bc
00000220: 343b 2abe 91b5 44be 7593 653d 339e 26bd
00000230: 5f3f f938 c7c0 b1bc 3024 cc3d 2cc5 62bd
00000240: adf7 4a3c 0d53 57b9 6342 51bd 76e9 073e
00000250: 8290 b83d c247 2abd db88 6fbe ecc3 b2bd
00000260: 5e02 c9bd e0f0 02be 9888 d5bd a227 adbd
00000270: 59e2 b13d 197e 6d3d 864c 253e 58de 4abd
00000280: 77e6 e23c 4a75 043e 7f3b debd ad04 bbbd
00000290: 5b56 743d 9508 06be b309 8ebb 331a 0a3c
000002a0: 4bfb d5bd b7b6 e1bc 2629 47be e969 babc
000002b0: a38b ec3d c2dc 8abd 4ccf 003e 2c3c a2ba
000002c0: 1f7f 63be 641c bcbd 7355 a4bd ed60 673b
000002d0: 7b3f f43d 9c0d adbd 2da2 5a3e 2216 20be
000002e0: 0b6e 263e afb6 5a3e 9cfc a3be e0db bebd
000002f0: a0c9 53be 40a2 143e cfb7 8bbc 2232 d6bc
00000300: cf56 983c 9489 08bd 38b3 023e 039f edbc
00000310: 2868 2e3e 618a cf3d bbdc 76bd 1c79 5a3e
00000320: 6058 063d d409 1dbe 30a4 a03d e685 1e3d
00000330: 87a5 3bbd fa5c 48bc 917a 00be 1a61 bfbc
00000340: ac36 89bb 93b1 c8bd 5e0f 35bd fefd 05be
00000350: 04cb cf3c 088d 863c f319 d23d 8e17 873d
00000360: b6b4 253c 3c60 013c 0397 05bb 5eb3 8e37
00000370: 3b86 63be f39a 72bc dd59 3b3e d707 3d3e
00000380: 9b6b 2fbe b0f5 0b3e 97ac 15be ddbb 39bd
00000390: a14d c9bd d315 723d 2296 fdbc 7c57 eabc
000003a0: b70a 16bc d058 c4bd 1760 863d a968 7c3d
000003b0: 0242 b0bc f8a5 c4bd 515d 36bb a8e7 473e
000003c0: d7eb b03d 3d32 a1bd 63c3 e5bd 335c 993d
000003d0: b65c 453e 17ac 7e3e e4c5 403e 78cb 8bbd
000003e0: 3cf1 b1bd a60e 96bc a096 133e 6d41 cdbd
000003f0: a1ce abbd 3a3b e8bb 347a 7ebd 4044 4f3e

network_body._body_endoder.seq_layers.2.bias f4 [128]
-0.0036799132 0.0023979906 -0.0024033228 -0.003516482 -0.0017241491 -0.002093193 0.0013965098 -0.0027687238
-0.000883089 0.0009934726 -0.0034704222 -0.0032488971 -2.1100452e-05 -0.00057020487 0.0016035237 0.0031478135
0.0037334973 -0.0033503673 0.004098756 -0.00236979 0.0030857779 -0.002568588 -0.0033325406 0.0039285393
-0.0028824985 0.0028975247 -0.0005480647 0.0050299843 0.00055468245 -0.0028604835 0.00423274 0.00016828986
-0.0037107507 -0.0016796299 -0.0035462105 0.003116218 0.0004417784 0.0024684996 0.0027201916 -0.003618605
-0.0017783219 0.0033852116 0.00037625097 -0.0036090922 -0.0035521996 -0.0036415092 0.0035630034 0.0026562335
0.0031332897 0.0013656762 0.0042505036 -0.0036589152 0.004380947 0.0025733192 -0.0024497774 0.0039410237
-0.0046936674 -0.0027293374 -0.0030242908 0.004448777 0.0017895637 0.0024261172 -0.0029993046 0.0035823334
-0.0024719601 0.004991892 0.004304761 -0.0014403135 0.0031766074 0.0037902715 -0.0014475825 -0.0014578839
0.0018344418 0.002583447 -0.0028760873 0.004352507 0.0025724408 0.0007956473 0.00048609517 0.0047951587
-0.0037513291 -0.00089748355 -0.005257379 -0.0041820235 -0.0041971607 0.0036831487 0.003429552 -0.0010549433
-0.001205827 -0.0038370953 -0.0030809566 -0.004693883 -0.0044153784 0.0028304297 0.0016282885 0.0040975995
0.00048273843 -0.0021374577 0.0037238456 -0.002609 -0.0035287768 -0.0042840703 0.0042115543 0.0020657992
0.00324751 0.00066876493 0.0014584681 -0.0013756998 -0.001950243 0.0033741626 -0.002561288 0.0016901598
0.00469053 0.00455126 0.00059621467 0.004335954 -0.0017565357 0.0031759439 -0.00235628 -0.0036678456
-0.002819299 -0.00029006982 -0.0034662131 -0.0018395714 -0.004540524 0.002052279 0.0047698976 -0.0017149948
00000000: b32a 71bb 9b27 1d3b 1181 1dbb c774 66bb
00000010: d8fc e1ba f32d 09bb 180b b73a 7a73 35bb
00000020: 197f 67ba 6937 823a 0670 63bb 73eb 54bb
00000030: e000 b1b7 cd79 15ba 542d d23a 8c4b 4e3b
00000040: b1ad 743b d691 5bbb db4e 863b 7b4e 1bbb
00000050: c33a 4a3b c155 28bb c166 5abb faba 803b
00000060: 4de8 3cbb 66e4 3d3b 00ac 0fba 91d2 a43b
00000070: 1c68 113a f376 3bbb ccb2 8a3b f776 3039
00000080: 1130 73bb 0727 dcba 8a67 68bb 7639 4c3b
00000090: 7e9e e739 8dc6 213b 3e45 323b 1e26 6dbb
000000a0: 9516 e9ba 6dda 5d3b 8d43 c539 8586 6cbb
000000b0: 05cc 68bb 63a6 6ebb 4781 693b 3414 2e3b
000000c0: e157 4d3b 7d00 b33a cf47 8b3b 69ca 6fbb
000000d0: 0c8e 8f3b 22a5 283b 728c 20bb b423 813b
000000e0: 56cd 99bb afde 32bb 2e33 46bb 0cc7 913b
000000f0: cb8f ea3a 7eff 1e3b fb8f 44bb 95c5 6a3b
00000100: 9c00 22bb 0693 a33b f40e 8d3b e7c8 bcba
00000110: a12e 503b 3466 783b cfbc bdba 7716 bfba
00000120: a771 f03a 0c4f 293b bd7c 3cbb 7a9f 8e3b
00000130: 6596 283b fd92 503a 97da fe39 b520 9d3b
00000140: dcd8 75bb 1a45 6bba 1746 acbb 5b09 89bb
00000150: 5688 89bb fb60 713b 56c2 603b 0646 8aba
00000160: d70c 9eba c777 7bbb e0e9 49bb 25cf 99bb
00000170: e1ae 90bb bb7e 393b 4c6c d53a 2845 863b
00000180: 0e18 fd39 9714 0cbb c30b 743b c2fb 2abb
00000190: 0d43 67bb 6361 8cbb 1401 8a3b 5c62 073b
000001a0: 2dd4 543b 0e50 2f3a 122a bf3a d350 b4ba
000001b0: 4c9f ffba 0e21 5d3b 48db 27bb 5a88 dd3a
000001c0: 04b3 993b bc22 953b 4a4b 1c3a 9e14 8e3b
000001d0: 8f3b e6ba 7f23 503b d26b 1abb 3d60 70bb
000001e0: fdc3 38bb 8314 98b9 6829 63bb c61d f1ba
000001f0: adc8 94bb 877f 063b cd4c 9c3b adc9 e0ba

network_body._body_endoder.seq_layers.2.weight f4 [128, 128]
-0.07644533 0.17121959 0.21646087 -0.08197226 0.029691258 0.2088468 0.112918936 0.0010563867
0.030024251 0.10386756 -0.06538454 -0.015712569 -0.05735286 -0.019101555 -0.08073527 0.08533222
-0.02097325 -0.07957276 -0.06967829 0.07297568 -0.04396606 0.020075627 0.1122668 -0.0342559
-0.055152126 -0.0064646937 -0.11550125 -0.115870096 -0.030298548 0.040479474 0.062380053 0.1429343
-0.088368885 -0.053562935 0.04251668 -0.06787635 -0.12368176 0.008121776 0.11188889 0.07946023
-0.086545855 -0.038421936 -0.06383739 0.06284363 -0.017761746 0.027059957 -0.07239047 0.004218546
0.056227416 -0.003050544 -0.03180026 0.14665726 0.032351695 -0.12491442 0.042367764 -0.034035597
-0.02416518 0.11499404 0.027610052 0.10065704 0.059360396 0.06283928 0.16370885 -0.008743032
0.0148803685 0.06360748 0.059030507 0.06842754 -0.044436015 -0.0815512 0.0066481847 -0.0009009383
-0.0872266 -0.024169639 -0.052425876 -0.1571162 -0.06883519 0.017090635 -0.11765963 0.11463238
0.030729001 0.016321074 -0.032313492 -0.16236709 0.1442868 0.028200222 -0.0040245852 -0.118065394
0.064801596 0.072844215 -0.022623437 -0.0052243564 0.02204822 0.08308218 -0.002129169 -0.22238764
0.015852597 -0.033231925 0.085867494 -0.078789026 0.01009126 -0.13707955 -0.011543972 -0.08655841
-0.046507128 -0.100506224 0.06383844 -0.011542781 0.13286364 -0.13822153 0.008761202 -0.07608683
0.07101782 0.05675326 -0.04718915 -0.065803126 -0.11101904 0.03224321 -0.0065300297 0.107250325
-0.067534976 0.026689405 0.11215294 -0.05486791 -0.07643575 0.1343565 -0.0026703333 0.05987059
0.18376379 -0.16482306 -0.028266855 -0.046160687 0.05327172 -0.032501437 -0.07384068 0.08878045
-0.05364506 -0.12587418 0.051335674 -0.083430916 0.023517644 -0.076229006 -0.012543347 -0.17532323
-0.2285574 -0.0073133474 -0.09865959 -0.027250191 -0.026906434 0.055901434 -0.049873266 -0.03300545
-0.05814394 0.006394473 -0.064222895 0.0525468 -0.06739738 0.08315132 0.035194688 0.012050404
-0.1312197 0.01989369 -0.024867274 0.09145498 0.019132905 0.02298354 0.05439429 0.036537714
0.06542906 0.03247231 0.016371815 0.007150013 -0.11240677 -0.22924313 0.11754487 0.050913583
-0.20017844 0.091512546 0.110116 -0.073449105 0.08105372 -0.059278928 0.033591684 -0.0031563952
0.00026336292 0.12626651 0.08631297 0.097480044 -0.06544543 -0.036450878 -0.01885866 0.009783398
-0.045575544 0.12989566 0.10335133 0.028239716 -0.07475346 0.018322881 0.070265256 -0.011519869
0.051699944 -0.1076657 -0.14341864 -0.027307972 0.276401 0.14229505 0.0060512493 0.097013734
0.029424757 -0.037482336 -0.16779172 0.09877435 0.051759362 -0.034661986 0.028833082 0.09686691
-0.10789601 -0.11238789 -0.110351056 0.18978234 0.078195624 0.10228543 -0.047861427 0.098295294
-0.17546904 0.15612578 -0.1849637 -0.036768213 0.08924994 -0.09732997 0.0044310787 0.03339346
-0.04919422 -0.061053522 0.012203318 -0.014728202 -0.025610672 -0.11735907 0.035553023 -0.04913652
-0.10806221 -0.011016802 0.0460295 -0.10241568 -0.17113213 0.031001942 0.17971605 0.031023664
0.016317379 -0.034111083 0.050552633 0.10340031 0.0461246 -0.073543444 -0.01627408 0.080807485
00000000: 5f8f 9cbd 3054 2f3e eba7 5d3e 12e1 a7bd
00000010: 153b f33c efdb 553e 0b42 e73d 7576 8a3a
00000020: 6bf5 f53c 84b8 d43d 54e8 85bd a5b7 80bc
00000030: d5ea 6abd dd7a 9cbc 8958 a5bd a9c2 ae3d
00000040: 18d0 abbc 0bf7 a2bd 7eb3 8ebd 4674 953d
00000050: c115 34bd a475 a43c 23ec e53d ea4f 0cbd
00000060: 32e7 61bd c8d5 d3bb eb8b ecbd 4d4d edbd
00000070: a934 f8bc cecd 253d 3a82 7f3d 5e5d 123e
00000080: bffa b4bd cf64 5bbd f825 2e3d c102 8bbd
00000090: dd4c fdbd 3311 053c 0126 e53d 0cbc a23d
000000a0: f43e b1bd 5260 1dbd 2dbd 82bd 29b4 803d
000000b0: 1581 91bc d8ac dd3c 7441 94bd bb3b 8a3b
000000c0: b84e 663d a3eb 47bb fd40 02bd 522d 163e
000000d0: 3683 043d 22d3 ffbd d289 2d3d e968 0bbd
000000e0: 0ef6 c5bc ff81 eb3d 7a2e e23c 4725 ce3d
000000f0: e323 733d e1b1 803d 4ba3 273e ef3e 0fbc
00000100: cacc 733c a344 823d f9c9 713d bd23 8c3d
00000110: 8a02 36bd 5104 a7bd 04d9 d93b f22c 6cba
00000120: dca3 b2bd 68ff c5bc 84bc 56bd 12e3 20be
00000130: 77f9 8cbd a901 8c3c 88f7 f0bd 62c4 ea3d
00000140: 63bb fb3c c6b3 853c 275b 04bd 8f43 26be
00000150: ebbf 133e 2704 e73c abe0 83bb 45cc f1bd
00000160: b3b6 843d 592f 953d c954 b9bc 1431 abbb
00000170: 789e b43c fd26 aa3d 8789 0bbb 96b9 63be
00000180: 4edd 813c 331e 08bd 4cdb af3d 245c a1bd
00000190: d055 253c 955e 0cbe ee22 3dbc 8945 b1bd
000001a0: 427e 3ebd 35d6 cdbd babd 823d ef1d 3dbc
000001b0: 680d 083e f289 0dbe 258b 0f3c 69d3 9bbd
000001c0: ca71 913d 1b76 683d 6949 41bd cac3 86bd
000001d0: f35d e3bd 7511 043d dcf9 d5bb 0fa6 db3d
000001e0: c74f 8abd bda3 da3c 71b0 e53d 2cbd 60bd
000001f0: 598a 9cbd c094 093e c200 2fbb dd3a 753d
00000200: 932c 3c3e 60c7 28be e48f e7bc fd12 3dbd
00000210: 7233 5a3d 3a20 05bd c839 97bd 86d2 b53d
00000220: ecba 5bbd 29e5 00be 5b45 523d d4dd aabd
00000230: 13a8 c03c f41d 9cbd 9c82 4dbc ef87 33be
00000240: f30a 6abe cea4 efbb 0a0e cabd cb3b dfbc
00000250: e26a dcbc e7f8 643d e947 4cbd b930 07bd
00000260: 5728 6ebd ba88 d13b 4b87 83bd 503b 573d
00000270: a307 8abd 3d4b aa3d 4e28 103d 0f6f 453c
00000280: 755e 06be 17f8 a23c 74b6 cbbc c04c bb3d
00000290: 9cbc 9c3c fa47 bc3c 8ccc 5e3d 92a8 153d
000002a0: acff 853d af01 053d 2f1e 863c a84a ea3b
000002b0: 8535 e6bd b6be 6abe 5dbb f03d c38a 503d
000002c0: 94fb 4cbe ee6a bb3d 7f84 e13d 7c6c 96bd
000002d0: 7eff a53d 76ce 72bd 6f97 093d 86db 4ebb
000002e0: f913 8a39 024c 013e dbc4 b03d 9ea3 c73d
000002f0: 4108 86bd 844d 15bd 7a7d 9abc 8c4a 203c
00000300: 6cad 3abd 5e03 053e dda9 d33d fa56 e73c
00000310: 5818 99bd de19 963c 3be7 8f3d d5bd 3cbc
00000320: 52c3 533d d67f dcbd 56dc 12be f8b4 dfbc
00000330: 6f84 8d3e cbb5 113e 8f49 c63b 23af c63d
00000340: 300c f13c 1487 19bd 98d1 2bbe 354a ca3d
00000350: a001 543d baf9 0dbd 5b33 ec3c 2962 c63d
00000360: 95f8 dcbd 9f2b e6bd bcff e1bd 4d56 423e
00000370: 0725 a03d 067b d13d 580a 44bd 0b4f c93d
00000380: 28ae 33be 70df 1f3e 2067 3dbe 449a 16bd
00000390: acc8 b63d ef54 c7bd 9532 913b 95c7 083d
000003a0: e17f 49bd 4213 7abd 6df0 473c 8e4e 71bc
000003b0: 79cd d1bc f459 f0bd 0ca0 113d 6043 49bd
000003c0: b84f ddbd d17f 34bc 6e89 3c3d 50bf d1bd
000003d0: 433d 2fbe c9f7 fd3c 7c07 383e 5725 fe3c
000003e0: 06ac 853c 10b8 0bbd 4710 4f3d 8bc3 d33d
000003f0: 26ed 3c3d f29d 96bd 3851 85bc 657e a53d
