Assets/Models/2023-06-04_coins/My Behavior-1000040.onnx (onnx, 121002 bytes, 6 tensors)

action_model._discrete_distribution.branches.0.bias f4 [3]
-0.00063282764 0.0030013556 -0.00048286127
00000000: 58e4 25ba 64b2 443b 8b28 fdb9

action_model._discrete_distribution.branches.0.weight f4 [3, 128]
0.09373854 -0.09179257 0.038757373 -0.0710185 0.05154408 0.02334929 0.016265303 0.06232968
0.028623879 0.066787794 -0.08523134 -0.044277493 0.03328564 -0.05320295 0.019256853 -0.053539395
0.054880306 -0.01962292 -0.10388499 -0.030632472 0.036490377 0.043738443 -0.06794833 -0.06477406
0.0012617244 0.0205757 -0.034553137 0.04162964 -0.08428381 -0.03049991 0.030146377 0.06705796
-0.083104834 -0.08608298 -0.054857336 0.002720747 -0.021282429 0.052441522 -0.04815485 0.022475082
-0.07463267 0.06732695 -0.06810223 -0.05316709 0.018117279 -0.08116889 -0.05981269 0.08139291
0.036886767 -0.05210838 0.09466099 0.031791776 0.016447708 0.054275136 -0.07299059 0.05995771
-0.03410932 0.04332117 -0.09278045 0.05815464 -0.1072153 -0.074486114 0.03485223 0.083104596
0.03349193 -0.085937314 0.0315387 -0.07022824 0.038296234 -0.06361891 -0.02212963 0.018210642
0.037088323 -8.42492e-05 -0.08311171 0.04179655 -0.095173985 -0.037523214 -0.079596885 0.054888494
-0.06714035 -0.06251306 -0.048177704 -0.004227013 -0.06007023 -0.052012406 0.078366645 -0.068517886
0.0045003174 -0.060674876 -0.0072774617 -0.089780554 0.003775575 0.034189757 0.043761138 -0.026517797
0.031088775 0.03173936 0.03269206 -0.09002306 -0.053907167 0.040529516 -0.095317304 0.05662318
0.067245476 0.020374516 0.045110695 -0.07162215 -0.057135932 0.029577503 -0.06537983 -0.02749299
0.065238915 -0.035983466 0.032753754 -0.02115399 -0.057343125 0.043228693 -0.07926177 0.046119608
0.088025846 0.05169395 0.04404722 0.014744192 0.064321615 0.038284734 0.039019562 -0.06232063
-0.039660655 0.033546276 0.0463085 0.027755393 0.04036723 0.031808395 -0.034419708 0.032771096
0.052839994 -0.018760445 0.014212254 0.015377562 -0.050240528 -0.009474279 -0.036546964 0.02643713
0.0108386595 -0.0732687 0.01826109 -0.02157113 0.037018392 -0.06610404 0.03739073 0.0067628566
0.028298534 0.046033673 0.04085306 0.057775944 -0.0010374202 -0.062342156 0.019121053 -0.042246915
-0.007230612 0.01096961 0.018487683 -0.0069971276 -0.060299642 -0.008798211 0.048675973 0.034043558
0.024645507 -0.017391114 0.007564043 0.028029174 0.016413314 0.00704699 0.03496784 -0.050417423
0.04251585 0.02343221 -0.0373018 0.046728652 -0.0115264645 0.00046744087 -0.009215751 -0.0024179628
-0.022087192 0.015951287 0.06340309 -0.022527838 0.05200876 0.053676054 -0.0104845185 0.017716512
0.009786346 0.01662366 0.022878561 0.03897518 -0.049978703 -0.015109324 0.05552457 -0.07741894
0.04987742 -0.034258027 0.052195355 0.018151535 0.04215114 0.008948104 0.0083183935 0.029118977
0.024852943 -0.0036624745 0.007554403 0.035043195 -0.04151806 -0.021231135 -0.042138234 -0.0059789876
0.059916813 -0.04608198 -0.031927053 0.048096858 -0.016579052 0.046558082 0.049410403 -0.0019187535
-0.07050944 0.037691046 0.015898744 0.043060765 -0.010414485 0.03825841 0.03486093 -0.083717115
0.00034438272 0.016476441 0.053094298 -0.008506007 0.022382345 0.030589186 0.027578473 -0.049314983
0.03513332 -0.0012812321 0.029378787 -0.083882265 -0.016881227 -0.05277379 0.04795195 0.0380805
-0.055577423 0.030469486 0.00212528 -0.021598155 0.01710507 0.02841583 0.059579477 -0.031867098
00000000: fef9 bf3d befd bbbd 0dc0 1e3d 2672 91bd
00000010: e31f 533d 0347 bf3c d03e 853c 684d 7f3d
00000020: a07c ea3c 0ac8 883d c58d aebd 515c 35bd
00000030: 8656 083d 56eb 59bd 8cc0 9d3c 204c 5bbd
00000040: 2cca 603d 3fc0 a0bc a7c1 d4bd f3f0 fabc
00000050: ef76 153d 1527 333d 7e28 8bbd 43a8 84bd
00000060: 7260 a53a 5f8e a83c 9787 0dbd d783 2a3d
00000070: fd9c acbd f2da f9bc 89f5 f63c af55 893d
00000080: de32 aabd 464c b0bd 16b2 60bd 8f4e 323b
00000090: 7d58 aebc eccc 563d 053e 45bd aa1d b83c
000000a0: 03d9 98bd b6e2 893d 2f79 8bbd bcc5 59bd
000000b0: b06a 943c e03b a6bd 27fe 74bd 53b1 a63d
000000c0: 9416 173d 996f 55bd 9fdd c13d 1838 023d
000000d0: 58bd 863c 9b4f 5e3d 177c 95bd 3796 753d
000000e0: 37b6 0bbd 8a71 313d ad03 bebd 8f33 6e3d
000000f0: b293 dbbd 2d8c 98bd 36c1 0e3d be32 aa3d
00000100: d62e 093d e7ff afbd b92e 013d d3d3 8fbd
00000110: 83dc 1c3d a24a 82bd 3349 b5bc 7c2e 953c
00000120: ede9 173d f2ae b0b8 7936 aabd dc32 2b3d
00000130: 94ea c2bd f1b1 19bd b103 a3bd c2d2 603d
00000140: e180 89bd d906 80bd fc55 45bd c182 8abb
00000150: 340c 76bd f60a 55bd b17e a03d 1b53 8cbd
00000160: 6677 933b 3886 78bd c677 eebb dede b7bd
00000170: a36f 773b 8f0a 0c3d e13e 333d da3b d9bc
00000180: e3ad fe3c 2201 023d 1ce8 053d 035e b8bd
00000190: c3cd 5cbd 4702 263d b835 c3bd b5ed 673d
000001a0: ffb7 893d 75e8 a63c fec5 383d a2ae 92bd
000001b0: 5e07 6abd 854c f23c dce5 85bd fb38 e1bc
000001c0: fb9b 853d 6663 13bd cd28 063d 224b adbc
000001d0: a0e0 6abd 9210 313d ff53 a2bd eae7 3c3d
000001e0: e546 b43d 09bd 533d dc6a 343d a091 713c
000001f0: 0dbb 833d 74d0 1c3d fad2 1f3d eb43 7fbd
00000200: 3673 22bd d267 093d fbad 3d3d 475f e33c
00000210: 1c58 253d 8549 023d aefb 0cbd fc3a 063d
00000220: c06e 583d 81af 99bc 84da 683c 2bf2 7b3c
00000230: 03c9 4dbd 023a 1bbc 45b2 15bd ae92 d83c
00000240: a294 313c e60d 96bd 4898 953c f0b5 b0bc
00000250: 99a0 173d 8e61 87bd 0627 193d f49a dd3b
00000260: 54d2 e73c ce8d 3c3d 8a55 273d 78a6 6c3d
00000270: 0cfa 87ba 7d5a 7fbd c1a3 9c3c 1a0b 2dbd
00000280: c5ee ecbb e1b9 333c 7b73 973c 2948 e5bb
00000290: c2fc 76bd 5f26 10bc 7560 473d 4271 0b3d
000002a0: 60e5 c93c cf77 8ebc cbdb f73b 709d e53c
000002b0: 3775 863c 70ea e63b 703a 0f3d 8082 4ebd
000002c0: 1a25 2e3d e8f4 bf3c c6c9 18bd 8b66 3f3d
000002d0: 7fd9 3cbc da12 f539 a9fd 16bc af76 1ebb
000002e0: 33f0 b4bc 46ac 823c 7bd9 813d 4d8c b8bc
000002f0: 2307 553d 6cdb 5b3d 42c7 2bbc 3822 913c
00000300: e956 203c 582e 883c d26b bb3c 70a4 1f3d
00000310: 78b6 4cbd 198d 77bc bb6d 633d d28d 9ebd
00000320: 444c 4c3d 2552 0cbd ccca 553d 87b2 943c
00000330: aca6 2c3d 129b 123c df49 083c ec8a ee3c
00000340: 6698 cb3c 2006 70bb ed8a f73b 7489 0f3d
00000350: d70e 2abd ebec adbc 2499 2cbd 62eb c3bb
00000360: 556b 753d 75c0 3cbd f1c5 02bd 3601 453d
00000370: cbd0 87bc b0b3 3e3d 9062 4a3d af7e fbba
00000380: 4167 90bd ed61 1a3d 153e 823c 7c60 303d
00000390: 84a1 2abc dab4 1c3d 56ca 0e3d e173 abbd
000003a0: 448e b439 9af9 863c 6879 593d c75c 0bbc
000003b0: 2e5b b73c 2c96 fa3c 40ec e13c 82fe 49bd
000003c0: f5e7 0f3d 04ef a7ba c8ab f03c 77ca abbd
000003d0: 804a 8abc 5429 58bd 4469 443d 4cfa 1b3d
000003e0: 27a5 63bd 259b f93c 4848 0b3b 9dee b0bc
000003f0: ef1f 8c3c 51c8 e83c 9c09 743d 1387 02bd

network_body._body_endoder.seq_layers.0.bias f4 [128]
0.016749745 -0.010314889 0.012575395 0.01566162 0.0051989728 -0.009158693 0.023727363 0.023602536
0.008938434 0.033651587 0.04228233 -0.033299983 0.06360862 0.031529885 -0.009368661 0.026326824
-0.00044608754 0.019933956 0.04033857 0.02070616 0.015110606 0.0022944112 0.024897851 0.02730606
0.03226468 0.042217184 -0.012459616 0.02384618 -0.016674453 0.030723335 0.023603301 0.049902663
0.024272097 0.005983733 0.02501829 0.033828083 0.028288594 -0.007640338 -0.04035204 0.023438143
0.03016203 0.047758035 0.008765265 0.019956157 0.026009431 -0.00530477 0.007895186 0.021576231
0.013165314 0.02096185 0.043449476 0.025005527 0.026065482 0.011829489 0.016460558 0.0059160558
0.030612372 0.015393127 0.028777 0.012993736 0.024489272 0.016677473 0.03483982 0.026407577
0.017683078 0.02370222 0.018230623 -0.0023624527 0.022840591 -0.023967627 0.010377726 -0.0026133507
0.028286995 0.030608697 0.012049587 0.010481585 0.03105825 0.036926128 0.028437449 0.005502048
0.02914184 0.015257361 0.037750468 0.007236387 0.042608123 0.028329346 0.039140422 0.06276128
0.0058459784 0.016126394 0.033918425 0.022670943 0.04122031 0.025536524 0.005275368 0.00064162805
0.04078225 0.011057395 0.00202243 0.038921047 0.03821409 0.032677475 0.004655706 0.021746868
0.048333444 0.031929553 0.0054245475 0.01427462 0.022727743 0.0072920523 0.03629358 -0.017961401
0.0066110585 0.024806784 0.023012783 0.014286916 0.012039081 0.032863654 0.016806327 0.0009928194
0.07361728 0.01419453 -0.014997843 0.013469149 0.01626704 0.0037808977 0.019337999 0.036041413
00000000: c336 893c c8ff 28bc 0809 4e3c cc4c 803c
00000010: 255c aa3b 580e 16bc e35f c23c 1b5a c13c
00000020: 8272 123c 3fd6 093d 3d30 2d3d 9065 08bd
00000030: 3c45 823d 7b25 013d 037f 19bc 5aab d73c
00000040: dbe0 e9b9 894c a33c 0e3a 253d f79f a93c
00000050: 7a92 773c d55d 163b 94f6 cb3c f5b0 df3c
00000060: f827 043d edeb 2c3d 6b23 4cbc 1059 c33c
00000070: dd98 88bc 81af fb3c b65b c13c bc66 4c3d
00000080: 47d6 c63c 3113 c43b 28f3 cc3c 518f 0a3d
00000090: 7bbd e73c cd5b fabb 2e48 25bd 5901 c03c
000000a0: 5d16 f73c ee9d 433d 309c 0f3c 187b a33c
000000b0: bb11 d53c a3d3 adbb cf5a 013c a3c0 b03c
000000c0: 54b3 573c 30b8 ab3c 14f8 313d 64d8 cc3c
000000d0: 4787 d53c 79d0 413c 4bd8 863c 79db c13b
000000e0: ccc6 fa3c 7433 7c3c bebd eb3c aee3 543c
000000f0: ba9d c83c 329f 883c 33b4 0e3d b454 d83c
00000100: 1adc 903c 282b c23c 6358 953c 61d3 1abb
00000110: 311c bb3c c257 c4bc 5607 2a3c c044 2bbb
00000120: 21ba e73c 17bf fa3c a26b 453c f4ba 2b3c
00000130: df6d fe3c da3f 173d a7f5 e83c 864a b43b
00000140: deba ee3c 03fa 793c 3ca0 1a3d 371f ed3b
00000150: db85 2e3d f212 e83c b551 203d fc88 803d
00000160: 9f8f bf3b 801b 843c 0cee 0a3d 6ab8 b93c
00000170: a1d6 283d f931 d13c ffdc ac3b ee32 283a
00000180: 4a0b 273d 132a 353c bf8a 043b ad6b 1f3d
00000190: 6186 1c3d d1d8 053d e58e 983b 7d26 b23c
000001a0: 4af9 453d 90c8 023d 67c0 b13b 19e0 693c
000001b0: 882f ba3c 2bf2 ee3b 94a8 143d ca23 93bc
000001c0: 94a1 d83b 9937 cb3c 4e85 bc3c ab13 6a3c
000001d0: 913f 453c 0a9c 063d 6cad 893c 7e21 823a
000001e0: a8c4 963d 2d90 683c 83b9 75bc b5ad 5c3c
000001f0: 7542 853c f0c8 773b b96a 9e3c 29a0 133d

network_body._body_endoder.seq_layers.0.weight f4 [128, 99]
0.014741729 0.15479855 0.34667385 -0.14088193 0.24836528 -0.14726694 0.08732537 0.10851061
0.049786877 -0.15965757 -0.21711066 0.13541073 0.06470567 -0.18448178 -0.106572784 0.049650364
-0.11161792 -0.1333302 0.038396083 -0.15056792 -0.06325816 0.23317643 0.19414233 0.09448373
0.025237635 0.14775701 -0.003800835 -0.08977309 0.03705574 0.07166354 0.099452816 -0.11685308
0.1494178 0.091751635 -0.027474476 0.118806474 0.14553396 -0.11019814 0.01927059 -0.026345778
0.14560568 -0.12349656 0.19473264 -0.004035998 -0.038369 0.12931287 0.005065255 -0.071988106
-0.06104059 0.22851034 -0.21765496 0.038301975 -0.062133834 0.0369381 0.15677166 0.010845566
0.12690909 0.00055964553 0.096910976 -0.14104821 0.056474797 0.12820755 0.10105838 0.07224606
0.26887944 0.15745464 0.20877267 0.031494 0.07978728 0.066937774 -0.022010341 -0.17639571
0.106691875 0.15822752 0.18263282 -0.08340371 -0.03237872 0.048097234 -0.01435772 0.00035771538
-0.03546388 -0.040578905 0.025698056 0.13912937 0.06763183 -0.0036843922 0.23249507 0.11535183
-0.089854084 -0.076777324 -0.05167158 -0.034846157 -0.11600108 -0.062341474 -0.06743233 -0.03156268
-0.11431426 0.054167997 0.070026696 -0.21484831 0.08057657 -0.061250146 0.121242225 -0.0399484
-0.19103545 -0.0139871165 0.021765027 0.09471857 0.14416051 -0.02563931 0.025140062 -0.05680734
-0.14637993 -0.16326948 -0.0696759 0.054453067 0.006244344 -0.016385047 0.07149832 -0.13586806
-0.07716152 -0.0610484 -0.05637112 -0.078720234 -0.15595193 -0.15248679 0.021594968 -0.11667969
-0.038903836 0.010936222 -0.160698 0.0659217 -0.1878933 -0.014064232 0.15425764 0.31012166
-0.19454795 0.09292605 0.07454715 0.3425267 0.059610806 -0.037689168 0.047285397 -0.1377835
-0.09546266 -0.07126112 -0.05206773 -0.024635827 -0.016801596 0.10893828 0.1586322 -0.18134482
0.11531727 0.1367671 -0.071860604 -0.11498724 -0.1462157 0.058152236 -0.027418371 0.18531288
-0.0728765 0.18417445 -0.080200486 -0.0044322074 -0.09840449 0.03168203 -0.029277733 0.06391571
0.022487208 -0.079022944 -0.056975145 0.1017022 0.048574682 -0.10550448 -0.11515494 -0.04109495
-0.043345615 0.022148827 0.022089805 0.0084732855 0.083685465 -0.013471404 0.13543962 0.13329498
-0.016493998 -0.028587118 -0.054909047 0.17621474 0.12712927 0.093704864 0.16589656 -0.03252838
-0.25101346 0.17064686 0.04686687 -0.028342022 -0.06408734 0.10390749 -0.3064094 0.109897606
0.11886853 -0.03972792 -0.02333136 -0.037402056 0.0059177233 0.07825841 0.17365286 -0.070393465
-0.22807226 0.10733383 -0.08205068 -0.16504923 0.13898256 -0.07031303 0.006223077 0.14645407
0.018185167 0.030875603 -0.073587514 -0.06651666 0.006059585 0.0377838 0.15881221 -0.042848438
-0.22754501 0.09658409 -0.0363129 0.008352773 -0.088201106 -0.057099786 -0.07495287 -0.04950702
-0.13185038 0.07196055 0.09916318 0.06451779 0.15656947 0.022350306 0.17746156 -0.055946767
-0.23979862 -0.11436989 -0.03749201 -0.10966146 0.12783805 0.06722782 -0.0372041 0.17117211
0.13191369 -0.04461949 0.057385467 -0.006864447 0.09434334 -0.0019606221 0.05667357 -0.06944886
00000000: 4b87 713c 8383 1e3e 3c7f b13e 5a43 10be
00000010: 7853 7e3e 25cd 16be a5d7 b23d d03a de3d
00000020: 53ed 4b3d 467d 23be 4252 5ebe 1ca9 0a3e
00000030: 6884 843d cbe8 3cbe d542 dabd 2e5e 4b3d
00000040: f097 e4bd b687 08be 3645 1d3d 7a2e 1abe
00000050: 7f8d 81bd cdc5 6e3e 3fcd 463e b080 c13d
00000060: 28bf ce3c 9d4d 173e 6e17 79bb f4da b7bd
00000070: c2c7 173d 56c4 923d ebad cb3d ab50 efbd
00000080: fb00 193e 48e8 bb3d 2712 e1bc cf50 f33d
00000090: db06 153e 90af e1bd 5bdd 9d3c 1ad3 d7bc
000000a0: a819 153e c4eb fcbd fe67 473e 6840 84bb
000000b0: d028 1dbd 986a 043e 70fa a53b 806e 93bd
000000c0: b305 7abd 9dfe 693e f1e0 5ebe 88e2 1c3d
000000d0: 0c80 7ebd 684c 173d c088 203e 9ab1 313c
000000e0: 75f4 013e 2db5 123a 4379 c63d f16e 10be
000000f0: 1e52 673d d748 033e b2f7 ce3d bef5 933d
00000100: 91aa 893e ca3b 213e 81c8 553e daff 003d
00000110: 8367 a33d ac16 893d 084f b4bc 14a1 34be
00000120: 4581 da3d 6506 223e 1904 3b3e 90cf aabd
00000130: 8c9f 04bd 9b01 453d a43c 6bbc bf8b bb39
00000140: 9342 11bd 1136 26bd bb84 d23c ee77 0e3e
00000150: 8f82 8a3d d875 71bb 3013 6e3e 953d ec3d
00000160: 6b05 b8bd 6e3d 9dbd 94a5 53bd d8ba 0ebd
00000170: f991 edbd c659 7fbd f619 8abd de47 01bd
00000180: 981d eabd 43df 5d3d 286a 8f3d 3201 5cbe
00000190: 5405 a53d 6fe1 7abd d84d f83d efa0 23bd
000001a0: cc9e 43be 382a 65bc 924c b23c cffb c13d
000001b0: d09e 133e 8809 d2bc 88f2 cd3c d0ae 68bd
000001c0: 9fe4 15be 1d30 27be 3db2 8ebd 2e0a 5f3d
000001d0: 5b9d cc3b ef39 86bc b66d 923d ff20 0bbe
000001e0: dc06 9ebd e30d 7abd 67e5 66bd 1338 a1bd
000001f0: ddb1 1fbe 7f25 1cbe eee7 b03c c3f5 eebd
00000200: a159 1fbd d72d 333c 048e 24be f501 873d
00000210: 1a67 40be aa6d 66bc b7f5 1d3e 44c8 9e3e
00000220: 9437 47be 0350 be3d 2dac 983d a95f af3e
00000230: 762a 743d f55f 1abd 55ae 413d 1e17 0dbe
00000240: ed81 c3bd 5af1 91bd f944 55bd 13d1 c9bc
00000250: 80a3 89bc 081b df3d 7b70 223e 75b2 39be
00000260: 762b ec3d ad0c 0c3e a72b 93bd 6e7e ebbd
00000270: 92b9 15be 0a31 6e3d 7e9c e0bc a9c2 3d3e
00000280: 4640 95bd 3a98 3c3e 2740 a4bd 0d3c 91bb
00000290: 4b88 c9bd 04c5 013d dbd7 efbc 3de6 823d
000002a0: 1837 b83c c8d6 a1bd c55e 69bd 3e49 d03d
000002b0: 3ff6 463d bc12 d8bd 5ad6 ebbd 2e53 28bd
000002c0: 2c8b 31bd 7571 b53c aef5 b43c 89d3 0a3c
000002d0: 4963 ab3d 2ab7 5cbc afb0 0a3e 7b7e 083e
000002e0: 6c1e 87bc 882f eabc 4fe8 60bd a371 343e
000002f0: 2d2e 023e 56e8 bf3d cae0 293e 7b3c 05bd
00000300: d684 80be 0dbe 2e3e 7af7 3f3d 872d e8bc
00000310: 3940 83bd 73cd d43d b1e1 9cbe ff11 e13d
00000320: 5871 f33d beb9 22bd 6921 bfbc e632 19bd
00000330: 76e9 c13b f245 a03d 0ed2 313e 732a 90bd
00000340: c68b 69be d7d1 db3d 300a a8bd aa02 29be
00000350: 7251 0e3e 4700 90bd f4ea cb3b 0ef8 153e
00000360: 0ff9 943c d5ee fc3c 0db5 96bd e339 88bd
00000370: 7c8f c63b 30c3 1a3d ab9f 223e d881 2fbd
00000380: 8f01 69be e1cd c53d d6bc 14bd 12da 083c
00000390: c8a2 b4bd 77e1 69bd e480 99bd dfc7 4abd
000003a0: c903 07be 0e60 933d 1116 cb3d e721 843d
000003b0: bf53 203e fd17 b73c 7cb8 353e 7028 65bd
000003c0: c58d 75be c33a eabd 3991 19bd 3096 e0bd
000003d0: fae7 023e bdae 893d 5463 18bd be47 2f3e
000003e0: 6214 073e edc2 36bd 060d 6b3d 28ef e0bb
000003f0: 1537 c13d c87d 00bb 8c22 683d 343b 8ebd

network_body._body_endoder.seq_layers.2.bias f4 [128]
0.026888318 0.030469902 0.02610164 0.0126193855 0.027035875 0.01879973 0.010283937 0.026198633
0.040875707 0.020091744 0.02860475 0.008615884 0.014967058 0.014232056 0.0068222783 0.012709602
0.0215385 0.013074717 0.023759902 0.006516954 0.0347017 0.019196063 0.010997328 0.017409397
0.010247409 0.019066924 0.0027604916 0.031846527 0.021645863 0.0108932555 0.011199617 0.032834224
0.025410108 0.022689603 0.008046503 -0.0005443995 0.043601844 0.02466639 0.015339305 0.027285086
0.022986315 0.039188363 0.019671123 0.013067975 0.019360418 0.020138301 0.009056182 0.037961334
0.027631292 0.012051674 0.036662977 0.05666317 0.0076716375 0.019522946 0.021570208 0.023117151
0.016702887 0.022288455 0.03013228 0.022308731 0.021350147 0.017849097 0.011205843 0.029777788
0.033684928 0.023236213 0.030712754 0.025832605 0.02118995 0.022689192 0.009215062 0.016060231
0.039753508 0.00085451605 0.021615565 0.027555952 0.02328415 0.004108399 0.02178706 0.029877143
0.008946846 0.025120145 0.013376676 0.009699822 0.027898228 0.011548789 0.039751712 0.02391008
0.013886904 0.017953757 0.0092310915 0.024841195 -0.0013334814 0.024164278 0.036288366 0.0024037028
0.028251892 0.021656867 0.023684489 0.034075327 0.012810455 0.039903082 0.018234057 0.024659889
0.033319302 0.023208527 0.045857564 0.020045893 0.015031377 0.018565493 0.009311696 0.012414606
0.026219705 0.0033538742 0.020400649 0.014292005 0.01603814 0.011726181 0.01511166 0.027692048
0.02910411 0.026486494 0.021252213 0.010903307 0.032120578 0.018734632 0.028389541 0.018852338
00000000: e444 dc3c 049c f93c 1bd3 d53c 8ac1 4e3c
00000010: 577a dd3c e401 9a3c f57d 283c 849e d63c
00000020: 496d 273d 7197 a43c 8254 ea3c a329 0d3c
00000030: 6438 753c 922d 693c 6b8d df3b ef3b 503c
00000040: 8271 b03c 5637 563c 20a4 c23c 2c8c d53b
00000050: 5f23 0e3d 1041 9d3c 232e 343c 279e 8e3c
00000060: c0e4 273c 3d32 9c3c 5de9 343b 8171 023d
00000070: aa52 b13c a079 323c 997e 373c 2e7d 063d
00000080: dc28 d03c 8cdf b93c 7bd5 033c 08b6 0eba
00000090: d997 323d 2b11 ca3c b551 7b3c f984 df3c
000000a0: cc4d bc3c fa83 203d 5625 a13c 0f1b 563c
000000b0: bd99 9e3c 14f9 a43c 6160 143c 587d 1b3d
000000c0: 055b e23c 6274 453c eb2b 163d a417 683d
000000d0: 5c62 fb3b 96ee 9f3c 01b4 b03c 2e60 bd3c
000000e0: 7ed4 883c 4796 b63c f9d7 f63c cdc0 b63c
000000f0: 81e6 ae3c 4538 923c b698 373c 8cf0 f33c
00000100: 35f9 093d df59 be3c 5099 fb3c e69e d33c
00000110: 8c96 ad3c afde b93c c5fa 163c bf90 833c
00000120: 93d4 223d 9a01 603a 2013 b13c 05bd e13c
00000130: 67be be3c c09f 863b c77a b23c e9c0 f43c
00000140: cb95 123c c3c8 cd3c d829 5b3c 01ec 1e3c
00000150: d38a e43c 2237 3d3c b1d2 223d 12df c33c
00000160: e685 633c c213 933c 013e 173c c37f cb3c
00000170: 36c8 aeba 2af4 c53c 1ca3 143d 7187 1d3b
00000180: 8370 e73c be69 b13c f905 c23c 9292 0b3d
00000190: f1e2 513c 6a71 233d 975f 953c 8903 ca3c
000001a0: d279 083d cf1f be3c 24d5 3b3d 4937 a43c
000001b0: 2a46 763c a916 983c 1590 183c a266 4b3c
000001c0: b5ca d63c accc 5b3b 431f a73c 0429 6a3c
000001d0: 6b62 833c 2b1f 403c e596 773c 6fda e23c
000001e0: be6b ee3c 34fa d83c 1f19 ae3c c9a3 323c
000001f0: de90 033d 5f79 993c 2f91 e83c 3870 9a3c

network_body._body_endoder.seq_layers.2.weight f4 [128, 128]
-0.020167531 -0.15779004 0.037674155 -0.03349531 -0.039575562 -0.0321869 -0.11794236 0.09881803
-0.13485284 0.014995294 0.07530291 0.00073000474 -0.004591386 0.20071676 -0.022667667 0.012035115
-0.16911164 -0.027556952 -0.11089395 -0.11944773 -0.1894723 -0.12095354 -0.09205058 -0.11020309
-0.029281363 -0.015626268 -0.016147055 0.053043216 -0.08901513 0.15629765 -0.0074208346 0.005884393
0.08001574 0.121710636 -0.08746958 -0.04517166 -0.115051635 0.06003082 -0.029651565 0.035021886
0.13415325 0.0815609 -0.0671577 0.100091875 0.18953802 0.108408876 0.13933565 -0.16265981
0.008303098 0.13414808 0.0991501 0.10510779 0.2014449 -0.0045501664 0.06470939 0.05953812
-0.08550787 -0.08166735 0.017858833 0.0043973285 -0.1830669 -0.03240714 -0.13692977 -0.20131342
0.05656166 0.010015084 0.06302736 0.029975934 0.15733227 0.119249076 0.0044910135 -0.04099289
0.052977066 -0.13841636 0.014852649 -0.017089212 0.22038186 0.14373514 -0.021279834 0.27584872
0.03048035 0.027178515 -0.021290919 -0.23045714 0.08356062 -0.12675534 -0.053959973 0.068760104
0.12932462 -0.02122705 -0.019932998 0.032983646 0.053628024 0.0043535824 -0.16691598 -0.011542051
0.18564689 -0.0041321213 -0.028375013 0.04130758 -0.029655814 -0.028580178 -0.04538255 0.117166124
0.024149528 0.07376013 -0.050664797 0.10724795 0.004515827 0.00013447959 -0.1739739 -0.19797178
-0.004829661 0.22046348 -0.1865757 -0.27704966 -0.06698748 0.066111386 -0.1133892 -0.106871806
-0.011983963 0.016113024 -0.00059831183 0.03654174 0.047306288 0.13138363 -0.077780135 -0.04176205
0.1804158 0.09436357 0.096760936 -0.08053409 -0.032921847 0.05293059 -0.0002485668 -0.018900977
0.22254866 -0.2098522 -0.074564606 -0.04436956 0.043357458 -0.019951047 -0.06393936 -0.07341625
-0.1334467 0.08929834 0.058767363 0.08177748 0.14522548 0.091025315 -0.032810148 0.12249145
-0.060365602 0.009791122 0.17392202 0.050381858 -0.06376254 -0.04746425 0.014054799 0.052591022
-0.15381867 -0.061997578 0.0719345 -0.09442604 0.12917577 -0.16226828 0.051332943 -0.074653104
-0.06349408 -0.28371271 0.12488575 -0.1019933 -0.042670403 -0.052828718 -0.005829202 -0.02767002
-0.010871898 0.0855068 -0.2559885 0.09247063 -0.030106798 0.07790078 0.0077637434 -0.005104842
-0.08876734 0.18760508 -0.04597344 0.15415514 0.15930867 0.004444198 -0.094956815 0.1309764
0.024461558 0.077234834 0.16225386 0.13195588 -0.03479861 0.08030692 0.039091118 0.0022509731
-0.09019253 0.14126109 -0.059846617 -0.18471438 -0.11160772 0.18568407 0.015227262 0.048748776
-0.03361789 -0.019894313 -0.07339446 0.028804716 -0.05574316 -0.015365719 -0.22359812 0.20117997
0.035263076 -0.075054735 0.011047522 -0.12944837 -0.080995746 0.19350548 -0.027253898 0.028164355
-0.022617253 -0.05490559 0.0530383 -0.09030056 -0.044118747 -0.0168806 -0.28239304 0.03445872
-0.00497203 0.105113365 -0.00820751 -0.1500092 0.13013498 -0.092387676 0.102053754 0.05754304
0.081487924 -0.08641277 -0.17674202 0.061634533 0.142363 -0.2134014 0.17617032 -0.032674305
-0.10617998 0.09218986 -0.16415672 0.101062655 -0.041155547 -0.046083502 0.032411724 0.13746446
00000000: 6136 a5bc b693 21be 3750 1a3d 6132 09bd
00000010: fc19 22bd 69d6 03bd c48b f1bd 1b61 ca3d
00000020: dd16 0abe d2ae 753c 6938 9a3d ca5d 3f3a
00000030: 5673 96bb b288 4d3e 8bb1 b9bc ee2e 453c
00000040: 9a2b 2dbe 1ebf e1bc 5e1c e3bd 03a1 f4bd
00000050: 0705 42be 7db6 f7bd 0485 bcbd 28b2 e1bd
00000060: 78df efbc a902 80bc d446 84bc d843 593d
00000070: 914d b6bd 7e0c 203e 792a f3bb ded1 c03b
00000080: 4bdf a33d 6d43 f93d 4023 b3bd eb05 39bd
00000090: 31a0 ebbd e1e2 753d d7e7 f2bc 1c73 0f3d
000000a0: 785f 093e 6709 a73d fa89 89bd f8fc cc3d
000000b0: 4116 423e 7905 de3d 01ae 0e3e 4b90 26be
000000c0: b809 083c 1d5e 093e 350f cb3d c142 d73d
000000d0: 9247 4e3e 9019 95bb 5b86 843d 3ede 733d
000000e0: c01e afbd 3641 a7bd b04c 923c 7717 903b
000000f0: e475 3bbe 59bd 04bd 5137 0cbe 1b25 4ebe
00000100: 33ad 673d 4f16 243c 7d14 813d 1790 f53c
00000110: b61b 213e dc38 f43d 5a29 933b 29e8 27bd
00000120: 7bfe 583d 05bd 0dbe 8658 733c adfe 8bbc
00000130: c8ab 613e 4e2f 133e 0c53 aebc 0b3c 8d3e
00000140: edb1 f93c 7aa5 de3c 4b6a aebc f5fc 6bbe
00000150: d521 ab3d 27cc 01be 2205 5dbd 19d2 8c3d
00000160: ac6d 043e 5ae4 adbc 874a a3bc dc19 073d
00000170: 0fa9 5b3d 7fa8 8e3b 06ec 2abe df1a 3dbc
00000180: 381a 3e3e bf66 87bb b772 e8bc 2332 293d
00000190: c0f0 f2bc fa20 eabc 0ee3 39bd cbf4 ef3d
000001a0: 3bd5 c53c 8d0f 973d e485 4fbd d0a4 db3d
000001b0: 81f9 933b 1703 0d39 3726 32be 1db9 4abe
000001c0: 2242 9ebb 2ec1 613e b30d 3fbe 74d9 8dbe
000001d0: bb30 89bd 6865 873d 9938 e8bd 9bdf dabd
000001e0: 6258 44bc 76ff 833c 07d8 1cba cbac 153d
000001f0: 3dc4 413d 6e89 063e 314b 9fbd af0e 2bbd
00000200: ebbe 383e b041 c13d 992a c63d 0fef a4bd
00000210: 0fd9 06bd bfcd 583d 1252 82b9 39d6 9abc
00000220: cce3 633e 7fe3 56be 54b5 98bd dbbc 35bd
00000230: 9797 313d 6170 a3bc a4f2 82bd 425b 96bd
00000240: 40a6 08be 0ce2 b63d 0cb6 703d f47a a73d
00000250: fdb5 143e 7b6b ba3d ef63 06bd ccdc fa3d
00000260: ec41 77bd f16a 203c 9d18 323e 355d 4e3d
00000270: ef95 82bd e069 42bd 1a46 663c af69 573d
00000280: a482 1dbe 2cf1 7dbd 6552 933d 7162 c1bd
00000290: a746 043e a829 26be 7e42 523d bae3 98bd
000002a0: 2f09 82bd cb42 91be 1ac4 ff3d dde1 d0bd
000002b0: 29c7 2ebd ed62 58bd e402 bfbb 3dac e2bc
000002c0: 0c20 32bc 301e af3d ed10 83be 3e61 bd3d
000002d0: 88a2 f6bc 728a 9f3d 0067 fe3b 8546 a7bb
000002e0: a7cb b5bd 8c1b 403e a54e 3cbd d8da 1d3e
000002f0: d021 233e a3a0 913b b878 c2bd ad1e 063e
00000300: 9b63 c83c 4c2d 9e3d e025 263e 711f 073e
00000310: fd88 0ebd f477 a43d 021e 203d 1085 133b
00000320: dcb6 b8bd bfa6 103e ba21 75bd c425 3dbe
00000330: 9792 e4bd f723 3e3e c47b 793c ccac 473d
00000340: eab2 09bd 66f9 a2bc d64f 96bd def7 eb3c
00000350: f152 64bd 7fc0 7bbc e8f6 64be 1f02 4e3e
00000360: 0470 103d 4cb6 99bd aa00 353c 1d8e 04be
00000370: 19e1 a5bd 4d26 463e 9143 dfbc efb8 e63c
00000380: d147 b9bc afe4 60bd b03e 593d 80ef b8bd
00000390: dcb5 34bd 2f49 8abc d295 90be 9624 0d3d
000003a0: 69ec a2bb ad45 d73d cb78 06bc 039c 19be
000003b0: 1b42 053e c035 bdbd 8f01 d13d 40b2 6b3d
000003c0: 24e3 a63d 2ef9 b0bd dcfb 34be 7e74 7c3d
000003d0: 9bc7 113e e685 5abe fe65 343e 7ed5 05bd
000003e0: e474 d9bd 0ace bc3d b318 28be f0f9 ce3d
000003f0: b892 28bd 0ec2 3cbd 28c2 043d 7cc3 0c3e
