Assets/Models/2023-06-04_continuous_movement/My Behavior.onnx (onnx, 116357 bytes, 6 tensors)

action_model._discrete_distribution.branches.0.bias f4 [3]
00000000: 6d57 173c 5334 63bc 8397 bc3b
0.0092371525 -0.013867456 0.0057553663

action_model._discrete_distribution.branches.0.weight f4 [3, 128]
00000000: 777a 42bd fca8 c33d 2165 9c3d 93ce 5f3d
00000010: 6a6b 833d f8c1 e6bc 1b4e 283d d943 643d
00000020: a8b0 833d 18dd 9f3b a6ca 73bd c435 863d
00000030: 9719 a13b d7dc 863d 66ab b83c 97da b6bd
00000040: d735 23bc d89b 78bd 4e6e 2c3d a7ac 853d
00000050: d05c 48bd 0210 903c c383 593d f3c6 44bd
00000060: c3d9 85bd b21e e9bc 40e6 8cbd 8c4f 93bd
00000070: 492a ae3d 7136 36bd 405f f5bc 8b96 a0bc
00000080: ee90 73bd bd42 a6bd a219 87bd 6229 063d
00000090: 26e7 74bd f9e9 7fbd 4bd1 eabc 4305 1b3d
000000a0: 36df 893d 5e67 163d 03e3 b0bd b80e b3bc
000000b0: 0bf7 81bd dd3e a5bd 1472 9fbd 7219 83bd
000000c0: ab6c e3bb 9ad7 863c 9580 873d b78d 983d
000000d0: 78ba a9bd 8cc9 593d a267 b7bd 1b77 2c3d
000000e0: 422b e03c 8fde 253d aaa8 523d 3d98 11bc
000000f0: f3b2 dc3c 4c4c 753d 7ccb e33c f0dc 4abd
00000100: 678e 913d 594e bebd 4d4f 9a3d 90d4 413d
00000110: f4a8 77bb 6fdb 8bbd ba8d 9ebd 5f15 3b3d
00000120: 2ca5 533d 8ebb 80bd 1da2 823c 2f05 eabc
00000130: a2f5 58bc 4efb 99bd dfdf 553d abd9 7b3d
00000140: d8c4 83bd 5267 933d d91f 33bd b2a4 8a3d
00000150: 6bec 34bd d727 8bbd 55c0 8d3d 7fd3 adbd
00000160: f430 dbbc 7c0b 333d fa1e 073d eca6 3a3d
00000170: 4564 0fbd c214 5e3d 8612 00bd b129 43bd
00000180: 98cf 1ebd fcca 02bd 72c4 8a3d 6d40 8c3d
00000190: 9553 983d 6a04 b7bd ebc0 823d 8542 93bd
000001a0: 82ef 53bd 76de ce3c e452 703c eda1 7bbd
000001b0: f6d1 4a3d 140a a33d a4f2 26bd 02e5 c93c
000001c0: da2e 93bd 1cdb dd3c dd3b 5e3d 5591 75bd
000001d0: 7bb1 3bbd 0a93 aabd 133c 363d a346 703d
000001e0: 15bd 9a3c fa61 c13c d33c 4f3d bea5 8fbd
000001f0: 835e a33d c4ad 373d 3c5b 313d e75c bc3b
00000200: 5a26 3c3c e7bf 76bd 8e79 b2bd 43ba b93c
00000210: 79b6 8ebb 21a8 17bd 4c05 2bbb fbad 8c3c
00000220: 9a31 c5bb ae7c 9f3c 0a94 d8bc 1677 d2bb
00000230: 773f 97bd 46b5 ef3b a869 0b3d b1b4 493b
00000240: b735 7bbd c0a0 a63c 140f 353b e759 263b
00000250: 18ca 65bd a473 703c 53c4 76bd 87b7 943c
00000260: f453 b0bb a162 65bd ff54 eb3c f49a abbb
00000270: 22de 03bd d16a b5bc 911f a6bd 8145 f8bc
00000280: 440f 59ba 8b8b 293d 62ef e23c c246 3f3b
00000290: 1542 17bc 982b febc 9707 1ebb 7c94 e23b
000002a0: 70e4 e8bc 9511 ac3c 6a65 4cbc a78c 353d
000002b0: 672d 13bb 05b0 0b3d 16db a3bc ef97 87bb
000002c0: f36a cd3c 14b2 163d a000 abbd 0af8 a5bd
000002d0: bb35 b63b f443 283c 3c09 023d 3056 383c
000002e0: d55f 193d b8f7 c13b 66b4 01bc 11a1 973c
000002f0: ad09 213d 7138 803c 0a20 193d 8ce3 3bbd
00000300: 65c6 07bc 5ec0 58bb 407b 0fbd cc41 da3c
00000310: 0a2e 5bbd f4b6 7cbc 4e44 53bd 4e34 3dbd
00000320: f2b2 813c dd03 1a3d e653 a5bd f383 1c3d
00000330: f0b3 3dbd a7d6 fcbc 4c73 7cba 4ce6 f43c
00000340: 5d39 313d 9fc2 12bd 9ea8 8b3c 822f 983b
00000350: a53a fc3c d382 ebbb 3814 8cbd a264 263d
00000360: b02b e73c d746 153c 7275 073d fca9 a6bd
00000370: 0985 133c 4957 003c 46f8 183d 0118 823c
00000380: 3b0b 55bd 09b2 30bc 014c aebd b24b e53b
00000390: f6cf 61bc 7db9 923c b7d8 86b8 97f2 353d
000003a0: 7201 33bd f26a debc 52b6 5d3d 63c5 29bc
000003b0: 05ed 84bc b88a 43bd 9120 3dbd c010 3f3d
000003c0: 81ec 5cbc ba4e 073d aba4 193b becf 083c
000003d0: bc7b 053c 3156 da3a 9e59 383c b8ee 833b
000003e0: c5ee 1f3d 9455 663d 979e 183d 6f9b 853c
000003f0: 60ee 14bd 1890 7b3c c392 f4bb ae83 253d
-0.047480073 0.095537156 0.07636476 0.054640364 0.06416972 -0.028168663 0.041090112 0.055728767
0.06430179 0.0048786514 -0.059519432 0.06553224 0.0049163806 0.065850906 0.022542667 -0.089284115
-0.009961567 -0.0606955 0.042097382 0.065270714 -0.048916638 0.017585758 0.053104173 -0.048041295
-0.065356754 -0.02845702 -0.06879854 -0.07192907 0.08504159 -0.044485513 -0.029952645 -0.019603034
-0.059464388 -0.08118198 -0.06596686 0.03275431 -0.059790753 -0.062478993 -0.028664252 0.037846815
0.06732027 0.036719672 -0.08637049 -0.021857604 -0.06345948 -0.08068631 -0.077854306 -0.06401338
-0.0069404445 0.016460229 0.06616322 0.07448905 -0.08287519 0.053170726 -0.08955313 0.042105775
0.027364377 0.04049545 0.05143038 -0.008886394 0.026940798 0.059887215 0.02780699 -0.04952711
0.07107239 -0.092922874 0.07534657 0.047321856 -0.0037789913 -0.06828963 -0.07741876 0.045674678
0.051671192 -0.06285773 0.015946442 -0.028566925 -0.013242157 -0.07518636 0.052215453 0.06148688
-0.06434029 0.07197441 -0.043731544 0.067696944 -0.04417078 -0.06794708 0.0692145 -0.08487605
-0.026756741 0.043712124 0.032988526 0.045569345 -0.035007734 0.054219015 -0.031267665 -0.047647182
-0.038772196 -0.031931862 0.0677575 0.06848226 0.07437817 -0.08936389 0.063844524 -0.07190422
-0.051742084 0.025252562 0.0146682 -0.06143372 0.04951664 0.079609066 -0.040758744 0.024645332
-0.071866706 0.027082019 0.05425631 -0.059953053 -0.045823555 -0.08328827 0.044490885 0.058661114
0.01888899 0.02360629 0.050595116 -0.07014035 0.07977011 0.04484345 0.0432999 0.0057483795
0.011483753 -0.060241606 -0.08714591 0.022671824 -0.0043552485 -0.037025575 -0.0026095686 0.017172804
-0.006017876 0.019468632 -0.026437778 -0.0064228876 -0.07385152 0.0073153106 0.03403631 0.0030777866
-0.061330523 0.020340323 0.0027627395 0.0025383176 -0.056100935 0.014676008 -0.060245823 0.018153919
-0.0053811017 -0.056002263 0.028727053 -0.0052369777 -0.032194264 -0.02214566 -0.081114896 -0.03030658
-0.0008280168 0.041392844 0.027702037 0.0029186462 -0.009232064 -0.031026646 -0.002411341 0.0069146734
-0.02842924 0.021004478 -0.012475351 0.04432359 -0.0022457482 0.034103412 -0.02000193 -0.004137985
0.025075411 0.036790922 -0.083497286 -0.0810395 0.0055606044 0.010270108 0.031747088 0.011251017
0.03744491 0.005919423 -0.0079165455 0.01850942 0.03931587 0.015651913 0.03738407 -0.045871302
-0.008287047 -0.0033073644 -0.03502965 0.026642703 -0.053510703 -0.015424479 -0.051578812 -0.04619246
0.015832398 0.03760134 -0.08072643 0.038211774 -0.04631418 -0.030864073 -0.00096302177 0.02989497
0.043267597 -0.035830136 0.017048176 0.0046443352 0.030789683 -0.0071872263 -0.06839794 0.040623315
0.028219074 0.009111128 0.03307099 -0.08137891 0.009003886 0.00783331 0.037346147 0.015880587
-0.052012663 -0.010784634 -0.0851059 0.006997549 -0.013782492 0.017910713 -6.429984e-05 0.044420805
-0.04370255 -0.027150605 0.054128952 -0.010362002 -0.016226301 -0.047739714 -0.046173636 0.046646833
-0.013484121 0.033034064 0.0023444097 0.008350311 0.008147176 0.0016657767 0.011251835 0.00402626
0.039046068 0.056233957 0.037260618 0.016309468 -0.036360145 0.015354179 -0.0074637844 0.040408783

network_body._body_endoder.seq_layers.0.bias f4 [128]
00000000: d2fa 543c a748 e93c 45bc b73b e3af 603d
00000010: e367 a23c 76ee 723c 6109 173d 0f90 dd3c
00000020: 47e7 893a b503 c53c bec8 7fbd 461d bf3c
00000030: 0124 8f3c efe8 aa3c a1a9 823c 7cd3 4cbc
00000040: 7ff4 d23c 2a26 c23c 2daa 07bd 6892 163d
00000050: 6807 34bc c42a 88bc 33e3 d83c 5861 d3bb
00000060: 9d8e 123d 1f6b 4c3c 424f 0a3c df7c b53c
00000070: 5852 7ebc 7b3e 243d b999 723c 8aa8 0a3d
00000080: e4e0 273c d99a 1f3c 17f9 ec3c b907 b83c
00000090: 640e be3c 5157 4e3d 7231 2d3d ae83 1f3c
000000a0: 6346 143d 065b 2b3d c38a 353d 5978 d23c
000000b0: 9445 953c 0d86 503d f746 263d 5193 643b
000000c0: 09f2 dd3c 888c 8a3b dedc c13c 5fba e23b
000000d0: 2d06 2f3d 4172 c83c 8cba d53c 9c56 c83c
000000e0: 4ef0 8d3c d627 8c3c 357b 9d3c fad3 603b
000000f0: 50ed 133c 6717 963c 7170 be3c 72d4 163d
00000100: 36ca 623c a521 3abc 8c2d f23c a7f6 9d3c
00000110: aba1 073d 23f9 e13c 6b3e 193b 64a7 79bb
00000120: 9bce 9d3c 54cb a73b 44fc bdba c4d6 8ebd
00000130: cb3e 263d 7f61 cd3c 7667 6fbd 14b3 f33c
00000140: 5ebe d43c 872c babc e0c6 db3c a6ba 923c
00000150: c087 583d d800 f93c 3fcc 003d b2d3 943c
00000160: e5fe a23c bbf4 953c 0b18 fd3b 6dd2 6cbc
00000170: 931b 4c3c ff4d 60bc 36fa 2c3b 84f8 9f3c
00000180: 2936 0abd d9e6 243d 7aa0 da3c 4731 f03c
00000190: a571 d63c 34b7 043d 3fbd a83c d1b7 8b3b
000001a0: f92d d73b 2dae d73c 0da7 213a 7fa7 1a3d
000001b0: 4712 fb3c 3350 023c ecca 3e3c df46 6d3c
000001c0: 61d9 803b 058f 193c 2713 f53b 20e3 6c3c
000001d0: e96d 983d a89d bd3c 37bf 083d 9e35 223d
000001e0: 476c 393c d9c2 033d 3ea2 123d 7dfb f03a
000001f0: ad60 493d 43a8 0b3d f5e0 b63c 8973 093d
0.012999253 0.028477026 0.0056071603 0.05485524 0.019824928 0.014827361 0.03687418 0.027046232
0.0010521197 0.02404962 -0.062447302 0.023329388 0.017473223 0.020863025 0.015950026 -0.012501594
0.02575135 0.023699839 -0.033121277 0.036760718 -0.010988094 -0.016621955 0.026475525 -0.0064508133
0.035780538 0.0124767115 0.008441748 0.02215427 -0.015522562 0.04009865 0.014807158 0.033852138
0.010246489 0.009741508 0.028927369 0.02246462 0.023200221 0.05037624 0.042283483 0.009735985
0.03619994 0.041834854 0.044321787 0.025692152 0.018221654 0.05090909 0.04059502 0.0034877846
0.02709295 0.0042281784 0.023664888 0.00691919 0.0427305 0.024468543 0.026089929 0.024455361
0.0173265 0.017108839 0.019223789 0.0034306035 0.009028748 0.018321706 0.023246976 0.036823697
0.013842156 -0.011360561 0.029562734 0.019282652 0.033113163 0.027584618 0.0023383151 -0.0038094157
0.019263556 0.005120674 -0.0014494737 -0.06974557 0.040587228 0.025070904 -0.058448277 0.029748477
0.02596968 -0.02272631 0.02682823 0.017911267 0.052863836 0.03039591 0.031444784 0.01816735
0.019896934 0.018305173 0.0077238134 -0.014454466 0.012457746 -0.013690471 0.0026394255 0.019527681
-0.033743057 0.040259216 0.02668785 0.029320372 0.026177237 0.03240128 0.020598052 0.004263856
0.0065667597 0.02632817 0.0006166555 0.037757393 0.030648364 0.007953691 0.01164506 0.014482229
0.0039321636 0.009372477 0.00747909 0.014458448 0.07442839 0.023146465 0.03338548 0.039601915
0.011317319 0.032168243 0.035799257 0.0018385496 0.049164463 0.034096014 0.022324065 0.03355745

network_body._body_endoder.seq_layers.0.weight f4 [128, 90]
00000000: 5fcf ea3c 31df 86bc 2803 0cbd 3445 c8bd
00000010: 4926 613c 67bd 2c3c 58e3 923c ebd2 9fbe
00000020: b5ad 17be f24c a6bd c614 833d 5d52 9c3d
00000030: 2b4a 58be 71af 943d 8e00 72be 41db 69bb
00000040: d883 653b 8d89 9a3c 79ed d2bc 3506 34be
00000050: fa23 083e 411e a8bd 7578 7bbe 8bfa 09be
00000060: 213d 2ebe b2f8 38be 8d6a 17bd c104 713d
00000070: b23f 813c 04d2 a83d 0ac0 41be 2ed8 5abd
00000080: 38b8 56bd 6f50 83bd d9d2 c2bd 2542 89bd
00000090: fca0 a03d 3350 c83d 516e 893d fc41 4d3c
000000a0: fdb8 803e 3b5c 35be ed14 453d ba0a dd3c
000000b0: 2c29 91bd f7e1 c23d ac3f 8e3d 14c4 de3c
000000c0: 742b f3bd 22df e7bd 02f8 493e 2a57 aa3d
000000d0: 37e4 6b3e 402d d2bc 2376 07be a7c2 373e
000000e0: 40f8 513e e1bb 17bc 5768 553e abd4 b43c
000000f0: d099 0a3e 268b 79bb 5bf1 363d b747 4e3e
00000100: 71f8 bf3d 2893 b6bc 9ea0 8abd 8e29 0ebe
00000110: 6052 0fbe f160 3cbd e42d 62bd eff2 e5bc
00000120: 9e2d babd bae2 0fbd 3039 443b 3918 593e
00000130: 815d 98bd 8306 dfbd 843d 9c3d fe30 09ba
00000140: 098e f5bd 93c0 20be 2ce7 e13d 2740 55be
00000150: 59ed c5bd cd60 963e 1143 02be 49de 89bc
00000160: 0e53 443d 0199 e33d 86b8 3f3e 6ba0 3ebd
00000170: e17f 5abe 7c8a b4bd d502 0d3d c584 033e
00000180: 327d e1bd ba4a f53b 55e3 843d 0be1 453d
00000190: 5e3d 46bd dbf1 793b 873d 11bd 95fd 063e
000001a0: d5ae ab3d 3739 7e3e cfe1 823c 3913 07bd
000001b0: e06e 253c 366b 993c 030c 5f3d cd33 e43d
000001c0: 41d2 a13d e83b 1e3e c35c 883d 6ca1 863c
000001d0: 2126 cf3c 7643 40bd 5c77 173c 1521 393e
000001e0: 9db0 c13c 359e 53be 62d4 873d c344 a13d
000001f0: 3d77 143e f52c 763d e30f 813d 2eab de3d
00000200: e96f 8c3c abb3 2ebe 2ff4 f1bd e090 bfbb
00000210: d5c8 d23b ecb4 5f3e 5613 833e c2b2 eebd
00000220: 1752 e6bd baa5 cebd ac1b 1c3d 393b 423e
00000230: e73f 6dbc 988d 763c 8d31 e8bd e5d1 823d
00000240: a330 f73d 7c1b 033d c183 ffbd 7d53 ef3b
00000250: 63fb 47bd ea53 903d 97d3 f43d 5a80 d6bd
00000260: a687 5ebd d471 7b3b 7733 de3c 8d07 2bbd
00000270: 4a64 e6bb 1036 68bc 8027 663d b24b 07bd
00000280: 6953 003d e109 8d3c f156 443c 9ac6 e23d
00000290: 5486 0b3e 4426 fdbd 3a7a 14bd c018 3ebc
000002a0: 2974 b53d 3680 0abe d7eb 363c 2914 5abd
000002b0: 29af fd3d 1909 463b 3ae2 e13b 0018 8dbd
000002c0: 1228 05be 9166 de3d f97c 27bd c24a ef3d
000002d0: fdba c9bd a468 8a3d fefa 293e 3628 44be
000002e0: 16e9 033d 64a3 89be cd31 0ebe 8f26 0d3d
000002f0: 6225 8b3c 03e3 1b3d 7ad6 07be 70c3 80bd
00000300: 2c54 1f3e 751e 5dbd 3092 7ebc 5973 f63a
00000310: 01a2 fc3d 1256 aa3e 559b 023e c0fc b83b
00000320: 2908 1abe 3489 243e e095 00be 635b 06be
00000330: 7af9 ffbd 1e37 efbd c496 edbd 64cd 1f3e
00000340: 242a d7bb 6283 783d 3627 013d ce56 97bd
00000350: 6448 fc3d 87b6 e6bb 90b6 6dbd 2fb3 0c3e
00000360: 2e37 f0bc 2bc8 08be 0e14 c33d 977b 393d
00000370: 8a29 5c3d 5a30 923b 8921 f5bc 6518 933c
00000380: 9062 8dbd d361 0cbe f426 1d3e 0e73 02be
00000390: 30cf 613c e12b 093e edfb 48bd 5e08 c53d
000003a0: cdbf d93d 4343 643b 2ab3 10be 2401 1cbe
000003b0: f1c3 bbbc 6da9 843c db7f fd3d 58cd af3d
000003c0: 3a70 9bbd 562b ee39 a2ac ca3c 968a c2bd
000003d0: bd25 8c3c 078e cc3c a434 6b3b 8220 30be
000003e0: f39e 143c e3fa 053e c13c 89bb a40c a5bd
000003f0: 9350 38bd 40fa 6dbd f887 143e e60e 573c
0.028663335 -0.016463848 -0.034182698 -0.097788244 0.013742038 0.010543204 0.017930672 -0.31215605
-0.14812358 -0.08120145 0.064004466 0.07632897 -0.21122043 0.07260025 -0.23633024 -0.0035683664
0.0035021212 0.018864417 -0.025748001 -0.17580493 0.13294974 -0.082088955 -0.2455767 -0.13474481
-0.17015506 -0.1806362 -0.03696685 0.058842424 0.015777443 0.08243182 -0.18920913 -0.05342882
-0.05242178 -0.06411826 -0.09512872 -0.06702069 0.07843205 0.09780922 0.06710494 0.012527939
0.25141135 -0.17710964 0.04811566 0.026982654 -0.07087931 0.095157556 0.06945738 0.027193107
-0.118735224 -0.11321856 0.19723514 0.083174065 0.23036276 -0.025656343 -0.1322866 0.17945348
0.20504856 -0.009261102 0.20840584 0.022074064 0.13535237 -0.0038077324 0.04466377 0.20144545
0.09373558 -0.022286966 -0.067689165 -0.1388304 -0.13996267 -0.045990888 -0.055219546 -0.028069941
-0.09090732 -0.035128333 0.0029941313 0.21200646 -0.074397095 -0.10889914 0.07628921 -0.00052334357
-0.11989982 -0.15698461 0.11030421 -0.20825253 -0.09664411 0.29370728 -0.12720896 -0.016829627
0.04793077 0.111131676 0.18722734 -0.046539705 -0.21337844 -0.08815476 0.03442653 0.12843616
-0.11010207 0.0074857147 0.06488673 0.04831032 -0.048398368 0.0038138542 -0.035459068 0.13182671
0.08382956 0.24826513 0.015976815 -0.032977317 0.010097235 0.01872788 0.054454815 0.11142693
0.07901431 0.1545254 0.06658318 0.016434394 0.025286736 -0.046939336 0.009244766 0.18079026
0.023643786 -0.2066582 0.06632306 0.078744434 0.14498611 0.060101468 0.06301858 0.10872494
0.017143207 -0.17060725 -0.118141524 -0.005846128 0.0064326325 0.2184636 0.2560069 -0.11655189
-0.11246126 -0.100902036 0.038112327 0.18967904 -0.014480568 0.015048407 -0.11337576 0.063876905
0.120698236 0.032008633 -0.12476302 0.0073036538 -0.048823725 0.07047255 0.1195442 -0.104737
-0.054328583 0.0038367407 0.02712415 -0.041755248 -0.0070309984 -0.014173046 0.056190014 -0.033031173
0.031329546 0.017216625 0.011983619 0.110730365 0.13625461 -0.12360814 -0.036249377 -0.011602581
0.088600464 -0.13525471 0.011164627 -0.053241882 0.12386925 0.0030217825 0.0068934234 -0.06889343
-0.13003567 0.10859407 -0.040890668 0.11684181 -0.09850118 0.0675824 0.16599652 -0.19155964
0.03220471 -0.2688247 -0.13886185 0.0344606 0.016985599 0.038058292 -0.1326541 -0.06287277
0.15559453 -0.053984124 -0.0155377835 0.0018802687 0.12335587 0.3326879 0.12754567 0.0056453645
-0.15042175 0.16067964 -0.12557173 -0.13120799 -0.12498756 -0.11680435 -0.11601022 0.15605694
-0.006566303 0.06067217 0.031531535 -0.073896036 0.12318495 -0.007040802 -0.058035433 0.13740228
-0.029323187 -0.13357608 0.095253095 0.04528388 0.053750552 0.0044613304 -0.029923217 0.017955968
-0.06903565 -0.13709192 0.1534689 -0.12739202 0.0137823075 0.13395645 -0.04906838 0.096207365
0.10632286 0.003483013 -0.14130846 -0.1523481 -0.02292058 0.01619407 0.12377902 0.08584088
-0.07589765 0.00045427185 0.02474052 -0.094990894 0.017107839 0.024970068 0.003588953 -0.17199901
0.0090711 0.13083987 -0.0041881506 -0.08059052 -0.044998717 -0.058099985 0.14504993 0.013126111

network_body._body_endoder.seq_layers.2.bias f4 [128]
00000000: 3b2f 6a3c c3d0 153d 1965 1c3d 8eea df3c
00000010: fa8d 8c3c 02f2 a53c 1403 993c d912 a63c
00000020: 713a 903c 3d23 e0bb 21d7 0c3d 8131 f23c
00000030: 527d 023d 9e57 103d 2df0 263c 082f df3c
00000040: 8ad2 323d 5da5 253d d0fc f53b 1786 e23c
00000050: 1f6c 013d b82a 873b 082d f23c cd25 013d
00000060: 024b d43c ad5b f83c df6e 053c a6e6 1e3d
00000070: 360f 213d 37c4 f23c 7fbf 283d b232 e73c
00000080: 7e6c 9b3c 7143 943c e186 b83c 2a12 4b3c
00000090: 7f9c 903c 0961 0b3d d3f1 f63c 7621 4d3c
000000a0: 1109 c33c 739b 5b3c b94f c93c 273c 8dbb
000000b0: cd6f 143d 5d98 983c c18d 013d 85fb 303c
000000c0: f3e3 e4bb c8fe dc3a 1b7b 223d 6702 463d
000000d0: c407 dc3c 29cc df3c 1b0e c73c f22e 5b3c
000000e0: 69e2 333c 975f f13b 26d6 c43c 88ac 82bc
000000f0: e4dd 643c 7174 8e3c 0553 303c aa9f ca3c
00000100: a271 cf3c e5f4 c83c 7f43 063d 9542 6c3c
00000110: 4151 fc3c ab17 b53c 7747 013d b019 343d
00000120: bc91 b73c 189c 8a3b 8716 423d 8104 58bb
00000130: 10a3 073d 1d3e e13c e867 a93c d129 4a3c
00000140: 4d67 353b 3b5b 033d b23a 183c 8ccc ca3c
00000150: f60a b9bb 399d 9f3c 3c19 163d a0af a93c
00000160: 7d80 4fbc 45d8 5a3c 5fca 043c 736d 253d
00000170: 2561 8f3b 4c6e 2b3d fde1 d0bb 1b26 f83b
00000180: 04b3 3e3d 9b74 443c 2ce1 0e3d 501f 033d
00000190: 0a8b a33c e6b7 0a3d dc37 153d 0275 a83c
000001a0: 3581 e33c 60b4 c33c 52bb 4f3c 0843 de3c
000001b0: aff1 933c 74f8 163d 98f5 203d 9bea 563a
000001c0: 822d 1f3d ecfd 6f3c 71fa a33c 0355 3f3c
000001d0: 449c 083c 6255 9c3c c209 4f3c 2bb4 aa3c
000001e0: 6b8e 163b 470f 663c 43fc 1c3c 5947 0a3c
000001f0: 4679 2a3d bf2d 8e3c 4469 433c 6537 3ebc
0.014293487 0.036576044 0.03818235 0.027333524 0.017157543 0.020257 0.018678226 0.02027266
0.017605992 -0.006840138 0.03438485 0.02956462 0.031857796 0.03523981 0.010189098 0.027244106
0.043657817 0.040440906 0.0075069442 0.02765183 0.031597253 0.0041249655 0.029562488 0.03153019
0.025914673 0.030317152 0.0081441095 0.038794182 0.039321147 0.029634578 0.04119825 0.028222416
0.018972632 0.018098565 0.022525253 0.012394467 0.017652748 0.034028087 0.030144608 0.012520185
0.023808034 0.013403761 0.024574148 -0.0043101492 0.036239434 0.01862734 0.031629328 0.010802154
-0.0069851815 0.0016860599 0.039668184 0.048342135 0.026859172 0.02731903 0.024298718 0.013377892
0.010979273 0.0073661315 0.024027895 -0.01595141 0.0139689185 0.017389508 0.010761981 0.024734337
0.025322739 0.024530837 0.032779213 0.014420171 0.030800464 0.022106012 0.031562295 0.04396981
0.022408359 0.0042300336 0.047384765 -0.003296167 0.033114493 0.027495438 0.02067943 0.012339071
0.002767998 0.032069426 0.009291338 0.024755739 -0.0056470586 0.01948415 0.03664516 0.020713627
-0.012664911 0.013357227 0.00810489 0.040387582 0.004375594 0.041853234 -0.006374596 0.007572902
0.04655744 0.011990692 0.03488271 0.032012284 0.01996376 0.033866785 0.036430225 0.020563606
0.027771572 0.02388972 0.012678938 0.027131572 0.01805958 0.036858037 0.039296716 0.0008198411
0.03886176 0.014647942 0.02001688 0.011677983 0.008338038 0.019083682 0.012636604 0.020837864
0.0022973071 0.014041728 0.009581628 0.008439862 0.04161956 0.017355798 0.011926953 -0.011609887

network_body._body_endoder.seq_layers.2.weight f4 [128, 128]
00000000: 54cd d1bc dae4 7f3b b2bd b23d 4813 36bd
00000010: 5e4b b6bd 9d46 a7bc d50d 803d 690b 6abd
00000020: 0855 93bd 0642 3b3d 8204 1abd 5cb2 06bc
00000030: ad69 c4bc b115 203d 4c0f 783c 46ef 31be
00000040: c0da 60bd cfdc 46bd 4dc4 4cbd 11c1 abbd
00000050: 513f 3ebd 5dcb 4ebd a96b 1a3e 0a30 92bc
00000060: d425 09be c253 eaba 68b0 f33d 183a b13d
00000070: 3568 81bc 4487 dfbd d589 293e baa0 11be
00000080: 58f9 313c 9b25 253e 8857 4f3e ca40 eabd
00000090: 815e 013d 420a e5bc dd6b c5bd 9fc0 85bd
000000a0: e2bc 70bd d923 f83d f2de e23d 566b 95bd
000000b0: ab5e 3abe 1400 f33d 3670 22bd a8f4 a4bc
000000c0: 0ccb 26be d08f feba f885 f0bd 2fc5 28be
000000d0: 1864 8a3d 0f1f 033e ee2e 74bc 232b d2bd
000000e0: b662 d5bb a2b7 8f3c 7f47 0bbd b3f7 ed3c
000000f0: caff 6fbc acd2 fb3c 85ad d53c bfde 84bd
00000100: 05e3 67bd 68f3 06be aa67 afbc 3131 a23d
00000110: 6654 46bc d9fb 19be d68f e7bc 3f4a ac3d
00000120: 62ab 2c3c a4a2 8abe dc50 d93d 8814 0ebd
00000130: c5b1 973c d292 1a3c 9dfc d1bd bd41 b7bd
00000140: 117d 8a3d ee36 023e 1555 b1bb c0e1 a6bd
00000150: 2bdc 993b b60d 43be 4d91 9f3d 6b46 ec3b
00000160: 137e 2abe 335e 74bc 189e 723d e0f8 263d
00000170: df29 22be 7de9 273d b84a 7c3d c26b 5f3e
00000180: fc2f 073d 171e ccbc 707e 5dbd b495 d1ba
00000190: b10a 8e3d 28a3 31bd 3686 3a3e 952e 3bbc
000001a0: fdd3 01bd 4c67 953d eaf4 1e3e 25f5 2e3d
000001b0: befd 1d3d 2fcf 833d 9e03 b8bc 32bd d2bc
000001c0: 90f7 e4bc e4bd d3bd 7016 16be 90e2 39bd
000001d0: 7f8c 0abd 83eb bc3d 9848 c13c 1dd5 8c3b
000001e0: 1622 0dbe 42c0 f9bc 0886 49bb 8073 52bc
000001f0: 218f e2bd b26b 0fbe 1a66 d5bb f700 dc3c
00000200: ae92 49bb ac1f 9c3d c5df cebd 22a5 d63d
00000210: 9928 3abc 1004 76be b3f3 213e e263 103e
00000220: e420 d33d b0c9 833d 2cbf 06bd 78ca 55be
00000230: 0d2d 063e 000c 1cbd fcff 0cbe f07d 99bd
00000240: 73fb eabd a966 063e c277 e5bd 387e 583d
00000250: 2a83 43bc 82b9 a03d 4409 043e 20d6 253e
00000260: 6df1 9a3e 8130 07be 0905 49bc 8199 98bd
00000270: 3179 c2bd 8bce aa3c 9f20 20bb 0caf e03d
00000280: 2e64 e4bc a9b0 4f3d 0596 0abd b244 a83d
00000290: 56a8 f9bc 6f17 143d 096f 0b3e 9d6c 1bbb
000002a0: cae8 ddbc b5ad 9cbd ae74 43be f30e 06be
000002b0: c446 2a3c 0e85 54bd 2b03 bf3d 9a40 ae3d
000002c0: 311b 223e 78a6 c73d a558 273e 5d70 54bc
000002d0: d9a7 53be 6a85 1d3e 0587 d3bc 0de4 07bd
000002e0: 4ffd e53d 12e4 a4bd e398 eb3d 966b cdba
000002f0: 169a a33d 9844 05bc 4a1f 213e 56c7 97bd
00000300: 7027 d2bb 2101 8bbc 75d2 923d c5b2 81bd
00000310: b634 04bd 7617 fcbb 300e 11be 6ffb 893c
00000320: 3805 063c 4b83 c33d 2238 883d 9963 1fbe
00000330: 1bfb a2bb f401 08be 1c0f e9bb cdda 44bd
00000340: 9226 e7bc 8c8f f0bd 5316 e63d b61c 17bd
00000350: d362 313e b041 a63d 45a0 98bd 08de 753d
00000360: d9f1 85bc 8cd0 85bc 1ed2 a2bd 883d 3ebe
00000370: 5189 41bc c680 b3bd 9ed9 3e3e 387b 323d
00000380: 7931 78ba 1203 ef3d 70ac 6fbe 7376 0a3d
00000390: 5cd3 273d 5ec6 a73d 7c68 47be c5e6 1dbc
000003a0: c542 28bd 71f9 23bb 31b8 133e 03d6 adbd
000003b0: 2b2d 1c3d ad71 febd b493 993c 4adb 00bd
000003c0: 63eb 0ebe c33c 1abd ebea 10bd 523b fbbc
000003d0: 63ac 653d 9634 2dbc cb16 a83d 290d 693d
000003e0: 2471 863e f675 16bb d420 d93d 79db f43d
000003f0: c009 b9bd f69e eebd 8fb0 c23d b386 f93c
-0.025610603 0.0039046318 0.08727588 -0.04445198 -0.08901094 -0.020419413 0.06252638 -0.057139788
-0.07193953 0.04571726 -0.037601955 -0.008221235 -0.023976171 0.039083187 0.015140366 -0.17376432
-0.054896116 -0.048550423 -0.049991895 -0.08386434 -0.046447102 -0.05048691 0.15080132 -0.017845172
-0.13393337 -0.0017877745 0.11898881 0.08653659 -0.01579676 -0.10914472 0.16556485 -0.14221469
0.010862671 0.16127627 0.20248234 -0.11438139 0.031584267 -0.027958993 -0.09639714 -0.0653088
-0.058773883 0.121162124 0.1107768 -0.07295863 -0.18200175 0.11865249 -0.039657794 -0.020136192
-0.16288394 -0.0019421522 -0.117443025 -0.1648147 0.067573726 0.12804817 -0.014903767 -0.10262134
-0.0065120114 0.017543618 -0.03400373 0.029048776 -0.014648387 0.030740105 0.026083717 -0.06487798
-0.056612987 -0.1317879 -0.021411736 0.07919539 -0.012105083 -0.15037479 -0.028266829 0.08412599
0.010538908 -0.2707721 0.10611126 -0.03468755 0.018517384 0.009434419 -0.1025326 -0.089480855
0.06762136 0.12716267 -0.005411754 -0.08148527 0.0046954355 -0.19048199 0.07791386 0.007210543
-0.16649656 -0.014915037 0.0592328 0.04076469 -0.15836285 0.040994156 0.061594695 0.2181845
0.033004746 -0.024916692 -0.05407566 -0.001599005 0.06935633 -0.04336849 0.1821526 -0.01142468
-0.03169631 0.07295093 0.15523115 0.042714257 0.038572066 0.064360015 -0.022462662 -0.025724981
-0.027950078 -0.10338953 -0.14656997 -0.045382082 -0.033825394 0.09224608 0.023594186 0.004297866
-0.13782534 -0.030487183 -0.0030750055 -0.01284492 -0.11062456 -0.14005926 -0.0065124156 0.026855929
-0.0030757594 0.076232284 -0.101012744 0.10480715 -0.011362218 -0.24024987 0.1581562 0.14100602
0.10309008 0.06434953 -0.03289716 -0.20878017 0.13103123 -0.03809738 -0.13769525 -0.07494724
-0.114737414 0.13125099 -0.112044826 0.052854747 -0.011933127 0.07847883 0.1289416 0.16194963
0.30262318 -0.13202097 -0.012269267 -0.074511535 -0.09495772 0.02085044 -0.0024433506 0.109708875
-0.0278798 0.050705586 -0.033834476 0.082162276 -0.030475777 0.03615516 0.13616575 -0.0023715862
-0.027088542 -0.076503195 -0.19087479 -0.1309164 0.010392848 -0.051884703 0.09326776 0.085084155
0.15830685 0.09748548 0.16342409 -0.012966243 -0.20669498 0.15382925 -0.025821218 -0.03317647
0.112299554 -0.080513135 0.1150377 -0.0015672322 0.07988374 -0.00813403 0.15734592 -0.07411067
-0.0064133927 -0.016968312 0.07169048 -0.06332926 -0.03227683 -0.0076932264 -0.14165568 0.016843526
0.008179955 0.095465265 0.066513315 -0.15565337 -0.0049737818 -0.13281995 -0.007112397 -0.048060227
-0.028216634 -0.117461294 0.11234727 -0.036892615 0.17322855 0.08117998 -0.07452444 0.0600262
-0.016350674 -0.016334794 -0.07950233 -0.1857816 -0.011812524 -0.08764796 0.18637702 0.04357454
-0.0009467821 0.116705075 -0.23405623 0.03380437 0.040973052 0.081921324 -0.19473451 -0.009637539
-0.0410793 -0.0025020505 0.14425732 -0.08488085 0.038129013 -0.12424026 0.018747188 -0.03145913
-0.1395698 -0.037655603 -0.035380285 -0.030667935 0.056072604 -0.0105716195 0.082074724 0.056897316
0.26258194 -0.0022958494 0.106019646 0.119559236 -0.09035063 -0.11651413 0.09506332 0.030459737
