Assets/Models/2023-06-09_movementpunishment/My Behavior.onnx (onnx, 137225 bytes, 9 tensors)

action_model._discrete_distribution.branches.0.bias f4 [3]
00000000: 8938 43be 8e5f 303e 667a 58bd
-0.19064535 0.17223951 -0.052851103

action_model._discrete_distribution.branches.0.weight f4 [3, 128]
00000000: 5aff ef3c 64e3 7fbe d80b 42bd 1b86 303c
00000010: 1bc8 1bbe 8d67 19be 4c8a 463e 557d cebe
00000020: b295 a73d bec4 6dbe 11df 9dbd 8f28 3c3e
00000030: 87ce 503e de20 bfbd 445e 2c3c 9d76 703d
00000040: 76ee 98bd 90ea babe 5404 d5be de74 52be
00000050: 6cbc 71bd 05ce 6ebd 6243 e43d 1743 483e
00000060: bf19 543e 8f7d a83d 5e27 0abe 9a8b b23e
00000070: 7614 26be 1b8a 673d 54b0 81be ff09 6dbc
00000080: 7ebf 5c3e 0aea 32bd f9a6 6f3e a4ef 51be
00000090: 48fe 08be 401b 89be 2d7e 33be 377c 793e
000000a0: e01a 513d 611b 54be 8a14 5fbe 2667 a33d
000000b0: b10b 11be 8bf1 76bd 2faf a5be e42a 813e
000000c0: f102 f9be 88b9 043e dcad 77bd a1f1 d5bd
000000d0: 4a1f 6b3e b81f 92be a1ce 743e 709a e63b
000000e0: 7bff edbd f2c1 e13c 68e4 533b 0df0 c7bd
000000f0: 29e4 d5be f486 6a3e cbcc 93be cdd6 fd3d
00000100: f39a 943e 80ab d3bd bb70 c23d 77cb 703c
00000110: 9436 96bd b47f 7dbe 4746 783d 85fe 00be
00000120: 0a79 48be e620 2bbe 7b55 1bbc 6c0c 10be
00000130: c983 9d3e d09c b3be 4d00 08be a804 16be
00000140: 0e5e aabc 99d0 d2bd 8ece 913e 0241 83ba
00000150: ae5d 7e3c ac7e 00bf aed2 67be dcdb bfbd
00000160: 8b19 e6bc 8145 4abd 2a08 8cbe 5723 e6bd
00000170: d06a 1d3d 984f 99bd 887e 8d3e c54b 18be
00000180: 30e0 85be d982 a03c 5e6c 3c3d 8b9a 8ebd
00000190: d48b 05be 83e5 26be 02d3 81be 86dd b0be
000001a0: 23e7 3ebe 496f 2cbc af07 703d 47a8 523c
000001b0: 277d d9bc 29c3 c6bd 8fc9 b2be eec0 4bbe
000001c0: e3b1 b7bc 75c6 023e 5cb1 3fbd 8270 d6be
000001d0: 74a8 943e 1fb0 803d aefb 3dbe 1232 0bbe
000001e0: 6f0c a7be 5ec6 cd3e 241d a9bd 2a1d 723e
000001f0: 34dd f5bd 1e81 87bd 6d13 53be 335f 323d
00000200: e4d5 3b3e 51c4 1c3e 1569 0c3e ba93 fbbd
00000210: 7045 1b3e 4981 723e 8716 7fbd 22e1 2c3e
00000220: 88f0 86be 390d b4bd c514 173e bcc5 cfbd
00000230: c19a e2bd a398 c7bd 08c9 b4bc 207f 25bd
00000240: 0f39 083e 4335 f63d 815e 70bd 7a87 003e
00000250: b74c 1cbe 1ccf 183e 3ec7 67be 4fde 10be
00000260: 9783 12be 298b dc3d 6ffd 033e 0f16 aebe
00000270: 9892 383e 7de8 023e 21e1 313e 8df8 403e
00000280: 2061 2ebe b7a6 0bbe 697a 04be 262e b3bc
00000290: 65d2 333e 1121 923e 0892 573e e06b 8ebe
000002a0: c8ca 1d3e c7b6 7b3e f809 313e 5625 c83d
000002b0: 7ac7 243e 535d 223e 87ca abbc 98b6 2fbe
000002c0: d4b4 69bd 8aa3 04be c2e2 123e 5fc8 72bd
000002d0: 3112 a0bc 50d6 c6bd e2a3 0ebe 6a35 ebbd
000002e0: c03a 3f3e cbf0 be3d fb21 f73d fa2b 1a3e
000002f0: 870c 3d3e 873d e5bd 46f5 2b3e 0db8 37be
00000300: eb45 88be bd31 343e cbb1 b43d da4e 0c3e
00000310: 1bfa 44bb f1ff 95bd 618d 23be f349 393e
00000320: 9705 003e 389d c33d 1b42 2b3e 9312 cf3d
00000330: e28c 20be 367b 713d 7b9d 593e 1d80 403e
00000340: 54b8 19bd efb1 393e 3278 f8bd 66b6 c83d
00000350: 200a d2bd 6064 d23d 1516 4c3e a36a 443e
00000360: 113a 523e a9a0 b03d 45cc 7cbd 1fd7 443e
00000370: 99ef a63d 4331 283e 7ac7 dbbd 7656 2d3e
00000380: 2002 d93d e4fc dd3d 58e7 1a3e efbb 3e3e
00000390: a7fd 123e 2c0f 5e3e 5042 c83d b819 193e
000003a0: 13c2 583c d2c0 f73d 0eed 89be 9b90 c03d
000003b0: 44db fd3d 4206 04be 67d3 463e aa9b d43d
000003c0: c5dc ea3d 66b5 523d 480d 323e eb0d 1f3e
000003d0: 4833 34be 4549 03be db62 113e 7cb6 5e3e
000003e0: 45db 0bbd a665 94be 752f b1bd 99fa 14be
000003f0: f77c f3bd 5d75 f1bd 8801 243e 0a06 97be
0.029296566 -0.24989086 -0.047374576 0.010774161 -0.15213053 -0.14980908 0.19388694 -0.40329996
0.08182849 -0.23219582 -0.07708562 0.18374847 0.20391284 -0.09332441 0.010520522 0.05870687
-0.07467358 -0.36507082 -0.41604865 -0.20552394 -0.059017584 -0.058301944 0.11145665 0.19556843
0.20712946 0.082270734 -0.1349158 0.34872133 -0.16218743 0.056528192 -0.2532984 -0.014467715
0.21557423 -0.04368023 0.23403539 -0.20501572 -0.1337825 -0.26778603 -0.17528601 0.2436379
0.05105102 -0.20713569 -0.21785179 0.079786584 -0.14164616 -0.060288947 -0.32360217 0.25228035
-0.48635057 0.129614 -0.06046854 -0.10446478 0.22961155 -0.28539824 0.23906948 0.0070374534
-0.11620995 0.0275583 0.0032332186 -0.09762583 -0.41775635 0.22903043 -0.28867182 0.123944856
0.29024467 -0.103354454 0.09494158 0.014696947 -0.07334629 -0.24755746 0.060613897 -0.12597091
-0.19577423 -0.16711769 -0.009480829 -0.14067239 0.30764607 -0.35080576 -0.13281365 -0.14650214
-0.020796802 -0.10293693 0.284779 -0.0010013881 0.015525265 -0.50193286 -0.22638962 -0.09368107
-0.028088352 -0.04938269 -0.2734998 -0.11237209 0.038431942 -0.074858844 0.27635598 -0.14872654
-0.26147604 0.019593643 0.046001785 -0.069630705 -0.13041621 -0.1629849 -0.253563 -0.3454401
-0.18642859 -0.010524579 0.058601078 0.012857503 -0.026548935 -0.097051926 -0.34919402 -0.19897816
-0.02242369 0.12771018 -0.046800002 -0.41882712 0.2903477 0.062835924 -0.1855304 -0.13593319
-0.32626674 0.40190405 -0.08257511 0.23643938 -0.12005082 -0.06616424 -0.20612879 0.04354782
0.18343312 0.15309264 0.1371196 -0.12284036 0.15163207 0.23682131 -0.062277343 0.16882756
-0.26355386 -0.087915845 0.14754017 -0.10145137 -0.11064673 -0.0974591 -0.022068515 -0.04040444
0.13303016 0.120218776 -0.058683876 0.1255168 -0.1526364 0.14922756 -0.22634599 -0.14147304
-0.1430801 0.1076873 0.12889646 -0.34001204 0.18024671 0.12784 0.17371036 0.18844815
-0.17029238 -0.13637815 -0.12937321 -0.021872591 0.17560728 0.28540853 0.210518 -0.27816677
0.15409386 0.24581443 0.17288959 0.09772746 0.1609172 0.15855913 -0.020970596 -0.17159498
-0.057057217 -0.1295301 0.14344314 -0.05927312 -0.019539924 -0.097088456 -0.13929704 -0.11484797
0.18674755 0.09323271 0.12067028 0.15055838 0.1846181 -0.11193376 0.16792783 -0.17941304
-0.26615843 0.17597099 0.08822974 0.13701954 -0.00300563 -0.073242076 -0.159719 0.18094616
0.12502132 0.095514715 0.16724436 0.101109646 -0.15678743 0.058955394 0.2125148 0.18798871
-0.037529305 0.18134283 -0.121323004 0.09800415 -0.102558374 0.10273051 0.19930299 0.19181304
0.20529963 0.086243935 -0.061718244 0.19222687 0.081511684 0.16425042 -0.107314065 0.16927513
0.105961084 0.10839251 0.15127313 0.18626378 0.14354573 0.21685475 0.09778273 0.14951217
0.013229865 0.120973244 -0.2693867 0.09402581 0.12395337 -0.12893012 0.19416581 0.10381253
0.1146789 0.051442526 0.17387879 0.15532653 -0.17597687 -0.12820919 0.14197867 0.217493
-0.03414466 -0.28983802 -0.0865163 -0.1454872 -0.118890695 -0.117899634 0.16016209 -0.29496795

action_model._discrete_distribution.branches.1.bias f4 [3]
00000000: 9e77 6d3d cfa4 67bc 73bb 05bd
0.057975404 -0.0141384145 -0.03264947

action_model._discrete_distribution.branches.1.weight f4 [3, 128]
00000000: 0912 6f3d c39b 7f3d ff07 1cbc 7078 82bd
00000010: b811 4c3c 4e6e a93d c543 093e 479b 36bd
00000020: 7192 133c bcdc a9bd 71e6 b03d f3c8 71be
00000030: 776d fb3d 9aab 0abe a840 373e 367c 143e
00000040: bc62 13bd fb56 60bc 4a8e 063d d118 90bd
00000050: 59dd 10be 1223 403d 3f2d b8bc 8ae8 0a3e
00000060: a3fe ba3d c610 e1bc df3f 9e3c 7079 eabd
00000070: 4262 f83b 7b85 f23c cbac dabc 9075 2b3d
00000080: bff3 d2bd 7e47 303d 1a52 d53d 4a79 493e
00000090: 062b d63d 331c 753c 24f4 f03c 0e4d 85bd
000000a0: 4aca 7fbc c4ea 913d 0c5a c43c a4c5 b03b
000000b0: d604 abbd 9c63 23bd 1afb a2bd e418 663c
000000c0: 9c5d d23c 4036 343e 125b f03c 6082 623d
000000d0: ac70 0e3d 1c4e 923b dd79 753d afac 413e
000000e0: 1903 0ebb 108e 41bd b79c 0d3b f610 043d
000000f0: e0c0 2a3d 1934 9a3d 5ab9 613c 53bf 473e
00000100: abe4 423a 9b33 fbbc 8a49 de3b 9c27 ab3d
00000110: 33f1 863e eed3 dcbc cdc2 2d3e b8ca 043d
00000120: 722f 1bbd 9fa7 94bc 754a 163e 4630 0fbd
00000130: acfb 823d c901 48bb f9f2 c03b d32a a33c
00000140: dc53 eebd cff0 9dbd bc91 f3ba db88 f6bd
00000150: de6d 3fbe 1344 223d c0a7 dc3c 4c9a d53c
00000160: 864c 653d 83dd 3bbd 2142 e3bd bec8 533c
00000170: fdca 67bd 5d2f dbbc f041 ad3d 4858 603d
00000180: 60e5 6cbe 8d1e 85bd 82f0 153d 3a11 263d
00000190: 75a0 113d f87e 263d 6ded 0cbd 7069 58ba
000001a0: fdb2 0b3e 0b99 debc d4f1 1bbd f433 5bbd
000001b0: 0902 e73c 356d b2bd 3a75 8038 8f53 3ebe
000001c0: a72e 51bd 2320 c9bc 6547 863a e731 a2bc
000001d0: 3175 4d3d 6108 99bd f97d 9139 4a4f 3b3d
000001e0: 741f 863d 9545 8cbd ffb7 09be ae68 833d
000001f0: 9819 813d f1c8 afbd cd85 79bc 63ca 58bd
00000200: 729b 5dbc a422 36bd 1a2e a8bc 8227 82bd
00000210: b705 1b3c ced1 86bd 089c 54be f65c 0f3d
00000220: 2af1 ddbc 8100 92bd 2460 68be 1015 19be
00000230: cbce cdbd 1f9f 7abd ff2f bbbc a819 07bc
00000240: 71ec 343c b9e9 163d ada2 4abd 7f88 983d
00000250: a48d 8e3d 0a26 93bc dfa0 67bd f40b 0cbe
00000260: 5b7c 16be 370c 86bd 081d 83bd 535f 173d
00000270: a4bf ad3c ae3c 87bc 3960 923c 795b 25bd
00000280: 6236 383d f693 babc f4cc d2bd 3d02 74bd
00000290: 9897 54bd d2d2 da3c dc5e 7ebd 19c3 2e3d
000002a0: fb07 5abc c16a c2bc c950 fcbc 749c 42bd
000002b0: 6517 aa3d 8e2e 843c 9781 8cbd 9411 d4bd
000002c0: bd59 eb3b 29d0 99bd e1a8 26bd 6ad6 48bd
000002d0: 840b c4bd 5cb4 bfbd 4926 84bd b24d acbd
000002e0: 2a1a ed3c a4ea 713d 7794 babd bed5 53bd
000002f0: 9598 01bd cea9 e7bd 89be 793c 9748 cbbd
00000300: 10c5 8e3c 70b9 15bd 8000 dfbd 00c5 94bd
00000310: 885c f6bd 1d5c 03be 6e79 a7bd b672 88bd
00000320: 922c a03d 82c7 67bb b3f4 3bbe 7053 cf3d
00000330: a1bd c9bd 4d80 3d3d c2f7 683c d86b 2e3d
00000340: 100c e6bd 7966 813d 9087 9fbd 1089 8d3d
00000350: 489d 80bd 020b fd3c a420 a0bb c989 3fbd
00000360: b14c 5ebd a571 ba3d 8742 d0bc 0948 a03c
00000370: 9d6b d8bb 3b2e 89bd 770a 14be 01a2 5bbd
00000380: 6d31 0a3e 7db8 01bd 0c52 123b cdcb 04bd
00000390: d3b2 32bd 6b29 cc3c 959a f43c 99ea 9fbc
000003a0: 8c65 50be 560a 4ebe b0d1 fcbc ee27 603d
000003b0: 64ab 7abd f02a c9bc 56d9 f33b 9a85 943b
000003c0: 0d13 ec3c ffda 83bd cc6a 4e3c bdc6 113d
000003d0: dc2a c1bd 9be0 4fbe 7ce8 6d3c 7f30 973c
000003e0: e05f 973c 64a7 43be 3675 ffbd 49d1 8dbd
000003f0: b71a ae3d 4d31 95bd 992a ae3b a2c9 163d
0.05836681 0.062404405 -0.009523391 -0.06370628 0.012455396 0.08272992 0.13404758 -0.044581678
0.009007082 -0.08294055 0.08637703 -0.23611812 0.12276738 -0.13542023 0.17895758 0.14500508
-0.035982832 -0.013692613 0.03285054 -0.07035983 -0.14146937 0.046908446 -0.022482513 0.13565269
0.09130599 -0.027473819 0.019317565 -0.114489436 0.0075800726 0.029604664 -0.026693722 0.041860163
-0.10300397 0.04303693 0.1041605 0.19675174 0.10457425 0.0149603365 0.02941329 -0.06508838
-0.015612194 0.07124856 0.023968719 0.0053946543 -0.08350532 -0.039889917 -0.0795805 0.01404402
0.025679402 0.1759882 0.0293403 0.055300117 0.03477542 0.004464878 0.05993067 0.1891353
-0.0021669327 -0.047254622 0.0021608302 0.032242738 0.041687846 0.07529468 0.013777101 0.19506578
0.0007434587 -0.030664256 0.006783669 0.08357164 0.26355895 -0.026956525 0.16968842 0.03241989
-0.037887044 -0.018146334 0.1467684 -0.034958147 0.06395659 -0.0030518642 0.0058883396 0.019917881
-0.11637089 -0.07711946 -0.0018582861 -0.12037822 -0.18694255 0.039615702 0.026935458 0.026074551
0.05598118 -0.045865547 -0.110965975 0.012926279 -0.05659007 -0.026755983 0.08459842 0.05477169
-0.23134375 -0.06499968 0.03660632 0.040543772 0.035553414 0.04064843 -0.034406114 -0.00082554575
0.13642497 -0.027172586 -0.038072422 -0.053516343 0.028199213 -0.08712236 6.125351e-05 -0.18586563
-0.05106988 -0.024551457 0.0010244666 -0.019799186 0.05016059 -0.07472301 0.00027750412 0.045729913
0.06548968 -0.06849209 -0.13449095 0.064164504 0.0630371 -0.085832484 -0.0152296545 -0.052927386
-0.013525831 -0.04446663 -0.020529795 -0.06355192 0.009461812 -0.06582986 -0.20762646 0.035000764
-0.027092535 -0.07129002 -0.22692925 -0.14949441 -0.10049208 -0.061186906 -0.022850035 -0.008245863
0.0110427 0.03684399 -0.049471546 0.074479096 0.069606096 -0.017962474 -0.056549903 -0.13676435
-0.14695875 -0.065452985 -0.06402022 0.036956143 0.021209545 -0.016508427 0.017868148 -0.04037044
0.04497374 -0.022775631 -0.10292998 -0.059572447 -0.051902384 0.026711855 -0.062102184 0.04266653
-0.013307567 -0.023732545 -0.03080024 -0.047512487 0.083052434 0.01613548 -0.06860655 -0.10354915
0.0071823285 -0.075104065 -0.0406884 -0.049032606 -0.09572509 -0.09360573 -0.06452615 -0.08413257
0.02894314 0.05906166 -0.09110349 -0.051717512 -0.031639654 -0.113116845 0.015243181 -0.09925955
0.017427951 -0.0365538 -0.10888767 -0.07264137 -0.12029368 -0.12828107 -0.08177458 -0.066625044
0.07821001 -0.0035366719 -0.18355064 0.10123336 -0.09850622 0.046264935 0.014219226 0.042583317
-0.112327695 0.06318373 -0.07789528 0.06910908 -0.06279999 0.030889038 -0.0048867036 -0.04676226
-0.054272357 0.09103707 -0.025422348 0.019565599 -0.0066046254 -0.06698271 -0.14457117 -0.053621296
0.13495417 -0.031670082 0.0022326736 -0.032420922 -0.04362757 0.024922093 0.029858867 -0.019521045
-0.20351237 -0.2012113 -0.030861706 0.05472558 -0.061198607 -0.024556607 0.00744168 0.004532528
0.028817678 -0.064382546 0.012598705 0.035589922 -0.09432003 -0.20300524 0.014520761 0.018455742
0.018478334 -0.19106823 -0.12473528 -0.069246836 0.08501189 -0.07284794 0.0053151366 0.036813386

discrete_action_output_shape f4 [1, 2]
00000000: 0000 4040 0000 4040
3.0 3.0

network_body._body_endoder.seq_layers.0.bias f4 [128]
00000000: 7091 f83d df74 b63d 6753 bfbd d5c8 38be
00000010: 3f6f ad3d 9f09 843d 3343 aebd e857 b1bd
00000020: 0d96 9ebd 83ca f83c 63b3 243e 8259 03bd
00000030: 9d33 f6bc f22b 57be f5b6 fcbd 629f af3d
00000040: 4805 6d3d 8c0c 1ebe 8a44 9d3d d278 eabd
00000050: e6f9 a2bd 1740 f8bd 5fc2 2d3d b3d0 9ebd
00000060: 0c97 80bd 1fdf e8bd cec1 54bd e1cb 7a3d
00000070: efe3 ac3d 9ea2 373d 59ec d03d 8766 e9bd
00000080: 7765 b23d 8d96 cb3d d74c adbd 5e76 10be
00000090: d939 913d af89 1cbe 6311 0bbe d480 123d
000000a0: b0f4 233d e9ca 1a3d 0af4 923d 93b2 91bb
000000b0: eff6 df3d 410a 103d bfd0 99be c18e 913d
000000c0: 9478 c33d 89bd c1bd 7d5c 13be f16a 31be
000000d0: 89e8 353d 9a28 83bd ca9b a8bd 5c3b bd3d
000000e0: 536e fc3d af8f c23d 5ca7 06be 56c0 edb9
000000f0: 0f9e 173d b563 afbe 96fc 3fbe 7c83 113e
00000100: 1cff de3c 2071 ac3d 8cef 4d3c b4d7 fd3c
00000110: 07a9 c43d 7582 1e3d 2cb4 adbd c194 123d
00000120: 2344 273c 64c3 9cbd 2173 99bd d06c 8bbd
00000130: 73c8 1ebd 40f2 a2bb 2201 d63d 626a 323c
00000140: 3c73 f9bd b2b6 50bd 281c af3d c80f 0e3e
00000150: ef14 093e 9217 96bd 84a5 21bd a46a 793d
00000160: 32b8 a53d cc4d dbbc f8c2 2bbe e926 393d
00000170: 54fc ccbc b763 d53d 0486 d53d 2c98 b33b
00000180: c03a dabd 4439 29be d875 fd3d b357 fabc
00000190: 1274 1a3d f451 b43d 56aa b43d 9bb8 983d
000001a0: 53c1 9e3d c511 babd bcd1 a9be 3be1 9f3d
000001b0: e1a5 edbd a135 f1bc 6b41 68bd 3cd6 8d3d
000001c0: 85d2 6b3d 955e b6bd 8609 10bd 46f9 8a3d
000001d0: f5d8 323d 67d4 a23d b5b3 bc3d 7429 c83d
000001e0: 9006 923d bb2f 8e3d 7c46 f33d d81b 0bbe
000001f0: ce0c 90be ee8f f33c a18b 613d 8b44 373d
0.12137115 0.0890901 -0.093420796 -0.18045361 0.08468484 0.064471476 -0.08508911 -0.08659345
-0.07743464 0.030370003 0.16084056 -0.032067783 -0.030053908 -0.21012858 -0.12339584 0.08575322
0.057866365 -0.15434474 0.076790884 -0.11448826 -0.079578206 -0.12121599 0.042421695 -0.0775465
-0.0627881 -0.11370682 -0.05194264 0.06122959 0.084419124 0.04483282 0.1020133 -0.11396509
0.08710759 0.09940825 -0.08461922 -0.14107653 0.07091112 -0.15286897 -0.13580851 0.03576739
0.040028274 0.037791166 0.07175453 -0.0044463365 0.10935771 0.03516603 -0.30042073 0.07107306
0.09544483 -0.09459979 -0.1439075 -0.17325951 0.044411216 -0.064042285 -0.082328394 0.092398375
0.1232573 0.09500062 -0.1314978 -0.00045347464 0.03701597 -0.34255758 -0.18748698 0.14210314
0.027221255 0.084200144 0.012569319 0.030986644 0.09602552 0.038698632 -0.08481631 0.035786394
0.010209116 -0.07654455 -0.07492662 -0.06807864 -0.038765382 -0.004972726 0.10449435 0.010889621
-0.12180182 -0.05095548 0.08550292 0.13873208 0.13386892 -0.073287144 -0.03946449 0.060892716
0.08091773 -0.026770495 -0.16773593 0.045203123 -0.025022663 0.1041941 0.10425952 0.005480787
-0.10655737 -0.16525751 0.123759925 -0.030559396 0.03770835 0.08804694 0.088215515 0.07457086
0.077517174 -0.090854205 -0.33167827 0.07806631 -0.116039045 -0.029444518 -0.056703012 0.069256276
0.057573814 -0.08904759 -0.035165332 0.067858264 0.043663938 0.07950669 0.09213964 0.097735316
0.07130158 0.069426976 0.11878678 -0.1358484 -0.2813477 0.029731717 0.0550648 0.044743102

network_body._body_endoder.seq_layers.0.weight f4 [128, 126]
00000000: 37dc 1c3e 1a2f 14bd b18b b1bd 6e48 bb3d
00000010: 63e3 debb c5f2 dcbd c326 c2bd 421c 553e
00000020: 577c 853c eb99 f4bc 16da 893e 1859 13bd
00000030: 616c 24be 619b 563d e374 733d 60a4 48bd
00000040: 5820 ef3a 2566 09be 3047 92be b526 6ebe
00000050: 67b1 8238 3cd0 79be 9fd2 8f3e 8277 763e
00000060: 5374 0bbe 60d5 2cbe 1387 7ebd 13fd 643d
00000070: 1cd3 4dbd 5cac ec3d f6bb 6c3e 4cf8 9cbd
00000080: 8334 75be 8e7d 03bc 3b46 463e 06aa f8bb
00000090: f733 8ebc 22e5 123d bf85 463e fce2 3d3d
000000a0: 2a9f 03bd 1f8b 03be 3361 e73d a2b8 83bd
000000b0: d1c3 6fbc 87e4 d93c 95c2 f53d 70a4 abbd
000000c0: 512f cd3c 3fb2 c1bd 5f02 793c 9667 00be
000000d0: e36a 12bd 0919 de3d 3067 d63c 8c67 e53d
000000e0: ff94 abbd 4982 363d 9d14 c4bc 7c5b 1abe
000000f0: dfde 08bd 002f 16bd eaaa 9abc 42a2 203e
00000100: 5536 3a3e 57af 96bb d49c f83c e127 80bd
00000110: 3482 e7bd e619 3abd 7af6 94bd bf3e e63d
00000120: 1cd2 483d a0b3 223e 7ad7 fdbc 4bfd a2be
00000130: e856 c8bc 4869 e23d c896 b23c 3068 7b3d
00000140: 0729 a8ba d693 353d f140 d1bc f2f7 db3d
00000150: 7e7f d3bd f10e 823e 2ca8 83bc 0cd2 1d3c
00000160: 0c60 a8be 92ac b9bd 8cc5 db3c 640f b9bd
00000170: d775 903d 1e2f 46bd c75a 5cbe cc1b 4dbd
00000180: 1b52 7b3e 2a0b e9bd eeb1 283e d673 fd3d
00000190: 79f1 a53d d312 afbd 8d9e c0bd e6d3 193e
000001a0: 83e6 72bd ca1f 103d 210f 253e cea9 233d
000001b0: b413 883d ddfa c5bd ee90 233e cbd4 9f3d
000001c0: fff6 da3d 597d 1f3e 2af5 17bd 7781 133d
000001d0: d6f0 45be 1d3a 2c3d 6738 bbbd 78fe 103e
000001e0: 55da e7bd 780d 16bd d3a4 e73b 71f5 323e
000001f0: 0c46 24bd db4c 2bbd a227 3b3e 1978 dcbd
00000200: ef4c 873d 527b 2f3e b313 a63d 792d b5bd
00000210: bc66 25be 9ec2 48bd 06f3 5cbc dd25 40bc
00000220: 8e0d 8f3d e5a0 443e 9880 4ebe dc19 09bd
00000230: 88fb af3d 6253 c1bd f29e 20bc 12c4 853c
00000240: bd7d b83d f2b2 52be 55ae 41bd ea1d 5c3d
00000250: 88d6 12bd 350f 783e df2b 46be 49c4 27be
00000260: 6b38 16be 075e 56bd 486d dbbc cd64 1b3c
00000270: 8f2a b73e cccc e439 0049 42bd 39f8 03bd
00000280: 9004 793d d1f1 93be 9131 87bd 3c7b 8a3e
00000290: f005 adbe 204f 09bf 3dbe ca3d 29bd 0fbe
000002a0: b293 96be 3c1c 6f3c 047d b33d 4473 12bf
000002b0: 48eb 20bf 06c2 233e 34a2 70bd 74cc f7bd
000002c0: 74d7 803e a09c 7f3e d9d9 68be 5f91 f8be
000002d0: 118c 4d3d 4119 04be 7193 14be 3959 2f3d
000002e0: 6fcb d2bd 8020 c2be c51e eabe 57a5 4cbd
000002f0: c466 9bbe 0b32 283e 797b dbbd 393b 953d
00000300: 41e6 cabd c2a3 de3b f47d a63e c393 4e3d
00000310: 191f a73d 5535 9dbe 5c3f eb3d 2b7f cabc
00000320: b9dd 123d 383c 083e a32a 27bc ce94 263e
00000330: 497d cebb 99cb f4bd 5003 53bb 6564 113e
00000340: b7cd 073d 992e 683d 88ec 89bd c547 cc3c
00000350: fe0e db3d 4e60 933d 8289 573e 0f4d 913d
00000360: 6726 0ebd 221e 27be 896a ba3c dece 4d3e
00000370: 5e61 273e 1c30 ed3d 1ae6 82bc 9993 dbbc
00000380: 1ac7 03bc d5ca 0b3e cca3 383d a5a8 eb3d
00000390: 0a46 123e b811 eebc 9046 c93d 1874 243d
000003a0: bae8 903d da1f e33c 2074 193e 1e4f 273e
000003b0: 52d3 023e 1340 31bd 78c0 08be 58db 1dbd
000003c0: 325c 303d 8cdd 1e3e 8500 3cbe 2686 d7bd
000003d0: f528 48bd df3b 68bd d516 bb3d 43ae c53b
000003e0: 1567 09be ffc6 f0bd cfd5 97ba ce93 71bd
000003f0: 4a2c 7dbd 2da2 903b 4db5 093e f831 debd
0.1531838 -0.036177732 -0.08669222 0.09144674 -0.006802009 -0.10788492 -0.094800495 0.20811561
0.016294641 -0.02985855 0.269242 -0.03597364 -0.16056968 0.052394275 0.059437644 -0.048984885
0.0018243892 -0.13417871 -0.28569937 -0.23256953 6.231927e-05 -0.24395841 0.2809038 0.24069026
-0.13618593 -0.16878271 -0.062140536 0.055905413 -0.050250158 0.115563124 0.23118576 -0.07664546
-0.23945813 -0.00802554 0.19362728 -0.0075886277 -0.017358763 0.03586305 0.19386958 0.046359047
-0.032134213 -0.12846039 0.11297836 -0.064317 -0.014634089 0.026598228 0.12000004 -0.08380973
0.025046976 -0.09457826 0.015198319 -0.12539515 -0.035746466 0.10844619 0.02617225 0.112013906
-0.08378028 0.044557843 -0.02393561 -0.15073961 -0.03341567 -0.036665916 -0.018880326 0.15686896
0.18184789 -0.004598539 0.030348219 -0.06257606 -0.11304131 -0.045434855 -0.07273574 0.112424366
0.0490285 0.15888834 -0.030986536 -0.31833872 -0.024455503 0.11055237 0.021800414 0.061378658
-0.001282961 0.04433044 -0.025543662 0.10740651 -0.103270516 0.25402024 -0.016071402 0.009632599
-0.32885778 -0.09066118 0.026827596 -0.09036139 0.07053726 -0.04838478 -0.21519004 -0.050075337
0.2454304 -0.113790825 0.16474125 0.123756096 0.08102698 -0.08548512 -0.09405241 0.15022239
-0.059301864 0.035186566 0.16119052 0.03995686 0.06644383 -0.09666989 0.15973255 0.07804259
0.10691642 0.1557516 -0.03709904 0.03601214 -0.19330153 0.04204761 -0.09141617 0.14159572
-0.113209404 -0.03663394 0.007069209 0.17476441 -0.040105864 -0.041821342 0.18276837 -0.10765094
0.06606471 0.17136887 0.08109226 -0.08846564 -0.16152471 -0.049013726 -0.013485676 -0.011727777
0.06985007 0.19202001 -0.20166242 -0.033471927 0.08592898 -0.09439732 -0.0098035205 0.016328845
0.09008358 -0.20576075 -0.047285397 0.053739466 -0.035849124 0.24224551 -0.19352673 -0.1638347
-0.14669959 -0.052335765 -0.026785508 0.009484482 0.35774657 0.00043640134 -0.0474329 -0.032219145
0.060795367 -0.2889543 -0.06601251 0.27047145 -0.33793592 -0.5363636 0.09899566 -0.14037003
-0.29409558 0.014594134 0.08764079 -0.5720713 -0.6285901 0.15991983 -0.05874844 -0.12099543
0.25164378 0.24962091 -0.22739352 -0.4854841 0.050182406 -0.12900259 -0.1450937 0.0428097
-0.10292708 -0.3791542 -0.457266 -0.049962368 -0.3035184 0.1642534 -0.1071691 0.072866865
-0.09907199 0.006794424 0.3251797 0.050433885 0.08160228 -0.30704752 0.11486694 -0.024718842
0.035855982 0.13304222 -0.0102030365 0.16267702 -0.0063015562 -0.11952896 -0.003219802 0.14198454
0.03315517 0.056685064 -0.06734568 0.024936566 0.10696219 0.07196103 0.21048549 0.07094776
-0.034704592 -0.16320089 0.022755878 0.20098445 0.16345736 0.11581442 -0.015978862 -0.026803778
-0.008043075 0.13651593 0.045078084 0.11506776 0.1428453 -0.029061183 0.09827912 0.040149778
0.07075639 0.027725149 0.14985704 0.16338775 0.12775925 -0.043273997 -0.13354671 -0.03853926
0.043056674 0.15514201 -0.18359573 -0.10523634 -0.048867185 -0.056697723 0.09135214 0.0060327365
-0.13418229 -0.117567055 -0.0011584106 -0.05897885 -0.061809815 0.004413864 0.13448067 -0.108493745

network_body._body_endoder.seq_layers.2.bias f4 [128]
00000000: 78fc 1b3e ba1c 213e 788d d13d 56a4 9ebd
00000010: 88d6 ca3d 0925 393e 61c6 5f3c 628e 6c3e
00000020: 30bb f4bd be4e 1dbd 8cbb 263e 3066 92bd
00000030: a1ea 8dbd 85bf 90bd 0393 17bd 8921 afbd
00000040: acfa 913d 5289 2a3e 8e62 4e3d fdef ea3d
00000050: 7b00 17bd 8f60 fd3d dcd6 30be 9a4e bbbd
00000060: 0bae cebd 3c19 2e3e c021 fc3d 048d 0dbe
00000070: 0d6e b43d 5479 783d cda0 053e 3180 b93d
00000080: 1a38 2cbe 3f29 d5bd 4f2c a1bd 9b9e 3d3d
00000090: 52cc e23d 9394 493e 81c4 1d3e 0b74 2ebe
000000a0: 2c52 043e 7f82 373e c08b 263e ca63 533d
000000b0: ece1 f63d 50a0 eb3d 60f0 223c 13cc cabd
000000c0: f8ab bd3d 8933 d0bd 8351 a53d f355 9fbd
000000d0: e53c 893d 6944 48bc 83e1 bcbd ed52 cdbd
000000e0: e36f eb3d 4aae b03d d4a4 cb3d b561 e73d
000000f0: 10a4 813e 7d63 7fbd 1ab0 053e 7adc d6bd
00000100: cbca 06be 466c e63d df80 283e 38d2 cf3d
00000110: daac 82bc df7e 973a b420 c9bd 697d 183e
00000120: 1b2f 003e b59e 183d 34d9 383e ecc2 ba3d
00000130: 7b35 26bd d70a 233e 4cc0 093e 89e0 9c3d
00000140: a2a6 b9bd fa98 c73d c8d2 4fbc 7e97 6a3d
00000150: 5a43 bbbd 776f 4a3e 87c8 f43d 2344 f13d
00000160: 770d 223e cbcc cd3c b718 cebc f7d2 fb3d
00000170: e21c 513d feb3 0a3e 6330 65bc 5530 fa3d
00000180: e473 de3d 3b84 b73d 0934 e83d b94b fe3d
00000190: 5154 053e ddef db3d 62ba fa3d 4144 243e
000001a0: 9082 b23d 88e6 4c3d 758a 04be 0981 e53c
000001b0: 3f55 aa3d 5971 26bd ccf4 f93d 1f9c 9c3d
000001c0: 89a6 8d3d 2496 043e e922 b13d e302 3b3e
000001d0: 427e a7bd eb07 babd 9053 c33d ed42 193e
000001e0: 2adb e63d 8aa8 0dbe c70a 8fbd 847c d3bd
000001f0: d5dd 1dbd 56c5 94bd bae5 ed3d d4d1 b8bd
0.15233028 0.15733615 0.10232061 -0.07746188 0.099042 0.18080534 0.013658137 0.2310119
-0.11949766 -0.038405173 0.16282481 -0.07148397 -0.069295175 -0.070677795 -0.037005436 -0.08551318
0.0712789 0.16653946 0.050386958 0.114715554 -0.036865693 0.12371933 -0.17269462 -0.091458514
-0.1009179 0.17001814 0.12311125 -0.13823324 0.08810053 0.060662583 0.13049622 0.09057654
-0.16818276 -0.10408258 -0.07869779 0.046293836 0.11074127 0.19685583 0.15406992 -0.17036454
0.12921971 0.17920874 0.16264248 0.05160884 0.1205481 0.115051866 0.009945005 -0.09902205
0.09261316 -0.101660796 0.08072188 -0.077800654 0.06701068 -0.0122233415 -0.092227004 -0.100255825
0.1149595 0.08626993 0.09943548 0.11297933 0.25320482 -0.06235074 0.13055459 -0.10491271
-0.13163297 0.1125112 0.1645541 0.10147518 -0.015951563 0.0011558196 -0.09820691 0.1489159
0.1251797 0.03726073 0.18051606 0.0911921 -0.040578347 0.15922104 0.13452262 0.07660014
-0.09064986 0.09745975 -0.0126845315 0.05727338 -0.09143706 0.19769083 0.1195231 0.11780574
0.15825449 0.025122067 -0.02515827 0.12296098 0.051052935 0.13545224 -0.013988587 0.1221625
0.10861948 0.08960768 0.1133805 0.12416787 0.13020445 0.1073911 0.12242581 0.16041662
0.08716309 0.05002454 -0.12943442 0.02801563 0.08317041 -0.04063544 0.122048944 0.07646965
0.0691653 0.12947899 0.08649237 0.1826282 -0.08178379 -0.090835415 0.09537423 0.14966936
0.11272271 -0.13833824 -0.069844775 -0.10326484 -0.038541634 -0.07264201 0.116160825 -0.090243965

network_body._body_endoder.seq_layers.2.weight f4 [128, 128]
00000000: 67f3 6abe 3518 8f3e 3090 053e 3b0c 76be
00000010: ff51 503e e5b4 3abd 2ca2 72be b6b7 45be
00000020: 7873 8cbd da14 6d3e 9c96 493e a194 853d
00000030: 191e 523d 62d7 26be fea4 dfbd 9e9f df3d
00000040: eb97 2cbe 322c 13be aaf9 373c 50b6 b0bd
00000050: 3c41 03be f800 6abd 658d 543c 4336 56bd
00000060: a8c9 83bd 402b 20bd 8e29 fc3d 8160 ffbd
00000070: 14fa 8fbd 63dc ea3c b002 333c 55ab 51be
00000080: 7f6b 59be 58d5 543e 9d25 51be 3e2d 45be
00000090: bce0 54be f580 06be 6a0a 87be b91c b4bd
000000a0: cfbe 433e 310b 93bd 8f0f a03e 5aec 873d
000000b0: 416f 4f3d 2f0c d4bc af21 403c 6e0e 16bc
000000c0: 2601 cebd 8354 d53d 2790 f8bd a7a5 1ebe
000000d0: 55d1 46bc 65d2 8ebe ae15 c3bd 778a 5bbe
000000e0: 8e67 b53d ae30 ea3d cfd7 eabd e2da 803e
000000f0: 2f22 dabc 5a1b f1bd 9ba9 4fbe 40b0 b9bc
00000100: aa91 6abd 9677 04be fa9c cd3d 42c7 69be
00000110: 84c5 683e faf8 e0bc 6bc2 e2be 5349 603e
00000120: fd3b a4bd 22f2 093e d65c 3cbe 7708 a6bd
00000130: f974 133d f088 fd3d 5778 08bb 46f1 52bd
00000140: f78d 893d c247 323d ebab 14be 86dc b03c
00000150: 5551 993e 5bb1 b2be fec4 14be 9f71 9e3e
00000160: 0d36 a8bd 2154 2f3e ee63 bebd ed2d eb3e
00000170: 8cc6 963e c977 1a3e 0186 1a3e 33de f2bd
00000180: 0331 64bc a68a d9bd e7e6 50be 18a3 4c3d
00000190: ca3c ec3d db73 fdbd 9d53 aa3d 6018 d63d
000001a0: f8ab 843e 3a8a 0c3e 303e a8bd 3c35 393e
000001b0: a563 bcbe 301d 5fbd c746 adbe ba81 923e
000001c0: 6ef2 9f3e 54b4 e1bb da15 e83c 234f 833e
000001d0: c919 10bd b4cb 2abe 0ac2 9e3c 374e a83d
000001e0: 10f2 893c be70 993d 38f7 743e f530 2ebe
000001f0: 842f 35be b3ae 073e 6548 2a3d 8cf0 60bd
00000200: 0558 a23d 2a8c 6dbd 0097 0bbe fef2 a0bd
00000210: 74a7 a2bd 7b29 fabc 713f 64be 27d6 8fbd
00000220: 388d b8bc 85b1 12be 30a0 5b3e 9500 063d
00000230: 5f89 c8bd 4463 38be 5215 3cbe 8731 183e
00000240: eaf7 28be d007 0dbe 3047 953d 6a27 eb3c
00000250: 3ec9 4a3e 8a01 0ebd f49f 383d 95ea 283e
00000260: 2a3d 7c3e 3476 f8bb 9174 853d acfc 10bd
00000270: 9ab8 313e e5d4 10bd a248 a0bc 2d48 93bd
00000280: e6ab 773e 0de9 24be adae 9a3d b618 23be
00000290: 1d9c fb3d d5bf 4ebc acc4 f5bd 114b 0cbd
000002a0: fe1d 16be 0a14 0ebd 2373 613e f2cd f2bd
000002b0: 6a2e 613d f81a ab3d 714c 93be 4437 aebd
000002c0: 3e30 84bc f8b2 de3c b438 4ebd ec5a 85be
000002d0: 273b b03c 1e07 3b3e 0bb3 edbd 397f 4b3d
000002e0: d91b f7bd 7a1e 573d 324b 03be d7c6 d8bd
000002f0: 5c6f 61bd 3eb2 6fbe c4ef 97bd 3eba 16bb
00000300: a418 26be 3ab1 91bd aaa7 873e 1c8b dfbc
00000310: cc5b dbbd a10e 50bd e27e bfbd 33aa cc3c
00000320: c4f7 e33b a4cc 42bd 9d00 6a3e 1247 d1bd
00000330: b8b1 863e 6862 bd3d 7164 623e 94a6 7e3d
00000340: a6d6 4dbd 1aaf 18bd 042d 35be 22ff 783b
00000350: a98a 493e 6b68 06bd cd0a e43d 3078 3d3e
00000360: e64b d2bc b010 72bd 0a04 11be ebff 093d
00000370: 0ab5 de3c 5c92 223e 24ee d13b de06 81be
00000380: 003f 9338 0ef4 67bd 3495 153d b30a 61be
00000390: 2cd8 20be 0e32 933e 6e94 6ebc bfba bebd
000003a0: b360 d43d cdc0 113d 304d 76be 5f3f 1d3e
000003b0: 06aa f7bd ace9 f23b 3e52 633d 134f c2bd
000003c0: 72c4 833e 845e a73d 40e0 b23d e01c fabd
000003d0: b5bc 123e bd09 973d de45 c53d 8ad3 d3b9
000003e0: f405 1d3c a1fa f2bc bdce eb3c c787 9fbd
000003f0: 1f6d 9fbe 6d72 03be 5c32 0cbe 65eb 2d3c
-0.22944413 0.27948156 0.13043284 -0.24028103 0.20343779 -0.04558267 -0.23694676 -0.19308361
-0.068579614 0.23152485 0.19686359 0.06522489 0.051298235 -0.162931 -0.10920142 0.109191164
-0.16854827 -0.14372328 0.011228958 -0.08628523 -0.12817854 -0.05712983 0.012973164 -0.05229784
-0.06434947 -0.039103746 0.123126134 -0.124695785 -0.070301205 0.028669542 0.010925934 -0.20475514
-0.21232413 0.20784509 -0.20424505 -0.1925554 -0.20788854 -0.1313513 -0.26375133 -0.08794541
0.19115756 -0.07179869 0.3126187 0.06636877 0.05064321 -0.025884716 0.011726781 -0.009158714
-0.10058813 0.1041651 -0.1213687 -0.15492879 -0.01213487 -0.27894893 -0.095256194 -0.21439539
0.08857642 0.11435066 -0.114669435 0.25166994 -0.026627628 -0.11772795 -0.20279543 -0.02266705
-0.057267822 -0.12936243 0.100397065 -0.22829917 0.22731596 -0.027462471 -0.44288954 0.21902971
-0.08019254 0.13471273 -0.18394789 -0.08107083 0.036000226 0.123796344 -0.0020823681 -0.051499628
0.06716531 0.043525465 -0.14518707 0.021589529 0.29944864 -0.34900936 -0.14528272 0.3094606
-0.08213434 0.17121936 -0.09296404 0.45933476 0.29448354 0.15084757 0.15090181 -0.118587874
-0.013927701 -0.10622148 -0.20400582 0.049960226 0.11535032 -0.12375613 0.08316729 0.10453868
0.25912452 0.13724604 -0.08214986 0.18086714 -0.36794773 -0.054471195 -0.3384306 0.286146
0.31239647 -0.006887952 0.028330732 0.25646314 -0.03518084 -0.16679269 0.019379634 0.08218043
0.016839057 0.07492207 0.23922431 -0.17010863 -0.17693907 0.13250236 0.041572947 -0.054916903
0.07926945 -0.057995 -0.1363182 -0.07858847 -0.079420954 -0.030537358 -0.22289826 -0.07023268
-0.022528276 -0.14325531 0.21447825 0.0327154 -0.097918265 -0.18006617 -0.18367508 0.14862643
-0.16500822 -0.13772511 0.072889686 0.028705318 0.1980333 -0.034669437 0.04507442 0.16495736
0.24632707 -0.0075824503 0.06516374 -0.035397217 0.17355576 -0.035359282 -0.019565884 -0.07191501
0.24186668 -0.16104527 0.07552848 -0.15927395 0.122856356 -0.0126189785 -0.12000403 -0.034251276
-0.14659879 -0.03468708 0.22016577 -0.11855687 0.054975905 0.08354753 -0.28769258 -0.08506635
-0.016136285 0.027184948 -0.050347045 -0.2604593 0.021512581 0.18264434 -0.11606415 0.049681876
-0.120658584 0.0525193 -0.12821653 -0.10584801 -0.05503784 -0.23407838 -0.074187785 -0.0022999193
-0.16220337 -0.071138814 0.26495105 -0.027288012 -0.10710868 -0.0507952 -0.09350373 0.024983501
0.006957026 -0.04755844 0.22851796 -0.10218634 0.26307464 0.09247285 0.22108628 0.06217058
-0.050253533 -0.037276365 -0.17692953 0.0037993868 0.19681801 -0.032814424 0.111348726 0.18502879
-0.025670957 -0.059097946 -0.14161697 0.033691328 0.027185936 0.15876144 0.0064065624 -0.25200552
7.021241e-05 -0.056629233 0.036519244 -0.21976738 -0.15707463 0.28749126 -0.014561756 -0.09312963
0.103700064 0.03558426 -0.24052882 0.15356205 -0.12092976 0.0074131098 0.055498354 -0.094877385
0.25735813 0.08172324 0.087341785 -0.12212539 0.14329799 0.07374904 0.09632467 -0.00040402665
0.009583939 -0.029660525 0.028785104 -0.07789569 -0.3113794 -0.12836619 -0.13691086 0.010615204
