Assets/Models/2023-06-09_movementpunishment/My Behavior.onnx (onnx, 137225 bytes, 9 tensors)

action_model._discrete_distribution.branches.0.bias f4 [3]
0	0xbd8cb8aa	-0.068711594
1	0x3dbada16	0.09123628
2	0xbd52d06c	-0.051468298

action_model._discrete_distribution.branches.0.weight f4 [3, 128]
0	0xbd8bb8b9	-0.068223424
1	0xbd3460a2	-0.04403747
2	0xbdc90951	-0.0981623
3	0x3de455b1	0.11149157
4	0xbd40fd30	-0.04711646
5	0x3cf3c13c	0.029755227
6	0x3d635832	0.05550403
7	0xbce7f66f	-0.02831575
8	0x3e16cdeb	0.14726989
9	0xbd630f1f	-0.055434342
10	0xbcb72b35	-0.02235947
11	0x3d327af4	0.04357429
12	0xbd2f5bb2	-0.042812057
13	0x3e201bad	0.15635557
14	0xbdf07435	-0.11740915
15	0xbd1a44c2	-0.03766323
16	0xbd595ea6	-0.05306878
17	0xbb1e6918	-0.0024171527
18	0x3db95e3b	0.09051176
19	0xbc80ed82	-0.015738253
20	0x3c900e9a	0.017585088
21	0x3d093730	0.033499897
22	0x3e0a90d7	0.13531815
23	0x3db08f93	0.086211346
24	0xbe109567	-0.14119492
25	0xbd9a9503	-0.07547953
26	0xbe0e9b3c	-0.13926405
27	0x3dbdfc62	0.09276654
28	0x3e0979dc	0.13425392
29	0xbe175648	-0.14779007
30	0x3d9d10c8	0.076692164
31	0xbda1c51b	-0.07898923
32	0x3d8266d4	0.06367269
33	0x3e0dc3d1	0.1384423
34	0xbd1ded0b	-0.03855614
35	0xbe0b9adb	-0.13633291
36	0xbd155cfe	-0.036465637
37	0xbd7c6291	-0.061617438
38	0xbd38731c	-0.04503165
39	0xbce29615	-0.027659455
40	0xbe032b93	-0.12809591
41	0xbe0574e9	-0.13032879
42	0xbd46f852	-0.04857666
43	0xbd877adc	-0.066152304
44	0x3c9c81b1	0.01910481
45	0x3d2a5f18	0.041594595
46	0x3b616b05	0.0034396064
47	0xbd59fdce	-0.053220563
48	0x3d98fa3c	0.074696034
49	0xbc63c69e	-0.0139023345
50	0x3e0795f8	0.13240802
51	0x3d244727	0.04010692
52	0x3d682fd4	0.056686237
53	0xbe193e5a	-0.14965191
54	0xbd21bf5f	-0.039489146
55	0xbba4702f	-0.005018256
56	0x3d24ed61	0.040265445
57	0x3d801238	0.06253475
58	0xbd37be58	-0.04485926
59	0x3e0e5dc1	0.13902952
60	0xbd2ac447	-0.04169109
61	0xbdab026b	-0.083500706
62	0xbe2a3dd9	-0.16625156
63	0x3d1ecb8d	0.03876834
64	0xbde74a74	-0.11293498
65	0x3d4333ed	0.047656942
66	0xbe24fc6e	-0.1611192
67	0x3ce37142	0.027763966
68	0x3ddd0a04	0.10792926
69	0x3e14c872	0.14529589
70	0xbd54ac8a	-0.05192236
71	0x3e14bfed	0.14526339
72	0xbe4a3cec	-0.19749802
73	0xbe2da5f4	-0.16957837
74	0xbdc5bc10	-0.09655011
75	0x3e173e81	0.14769937
76	0xbde92997	-0.11384886
77	0xbe40f996	-0.1884521
78	0xbd8b3053	-0.067963265
79	0xbe0b714e	-0.13617441
80	0xbda36bcb	-0.07979544
81	0xbd6ebfdc	-0.05828844
82	0x3d8179ff	0.06322097
83	0xbe43e4aa	-0.19130197
84	0xbd95689c	-0.07295343
85	0xbd367154	-0.044541672
86	0x3de1410c	0.10998735
87	0xbdc7ccf4	-0.097558886
88	0xbe476497	-0.19471966
89	0xbe3514ea	-0.1768376
90	0xbd337ad8	-0.043818325
91	0xbdb877eb	-0.090072475
92	0xbe06505e	-0.13116595
93	0x3e20f9cf	0.15720294
94	0x3dc3ec8a	0.095666006
95	0xbd958584	-0.07300857
96	0x3dda5a29	0.10661728
97	0x3c3b8b61	0.011446805
98	0xbd81e32b	-0.06342157
99	0x3ca4b2c1	0.020104768
100	0xbdaef034	-0.08541909
101	0x3cdf9b00	0.02729559
102	0xbe0046a5	-0.12526949
103	0x3c51f453	0.012814599
104	0xbb8302be	-0.0039981296
105	0xbd538b2c	-0.051646397
106	0xbce788b3	-0.028263425
107	0xbd57f6c7	-0.05272558
108	0xbe031022	-0.12799123
109	0xbe0b014f	-0.13574718
110	0x3e04af71	0.1295755
111	0x3c372abd	0.011179623
112	0xbd6d42be	-0.05792498
113	0x3df7d103	0.12100413
114	0x3d8dbf9c	0.06921312
115	0xbda4d47a	-0.08048339
116	0x3e0d42e2	0.13795045
117	0xbc2fe23c	-0.010735091
118	0xbd4e7c2b	-0.050411385
119	0x3d8826e2	0.06648041
120	0xbe1cb4eb	-0.1530339
121	0x3d0312b2	0.03200025
122	0xbc7b28d5	-0.015329559
123	0x3e0752e8	0.1321522
124	0xbd495e10	-0.04916197
125	0x3e0982a3	0.1342874
126	0xbdcdfab2	-0.10057582
127	0xbe09d140	-0.13458729
128	0x3d88411c	0.06653044
129	0x3d9abebf	0.07555913
130	0x3dabc4a8	0.083871186
131	0xbdfc4a86	-0.12318902
132	0x3d93fbd1	0.072257645
133	0x3d8d5d4f	0.06902563
134	0xbddccc48	-0.10781151
135	0x3dbd6144	0.092470676
136	0xbde8e40b	-0.11371621
137	0x3d87a259	0.06622762
138	0xbddbdbc4	-0.10735276
139	0xbdd8fa0c	-0.10594568
140	0xbdc31fe3	-0.09527566
141	0xbdd2480a	-0.102676466
142	0x3da8db5b	0.08244964
143	0x3dc984fa	0.098398164
144	0x3db6abf8	0.08919519
145	0xbdb79395	-0.08963696
146	0x3cad1140	0.02112639
147	0x3da158e0	0.0787828
148	0xbd94585b	-0.07243415
149	0xbdc024cb	-0.09382018
150	0xbd01ea6f	-0.031717714
151	0xbdda1820	-0.10649133
152	0x3dd70c9b	0.10500451
153	0x3daabf34	0.0833725
154	0xbd0cf819	-0.034416292
155	0xbdf4d1ac	-0.11954054
156	0xbd974364	-0.073859006
157	0x3c090423	0.008362803
158	0xbde50114	-0.11181846
159	0xbddd9bcb	-0.10820731
160	0xbe0a410c	-0.13501376
161	0xbdbba604	-0.09162524
162	0x3d75559b	0.059896093
163	0x3d98282e	0.07429539
164	0x3d474576	0.048650227
165	0x3d9423db	0.072334014
166	0xbdacfaad	-0.0844625
167	0xbdd705ca	-0.10499151
168	0x3da1b282	0.07895376
169	0x3d77dc18	0.060512632
170	0x3d5f77ee	0.054557733
171	0x3df4ada9	0.119471855
172	0x3d92019c	0.07129213
173	0xbdca80bb	-0.09887835
174	0x3d94f957	0.0727412
175	0x3dc37359	0.09543485
176	0xbd80739e	-0.06272052
177	0x3db913d6	0.090369865
178	0xbdcc133d	-0.09964607
179	0xbe086a4f	-0.13321804
180	0x3d89e139	0.06732411
181	0x3daf0cda	0.08547373
182	0x3d9838c9	0.07432706
183	0x3d7c3c7f	0.06158113
184	0xbdca5e38	-0.09881252
185	0x3d746887	0.059669998
186	0x3d691e00	0.056913376
187	0xbd853cf3	-0.06505766
188	0x3d9fee18	0.07809085
189	0x3db83a0d	0.08995447
190	0xbd47f590	-0.04881817
191	0xbba38489	-0.0049901647
192	0xbdb7aaf8	-0.089681566
193	0xbd91753b	-0.07102438
194	0xbd39060b	-0.04517178
195	0x3d12e3b5	0.03586169
196	0xbd99d7a5	-0.07511834
197	0xbdd2704e	-0.10275327
198	0x3d91172e	0.07084499
199	0xbda0feb1	-0.078610785
200	0x3d4c5d85	0.049893875
201	0x3d4d0aff	0.050059315
202	0x3d807bf7	0.062736444
203	0xbde69ff9	-0.11260981
204	0x3d95a0e7	0.0730608
205	0x3d97b3e8	0.07407361
206	0xbd157808	-0.036491424
207	0x3dc223d5	0.09479491
208	0x3d85cf36	0.06533663
209	0x3db0b401	0.08628083
210	0xbdc96772	-0.09834184
211	0x3dc3d42e	0.095619544
212	0x3de14698	0.10999793
213	0xbd9ee4f9	-0.07758517
214	0xbd2c8f48	-0.04212883
215	0x3d8c5928	0.06852943
216	0x3d29f552	0.04149372
217	0xbd57fab8	-0.05272934
218	0xbd90bd22	-0.07067324
219	0x3d435299	0.047686193
220	0x3dbb9288	0.09158808
221	0xbd2c9904	-0.042138115
222	0x3c96bc67	0.018400384
223	0x3d90a101	0.07061959
224	0x3d803650	0.06260359
225	0xbdc8061e	-0.09766792
226	0x3d988961	0.07448078
227	0x3dbd3635	0.09238855
228	0x3d8f729a	0.070042804
229	0xbd68ddbb	-0.056852084
230	0x3e2643c1	0.16236784
231	0xbdafc674	-0.08582774
232	0xbdc0b180	-0.094088554
233	0x3d439a57	0.04775461
234	0x3d8d2ff2	0.068939105
235	0xbd7bacd3	-0.061444115
236	0x3d81340f	0.063087575
237	0xbd874442	-0.06604816
238	0xbdd44d7f	-0.10366344
239	0x3d720a34	0.05909176
240	0x3d9c0965	0.07618979
241	0xbda99a9e	-0.08281444
242	0xbda4ab7f	-0.08040523
243	0x3dc51063	0.09622266
244	0xbde688b6	-0.11256544
245	0x3d922c80	0.07137394
246	0x3d8f71f9	0.070041604
247	0xbde2ef40	-0.110807896
248	0x3da7f9a3	0.08201911
249	0x3da4905e	0.08035348
250	0x3d90e74d	0.07075367
251	0xbdc4acaa	-0.096032456
252	0xbda6debf	-0.08147954
253	0xbdbec2cb	-0.093144976
254	0x3da37aab	0.079823814
255	0x3d497dcd	0.04919224

action_model._discrete_distribution.branches.1.bias f4 [3]
0	0x3c84c8f1	0.016209098
1	0x399993be	0.0002929251
2	0xbc65688e	-0.014001979

action_model._discrete_distribution.branches.1.weight f4 [3, 128]
0	0x3b0b9bd5	0.00213026
1	0x3c092eeb	0.0083730025
2	0xbc8855c7	-0.016642464
3	0xbd1a96fc	-0.037741646
4	0x3be85e46	0.0070913164
5	0xb9da8be4	-0.00041684427
6	0xb8a94596	-8.0715094e-05
7	0x3ab54fa6	0.0013832941
8	0xbd01d2a6	-0.03169503
9	0x3c683ee9	0.014175155
10	0xbd1a615e	-0.037690513
11	0xbd1f09d6	-0.03882774
12	0xbca2bf26	-0.019866537
13	0x3caee1a0	0.02134782
14	0x3ca9c3c8	0.020723239
15	0xbb719919	-0.0036864935
16	0x3a176936	0.00057758705
17	0xbd5dbeed	-0.05413716
18	0xbc910d5c	-0.017706566
19	0xbc277dad	-0.010222835
20	0xbc83f51c	-0.016108088
21	0xbb9391c5	-0.004503461
22	0xbcf205d5	-0.029543797
23	0xbcee5a98	-0.029095933
24	0x3c4a0294	0.012329716
25	0x3c13ed4f	0.009028747
26	0xbc189582	-0.009312989
27	0xbd36b585	-0.044606704
28	0x3b0c9cd6	0.0021455786
29	0xbcb2ed6c	-0.021841727
30	0xbc80eea8	-0.0157388
31	0xbcfde4b8	-0.03099285
32	0x3b4308c3	0.002975986
33	0xbcbc81f9	-0.023011195
34	0xbc0272d0	-0.007961944
35	0xba33abbf	-0.00068539
36	0xbd3105a1	-0.04321826
37	0x3c0bc4b8	0.008530788
38	0xbd050aad	-0.032480884
39	0xbd0712df	-0.03297698
40	0xbae92064	-0.0017786142
41	0xbc15bd27	-0.009139336
42	0x3c8d427a	0.017243613
43	0x3ca14e58	0.019690678
44	0xbc346830	-0.011011168
45	0xbcecd0f6	-0.028908234
46	0x3ceac1e2	0.028656904
47	0x3c9b4415	0.018953362
48	0x3c489d30	0.012244508
49	0x3b522430	0.0032065026
50	0xbc98f722	-0.01867253
51	0xbc7d5bb7	-0.015463761
52	0x3c3799ac	0.011206072
53	0x3c940e1e	0.018073138
54	0xbc0fedad	-0.008784694
55	0x3b8453a8	0.004038293
56	0xbc8d68d0	-0.017261893
57	0xbc932355	-0.017961184
58	0xbc687647	-0.014188356
59	0xbc782b82	-0.015147092
60	0x3ab2a17f	0.0013628452
61	0xbb93d56b	-0.0045115254
62	0xbc565ac4	-0.013083164
63	0xbccbfbad	-0.024900282
64	0xbd176b4e	-0.036967568
65	0x3c30bf84	0.010787848
66	0xbd61d5e8	-0.055135638
67	0xb9d8a3d3	-0.0004132079
68	0x3c3a6ce8	0.011378504
69	0xbcaa9e02	-0.020827297
70	0xbb0fa601	-0.0021919014
71	0xbc1e212e	-0.009651465
72	0xba7c0364	-0.00096135424
73	0xbd4250d9	-0.047440384
74	0xbaf5d8bf	-0.0018756612
75	0xbbfdef00	-0.0077494383
76	0xbc31c620	-0.010850459
77	0x3c7bbffb	0.015365596
78	0xbd3f3992	-0.046685763
79	0xbbf9d9df	-0.007624849
80	0xbc83ae82	-0.016074423
81	0x3b6a350c	0.0035737185
82	0xbccec06e	-0.025238242
83	0x3ca39e5c	0.019972973
84	0x386b0ac7	5.6038403e-05
85	0xbd2f7019	-0.042831514
86	0xbd0f2770	-0.03494972
87	0x3c4fbfcd	0.012680006
88	0xbc8d3d74	-0.017241217
89	0x3c035871	0.008016692
90	0xbd3b449a	-0.04571972
91	0xbc8c9caa	-0.017164547
92	0xb8d291c5	-0.00010040732
93	0xbc830058	-0.015991375
94	0x3be029dd	0.006840928
95	0xbc033e75	-0.008010496
96	0xb9f1469b	-0.00046019707
97	0xbcf1d755	-0.029521624
98	0xbacbe477	-0.0015555759
99	0xba5085fa	-0.00079545344
100	0xbc2de3bd	-0.010613379
101	0xbd0052ae	-0.03132885
102	0x3d2c453c	0.042058215
103	0xbcd6e5bf	-0.026232598
104	0xbd061915	-0.032738764
105	0x3b213dfb	0.0024603594
106	0xbc5622ab	-0.013069789
107	0x3c9ac823	0.01889426
108	0xbb7982c5	-0.003807233
109	0xbd5246a6	-0.051336907
110	0xbd0281ae	-0.031861953
111	0x3c32acab	0.010905425
112	0x3b8caf3a	0.0042933496
113	0x3b983bd0	0.004645802
114	0x3c05013b	0.008117969
115	0x3bf69983	0.0075256242
116	0xbca3e374	-0.020005919
117	0xbc7aa76f	-0.015298708
118	0xb9dc76b1	-0.00042050102
119	0xbbc11622	-0.005892531
120	0x3b1f3991	0.0024295787
121	0x3bf072b2	0.0073378915
122	0xbbf9e3c1	-0.0076260273
123	0xbc29fa64	-0.010374639
124	0xbc14cc2f	-0.009081884
125	0xbc57f39b	-0.013180639
126	0x3b5d058e	0.0033725235
127	0xbc735f93	-0.01485433
128	0x3bcfa65a	0.0063369693
129	0x3b27e7e5	0.0025620398
130	0x39e2d816	0.00043267076
131	0x3d2691ae	0.040666275
132	0x3c496ea6	0.012294447
133	0xbc840fe8	-0.016120866
134	0x3d052de1	0.032514457
135	0xbb921bdf	-0.004458889
136	0x3c33915d	0.01095995
137	0xbaed8eae	-0.0018124187
138	0x3cc2f61e	0.023798998
139	0x3d3c62cc	0.045992658
140	0x3ccd24a6	0.02504189
141	0x3c2d6323	0.010582718
142	0xbc027ff3	-0.007965076
143	0x39d9d4fe	0.00041548157
144	0xbc5a38b7	-0.013319186
145	0x3cce2aae	0.025166836
146	0x3c6cd746	0.014455622
147	0x38d7bbc7	0.00010286975
148	0x3cf08c48	0.029363766
149	0x3a73f618	0.0009306385
150	0x3c2d5cac	0.010581177
151	0x3d315122	0.043290265
152	0xbb8789e7	-0.0041363123
153	0xbc67dcd4	-0.014151771
154	0x3b725d03	0.0036981709
155	0x3d260fd8	0.040542454
156	0x3c43fdb7	0.011962346
157	0x3c8ab419	0.01693158
158	0x3c9913f6	0.018686276
159	0x3c6eada9	0.014567771
160	0x3d084869	0.03327218
161	0x3c6e1178	0.014530532
162	0x3c0707c0	0.008241594
163	0x3c57293b	0.013132389
164	0x3d17f66e	0.037100248
165	0xbc0b6b74	-0.008509506
166	0x3caa76e5	0.020808646
167	0x3cd509a6	0.026005577
168	0xbb285d78	-0.0025690477
169	0x3c96f97a	0.018429507
170	0x3c28a4a9	0.010293164
171	0xbc2850a3	-0.010273132
172	0xba63878d	-0.00086795614
173	0x3d3561a5	0.044282574
174	0x3b404b53	0.0029341772
175	0x3b834465	0.004005956
176	0xbcdaef42	-0.026725415
177	0x3a43b824	0.0007466099
178	0x3b868d74	0.004106218
179	0x3d59fda6	0.053220414
180	0xbcb93e1c	-0.022612624
181	0xbc86a9d6	-0.016438406
182	0xbc534696	-0.012895247
183	0xbc6a7b1a	-0.014311576
184	0x3cc04c9a	0.023474026
185	0x3c20642c	0.009789508
186	0x3c495485	0.012288217
187	0x3bf42859	0.007451099
188	0xbbb58c79	-0.0055404273
189	0x3ab455ac	0.0013758442
190	0x3c587ada	0.013212884
191	0xbd11d415	-0.035602648
192	0x3cd01d99	0.025404738
193	0x3c45241d	0.012032536
194	0x3c9f42de	0.019441064
195	0xbc2358f7	-0.009969941
196	0x3c015db8	0.007895879
197	0x3c534f92	0.012897389
198	0x3bc847e6	0.0061120866
199	0x3cb0f118	0.021599337
200	0x3c83027a	0.015992392
201	0x3bfe4442	0.007759602
202	0x3c86446f	0.016390054
203	0x3c8fc934	0.017551996
204	0x3ac1efd9	0.0014796212
205	0x3c2d66f7	0.010583631
206	0xbb40f5d2	-0.0029443395
207	0x3c2c4c90	0.010516301
208	0xbb87c77c	-0.0041436534
209	0x3c4a5ab9	0.0123507315
210	0x3d3d017d	0.046143997
211	0xbc092445	-0.008370464
212	0xbc1dfa7e	-0.0096422415
213	0x3ceedd7b	0.029158344
214	0x3c2c83e5	0.010529493
215	0x3c1d607a	0.009605521
216	0x39299527	0.0001617266
217	0x3c38ca25	0.011278664
218	0x3cb716fa	0.022349823
219	0x3ca25ff7	0.01982115
220	0xbac12773	-0.0014736488
221	0x3b451ada	0.003007582
222	0xbc82f38d	-0.015985275
223	0x3bcf02fd	0.006317495
224	0xbc652372	-0.013985502
225	0x3d21d490	0.039509356
226	0x3cda3939	0.026638614
227	0xbbc433af	-0.0059876065
228	0xbc454b37	-0.012041858
229	0x3c22a63f	0.0099273315
230	0xbcd466fb	-0.025928011
231	0x3d0986e7	0.03357592
232	0x3d1d7742	0.03844381
233	0xbaac0766	-0.0013124763
234	0x3c284b96	0.010271927
235	0x3bec966a	0.007220079
236	0x3c150f6b	0.009097914
237	0x3d12e2f5	0.035860974
238	0x3d1fe668	0.039038092
239	0x3b53a6c0	0.0032295436
240	0x3ce0cd5c	0.027441673
241	0x3c698d05	0.014254813
242	0xbbb27189	-0.0054456634
243	0xbb83085d	-0.0039987997
244	0x3ca2ed1a	0.01988845
245	0x3ba4e2b3	0.0050319075
246	0x3c497137	0.012295059
247	0x3c65e2f6	0.0140311625
248	0xbabfbaad	-0.0014627777
249	0xbcda3124	-0.02663476
250	0x3c33dcb5	0.010977914
251	0x3c8c5d73	0.017134404
252	0x3c88c435	0.016695121
253	0x3c5a8c57	0.013339124
254	0xbc303cec	-0.010756712
255	0x3cbb961a	0.022898722

discrete_action_output_shape f4 [1, 2]
0	0x40400000	3.0
1	0x40400000	3.0

network_body._body_endoder.seq_layers.0.bias f4 [128]
0	0xbcff53db	-0.031167915
1	0xbdcf009e	-0.101075396
2	0xbd86067f	-0.06544208
3	0x3dc3412d	0.09533916
4	0xbd9b6a74	-0.07588664
5	0x3cfaecd5	0.030630508
6	0x3db729d0	0.08943522
7	0xbb5e90d2	-0.0033960831
8	0xbb55cede	-0.0032624523
9	0x3d612ee0	0.054976344
10	0x3e0c1941	0.13681509
11	0xbe3cb517	-0.18428455
12	0xbdd80417	-0.10547655
13	0xbd7765c4	-0.060399786
14	0x3d9d7b0d	0.07689486
15	0x3d675d35	0.056485374
16	0xbd977355	-0.07395045
17	0x3d983424	0.0743182
18	0xbd44d264	-0.048052207
19	0xbe4964f8	-0.19667423
20	0xbd4e19fc	-0.05031775
21	0x3dcfdbdd	0.101493575
22	0x3dcfba78	0.10142988
23	0xbd40fdd9	-0.047117088
24	0x3dcb5a54	0.09929338
25	0x3df3df65	0.119078435
26	0x3c72687f	0.014795422
27	0x3da0e291	0.07855714
28	0xbd84a019	-0.06475849
29	0xbca6cf18	-0.020362422
30	0xbe09802e	-0.13427803
31	0x3dabede8	0.083949864
32	0xbde66450	-0.11249602
33	0x3d9d8861	0.07692028
34	0xbd404595	-0.04694136
35	0x3dacb426	0.08432798
36	0x3e02200d	0.12707539
37	0x3da55c00	0.08074188
38	0x3d901871	0.07035912
39	0x3c75825f	0.014984696
40	0x3d30dcfd	0.0431795
41	0x3d5e0878	0.054207295
42	0x3d871d0a	0.06597336
43	0x3db5768a	0.088605
44	0x3dbf5371	0.09342087
45	0xbdfc26e5	-0.12312106
46	0xbc9fa467	-0.019487573
47	0xbdb95bc4	-0.09050706
48	0xbd5bf02e	-0.05369585
49	0x3db41627	0.08793288
50	0xbd94e5a7	-0.07270365
51	0xbcf96378	-0.030442938
52	0x3ded640e	0.115913495
53	0xbd95fc59	-0.07323522
54	0xbdc94272	-0.098271266
55	0x3d78d255	0.060747463
56	0x3d38a0d6	0.04507526
57	0xbd6dfb50	-0.058101
58	0x3dc8b739	0.09800572
59	0xbe1d4f86	-0.15362367
60	0xbd0bfc11	-0.034175936
61	0xbc60ad15	-0.013713141
62	0xbdc1a755	-0.09455744
63	0x3da95dc8	0.082698405
64	0xbd8ec6fa	-0.069715455
65	0x3d531fc8	0.05154398
66	0x3da6944b	0.081337534
67	0x3d8cd520	0.06876588
68	0xbe1317fe	-0.14364621
69	0xbe59ba50	-0.21262479
70	0xbcca29f3	-0.024678206
71	0xbd82ab3c	-0.063803166
72	0x3dd0ead2	0.102010384
73	0x3dc1c993	0.09462275
74	0x3dfd0410	0.123542905
75	0xbd7370b3	-0.05943365
76	0xbd02b10a	-0.03190712
77	0x3d9c765d	0.076397635
78	0x3de071af	0.109591834
79	0xbe20a258	-0.15686929
80	0xbe594b3d	-0.21220107
81	0xbd9092c3	-0.070592426
82	0x3dbe8f2c	0.093046516
83	0x3de55614	0.11198059
84	0x3db1d7e2	0.086837545
85	0xbd431329	-0.047625694
86	0xbe231795	-0.15926965
87	0x3de1b4ff	0.110208504
88	0x3dd6b966	0.10484581
89	0x3d98716b	0.07443508
90	0xbe361505	-0.17781456
91	0x3dd04133	0.10168686
92	0xbd7d43a5	-0.06183209
93	0x3dbf2a9c	0.09334299
94	0x3e05063c	0.1299066
95	0x3dd4bb50	0.103872895
96	0x3dbc1dd3	0.09185376
97	0x3e0ce34e	0.13758585
98	0xbcf3fbad	-0.029783094
99	0xbd9aecbb	-0.07564684
100	0xbe0c43a6	-0.13697681
101	0x3df7ad50	0.120936036
102	0xbde6c562	-0.112681165
103	0x3d87a121	0.0662253
104	0xbdf22ea9	-0.11825306
105	0xbb4ceb93	-0.0031268343
106	0x3dca844c	0.09888515
107	0x3df2c394	0.1185371
108	0x3df8db20	0.1215117
109	0xbe07e2f6	-0.13270172
110	0x3dc319bc	0.09526393
111	0xbdad1d85	-0.08452896
112	0x3da7e677	0.081982546
113	0x3dbe6327	0.092962556
114	0xbd79647d	-0.06088685
115	0x3dc10614	0.094249874
116	0x3dedd177	0.11612218
117	0xbd8940c3	-0.067018054
118	0x3dc716db	0.09721156
119	0x3d883c41	0.066521175
120	0x3dcec890	0.10096848
121	0x3dc2faf0	0.09520519
122	0x3df66ddd	0.120326735
123	0x3dedf2cd	0.11618576
124	0x3dba2df1	0.09090794
125	0xbd254001	-0.040344242
126	0x3dc02094	0.09381214
127	0x3d8a3242	0.06747867

network_body._body_endoder.seq_layers.0.weight f4 [128, 126]
0	0xbca12440	-0.019670606
1	0x3d6749c7	0.056466844
2	0xbd32baea	-0.043635286
3	0x3d840606	0.064464614
4	0xbd309939	-0.043114875
5	0x3d933944	0.07188657
6	0xbe1a8cc6	-0.15092763
7	0x3c8a9501	0.016916754
8	0xbc56b081	-0.013103605
9	0xbe3c6ef6	-0.18401703
10	0x3d50c415	0.05096825
11	0x3d1b876a	0.037970938
12	0xbda4b6e9	-0.080427
13	0xbdcd33f4	-0.10019675
14	0x3cc866b9	0.024463044
15	0xbe002c96	-0.12517008
16	0xbdc1a662	-0.09455563
17	0xbc98420b	-0.01858618
18	0xbcf70fea	-0.030158956
19	0x3db55351	0.08853782
20	0xbdd7797f	-0.105212204
21	0x3aea3e8e	0.0017871426
22	0x3c03e5be	0.00805038
23	0xbd9d3fd7	-0.07678192
24	0xbd12f809	-0.035881076
25	0xbd87d1d0	-0.066318154
26	0xbde1c5f3	-0.11024084
27	0xba463a5e	-0.0007561798
28	0x3d7538d6	0.059868656
29	0xbe0230d0	-0.12713933
30	0x3dd693ea	0.10477431
31	0xbdb702a2	-0.08936049
32	0x3c20a797	0.0098055815
33	0x3df63c25	0.120231904
34	0xbb4332c6	-0.0029784902
35	0x3d57609a	0.05258236
36	0xbe1d884b	-0.15384023
37	0xbd1e5c2d	-0.038662124
38	0x3be5de94	0.007015059
39	0xbdcea09c	-0.100892276
40	0xbe13f998	-0.14450681
41	0x3e272a4c	0.16324729
42	0xbdf29f4a	-0.11846788
43	0xbd86902d	-0.06570468
44	0xbd76b18b	-0.060227912
45	0x3cbf4f84	0.023353346
46	0x3dc0a8d8	0.094072044
47	0x3d18c975	0.0373015
48	0xbda55fff	-0.080749504
49	0xbd83e760	-0.06440616
50	0xbe4791c8	-0.19489205
51	0x3b5747ac	0.0032849116
52	0xbe0f56f1	-0.1399801
53	0xbdf9b6b7	-0.12193053
54	0xbbf2a4b9	-0.0074048904
55	0xbc0bc339	-0.008530431
56	0xbc78beec	-0.015182238
57	0x3c044f26	0.008075511
58	0x3ce0527e	0.027383085
59	0xbbcbed8d	-0.0062233866
60	0xbe2a910a	-0.1665689
61	0xbd937d64	-0.07201651
62	0x3db8cc86	0.09023385
63	0x3d01b045	0.031662244
64	0xbdf41ca7	-0.119195275
65	0x3c0ede6d	0.008720023
66	0xbdf9ea1c	-0.12202856
67	0x3cbddddb	0.023177078
68	0x3cf3c106	0.029755127
69	0x3c987e0f	0.018614797
70	0xbc25ed2b	-0.010127346
71	0xbe84d13f	-0.25940892
72	0x3dec5011	0.11538709
73	0x3e8b53d8	0.27212405
74	0x3c943bfe	0.018095013
75	0xbdc1c64d	-0.09461651
76	0xbe57358e	-0.21016523
77	0xbd6cb9dc	-0.057794437
78	0xbdd476cb	-0.103742205
79	0x3e3c3f00	0.18383408
80	0x3de7f0ce	0.11325227
81	0xbdf2dd8d	-0.11858664
82	0xbbb1dab6	-0.0054276837
83	0xbde70c1b	-0.11281606
84	0x3d6c9fbe	0.05776953
85	0xbd2ab22c	-0.041673824
86	0xbdc016f1	-0.09379376
87	0xbe29a975	-0.16568549
88	0x3d84206d	0.06451497
89	0xbcc31a50	-0.023816258
90	0x3d8a1f21	0.067442186
91	0x3dc7d4e3	0.09757402
92	0x3d5c4735	0.053778846
93	0xbd6a4a64	-0.05719985
94	0xbdc1d167	-0.094637685
95	0xbac9eb22	-0.0015405158
96	0x3cb24736	0.021762472
97	0x3d0e9c92	0.034817286
98	0x3d38946b	0.045063417
99	0x3e05576a	0.13021627
100	0xbda9d230	-0.08292043
101	0x3e24d615	0.16097291
102	0xbd1a333c	-0.037646517
103	0x3d1e597c	0.038659558
104	0xbe631cf1	-0.22179009
105	0xbd9cae99	-0.07650489
106	0xbdacea48	-0.08443123
107	0xbc6bf87d	-0.014402506
108	0x3ddd53b5	0.108069815
109	0x3d37000a	0.04467777
110	0x3d8413aa	0.06449063
111	0xbda25e1c	-0.07928106
112	0x3dace2bc	0.08441684
113	0xbe157d2f	-0.14598535
114	0x3db72317	0.0894224
115	0x3e0368d8	0.12832963
116	0x3d8d254b	0.06891879
117	0x3e05960f	0.13045524
118	0x3d6fadd2	0.058515377
119	0xbd847b3d	-0.06468818
120	0x3db4749a	0.088113025
121	0xbb1ed320	-0.0024234727
122	0xbd0172f2	-0.03160376
123	0x3c0241e1	0.007950277
124	0x3ce26005	0.027633676
125	0x3e1940b6	0.14966092
126	0xbd05f8a2	-0.032707818
127	0xbe0c839c	-0.1372208
128	0x3dc1a7d2	0.09455837
129	0x3d169cd9	0.036770675
130	0x3da4129b	0.08011361
131	0xbd9bb21b	-0.0760233
132	0x3d9493ea	0.07254775
133	0xbda8d6a0	-0.082440615
134	0x3bf056a6	0.007334548
135	0xbe1cf1c0	-0.15326595
136	0xbd960820	-0.073257685
137	0xbdb790e0	-0.089631796
138	0x3decd66c	0.11564335
139	0x3dc9cb7d	0.098532654
140	0xbcb272a2	-0.021783177
141	0x3df488fd	0.11940191
142	0x3cee766c	0.029109202
143	0xbe364e67	-0.17803346
144	0xbd3590e4	-0.04432763
145	0xbd1d0979	-0.038339112
146	0x3d7b9510	0.061421454
147	0x3e3978f7	0.1811255
148	0xbc950b4d	-0.018193865
149	0xbe337f85	-0.17529114
150	0x3e042677	0.12905298
151	0x3e790286	0.24317369
152	0x3da1bf68	0.07897836
153	0xbe2474f5	-0.1606024
154	0x3d34b6d0	0.044119656
155	0x3df71375	0.12064258
156	0xbe056eee	-0.13030598
157	0x3d637379	0.055530045
158	0x3e9c2259	0.30494955
159	0xbdae0b9b	-0.08498307
160	0xbe1791e7	-0.14801751
161	0x3ea394bf	0.31949422
162	0x3d7e3ee1	0.062071685
163	0xbbea3a3b	-0.007148055
164	0x3dc8f77b	0.09812828
165	0x3e8e6c10	0.2781682
166	0xbde429f1	-0.11140812
167	0xbd6ae8e5	-0.05735101
168	0x3d43d50b	0.047810595
169	0x3c339b27	0.010962284
170	0xbd2212f0	-0.03956884
171	0xbde12bea	-0.10994704
172	0xbc8742b4	-0.016511299
173	0x3b987730	0.00465288
174	0xbd26797f	-0.04064321
175	0x3d3262c2	0.043551214
176	0x3da3b19d	0.079928614
177	0xbd787586	-0.060658954
178	0xbd74cd26	-0.059765957
179	0x3dc9f0fc	0.09860417
180	0xbe071fb9	-0.13195695
181	0xbd8a2704	-0.06745723
182	0x3cb9fb62	0.022702876
183	0xbd1b212d	-0.037873436
184	0x3dd9f93e	0.10643242
185	0x3db36843	0.08760121
186	0x3d2ef308	0.04271224
187	0x3e1a7691	0.15084292
188	0x3d410388	0.04712251
189	0x3d40c8bb	0.04706643
190	0xbd0075e7	-0.03136244
191	0xbe1c4c04	-0.15263373
192	0xbdf799eb	-0.120899044
193	0x3dbc5375	0.09195606
194	0x3d908287	0.07056146
195	0x3c9714aa	0.01844247
196	0xbb875ece	-0.0041311746
197	0xbde49198	-0.11160582
198	0xbd3d1808	-0.046165496
199	0x3deb2f6d	0.11483655
200	0xbd6175fd	-0.055044163
201	0xbd5b2e95	-0.05351122
202	0xbc4d925e	-0.012547104
203	0x3dda54e2	0.10660721
204	0xbc81eeab	-0.015860876
205	0x3e0975ce	0.13423845
206	0x3db7d201	0.08975602
207	0xbdc26d58	-0.09493512
208	0x3d0ea2ac	0.034823105
209	0x3deb13b7	0.1147837
210	0xbc581e89	-0.013190874
211	0x3bcde1eb	0.006283035
212	0x3d840b14	0.064474255
213	0xbdd34b46	-0.10317092
214	0xbd55a580	-0.052159786
215	0x3e0094da	0.12556782
216	0xbd9356fb	-0.071943246
217	0x3ce9c0b3	0.028534269
218	0xbd0db3d2	-0.03459532
219	0x3e0bf9aa	0.13669458
220	0x3daf911c	0.08572599
221	0x3dd70e80	0.105008125
222	0x3dcc1d81	0.09966565
223	0xbd79a673	-0.060949754
224	0x3e25afda	0.16180363
225	0x3c6e5341	0.014546216
226	0xbe0f8401	-0.14015199
227	0x3d649cc5	0.05581357
228	0xbb76886b	-0.0037617933
229	0x3e124164	0.14282757
230	0xbd146440	-0.03622842
231	0x3d8c7195	0.068576016
232	0xbd43bcd9	-0.04778752
233	0xbd63d7e0	-0.055625796
234	0xbdd5dfd5	-0.10443083
235	0xbb855a91	-0.0040696342
236	0xbb8b6805	-0.0042543435
237	0x3d23b29c	0.039965257
238	0xbca39e14	-0.019972838
239	0x3c687598	0.014188193
240	0x3db9227e	0.09039782
241	0x3d1ada2e	0.03780573
242	0x3e53cbc0	0.20683193
243	0xbd9e4b1b	-0.07729169
244	0x3d020d12	0.031750746
245	0x3c31b729	0.010846891
246	0x3dfa890f	0.12233173
247	0xbde47e5d	-0.111569144
248	0xbd7b8311	-0.06140429
249	0xbdb81ce0	-0.089898825
250	0x3d27e474	0.040989354
251	0xbe0c2c4b	-0.13688771
252	0xbcf34ce3	-0.029699748
253	0xbb7fa0f0	-0.0039005838
254	0x3e0bd6df	0.13656186
255	0x3d5daf36	0.054122172

network_body._body_endoder.seq_layers.2.bias f4 [128]
0	0x3dbe2531	0.092844374
1	0x3dafbd09	0.085809775
2	0x3dd147f0	0.10218799
3	0xbd97ed1d	-0.07418273
4	0x3dad6bd1	0.0846783
5	0x3d9f87d2	0.077895775
6	0xbda2cbfe	-0.07949065
7	0x3dce0d46	0.100611255
8	0xbd95982b	-0.07304414
9	0x3dbcf221	0.0922587
10	0xbd58b692	-0.052908488
11	0xbd85fdbc	-0.065425366
12	0xbd307905	-0.043084163
13	0xbd282c5f	-0.04105794
14	0x3deca50f	0.1155492
15	0x3dce9bc5	0.100883044
16	0x3dd851e0	0.105624914
17	0xbd7afa42	-0.06127382
18	0x3d1e7ece	0.03869515
19	0x3db0f2da	0.0864007
20	0xbda0b50d	-0.07847033
21	0xbdb99009	-0.09060676
22	0xbc590f93	-0.013248342
23	0xbd95af4e	-0.07308827
24	0x3e07ad82	0.13249782
25	0x3de138eb	0.10997184
26	0x3d2d808a	0.042358913
27	0xbd9b5ce3	-0.07586076
28	0xbd8df270	-0.06931007
29	0x3d58cc6b	0.052929323
30	0xbd9c9d08	-0.07647139
31	0xbd04bccd	-0.032406617
32	0xbd8df949	-0.06932313
33	0xbd5c7237	-0.05381986
34	0x3d9e27b0	0.077224135
35	0x3de21478	0.1103906
36	0x3d2955a0	0.041341424
37	0x3dcabcb4	0.098992735
38	0xbd36c79a	-0.04462395
39	0xbd39a615	-0.045324404
40	0x3dfcf38d	0.12351141
41	0x3dbc64a6	0.09198885
42	0x3d8deee1	0.06930328
43	0x3df9c14a	0.1219507
44	0x3d913098	0.07089347
45	0xbd7a69f6	-0.06113621
46	0x3dc19618	0.09452456
47	0x3deefd33	0.11669388
48	0xbd8cf375	-0.06882373
49	0x3dce20a2	0.10064818
50	0xbda4fa2c	-0.08055529
51	0xbd226b62	-0.03965319
52	0x3dad22d7	0.08453911
53	0x3de957a0	0.11393666
54	0x3dcd4bd4	0.10024229
55	0x3da85cc2	0.08220817
56	0xbdb4c081	-0.0882578
57	0x3d78c97e	0.060739033
58	0x3d87d4a5	0.066323556
59	0xbd1e2e52	-0.038618393
60	0x3dc1e691	0.09467805
61	0x3dd2ea4b	0.10298594
62	0x3c3a30f5	0.011364211
63	0xbc126119	-0.008934283
64	0xbc1d428c	-0.009598386
65	0xbda6da5b	-0.08147117
66	0x3c86f8f6	0.016476136
67	0x3d9f03aa	0.07764371
68	0xbd804a6c	-0.06264195
69	0xbd7aaa24	-0.061197415
70	0x3dbc0e9b	0.09182473
71	0xbd8f9ea3	-0.070126794
72	0x3da443d7	0.08020752
73	0x3d917af8	0.071035326
74	0x3dbc3af3	0.09190931
75	0xbd531b12	-0.051539488
76	0x3dd96b36	0.10616152
77	0x3ddb3970	0.10704315
78	0xbca761f5	-0.020432452
79	0x3de54e46	0.1119657
80	0x3db7b24c	0.08969554
81	0x3ddadd3a	0.10686727
82	0xbd90c9d0	-0.07069743
83	0x3e0babac	0.13639706
84	0x3e031898	0.1280235
85	0xbd13d019	-0.03608713
86	0xbcf17dbb	-0.029478898
87	0x3dbb4b15	0.0914518
88	0x3da89b1b	0.08232709
89	0x3d083afc	0.033259377
90	0xbd125286	-0.03572323
91	0x3d94c3d1	0.072639115
92	0x3e0204c3	0.12697129
93	0xbc1b2556	-0.009469351
94	0x3dabd2ee	0.08389841
95	0x3dbe7ef7	0.0930156
96	0x3d9beb23	0.07613208
97	0xbdab0ffe	-0.0835266
98	0x3d888a14	0.06666961
99	0x3dc8a54e	0.09797154
100	0x3dd66f85	0.104704894
101	0xbd3b44ae	-0.045719795
102	0x3dcf933a	0.10135503
103	0xbd955f2f	-0.072935455
104	0xbd8f94b2	-0.07010783
105	0x3d8e90d8	0.069612205
106	0x3dac7c24	0.084221154
107	0xbc814fb1	-0.01578507
108	0x3db2ef2c	0.08737025
109	0xbba6cefe	-0.0050905934
110	0xbd5507dc	-0.05200945
111	0x3db56846	0.08857779
112	0x3d8aa5f6	0.06769936
113	0xbd5a7d39	-0.053342078
114	0xbded4599	-0.1158554
115	0x3de50568	0.11182672
116	0xbda2519c	-0.07925722
117	0x3d919bd3	0.07109799
118	0x3da89a3e	0.08232544
119	0xbd9a2baa	-0.075278595
120	0x3e05abb7	0.13053785
121	0x3dc35218	0.095371425
122	0x3d8c518d	0.06851492
123	0xbd98f2a3	-0.07468154
124	0xbbea1bdc	-0.0071444344
125	0xbd9ac844	-0.07557729
126	0x3de004e1	0.109384306
127	0x3da211db	0.07913562

network_body._body_endoder.seq_layers.2.weight f4 [128, 128]
0	0xbe1692e0	-0.14704466
1	0xbd06851d	-0.03284179
2	0xbe815a19	-0.25264052
3	0x3e4154e1	0.18880035
4	0x3cb74ee8	0.022376493
5	0xbde06e94	-0.10958591
6	0x3dcc6148	0.099794924
7	0x3d8af400	0.067848206
8	0xbd6a2b84	-0.057170406
9	0xbce3ab64	-0.027791686
10	0xbe08e7cc	-0.13369673
11	0xbd75c264	-0.05999984
12	0xbe0dbf38	-0.13842475
13	0xbd82e660	-0.06391597
14	0xbc7f1e35	-0.015571167
15	0xbcecab55	-0.028890291
16	0x3c9a8ae4	0.018865056
17	0x3db29368	0.08719522
18	0xbd2562b2	-0.040377326
19	0xbd3cca17	-0.046091165
20	0xbe174680	-0.14772987
21	0x3d80dbbf	0.06291913
22	0xbd318116	-0.043335997
23	0xbc46f2e0	-0.012142867
24	0x3d9f3cc5	0.07775263
25	0x3d82f645	0.063946284
26	0xbd96cf08	-0.07363707
27	0x3dbd74ac	0.09250769
28	0xbde6eaa7	-0.11275225
29	0xbdd9acdf	-0.10628676
30	0xbca0a05e	-0.019607719
31	0x3dacba22	0.084339395
32	0x3bbe62b0	0.0058101043
33	0x3d39dc36	0.045376025
34	0xbd934490	-0.07190812
35	0x3dbdb281	0.092625625
36	0x3da556b7	0.0807318
37	0x3db232a9	0.08701069
38	0xbd406803	-0.046974193
39	0xbb7a0619	-0.0038150607
40	0x3daa3801	0.08311463
41	0xbccae496	-0.024767201
42	0x3d519770	0.051169813
43	0x3db63b5f	0.08898043
44	0x3d0cd81b	0.03438578
45	0xbe237388	-0.1596204
46	0xbe4c6d03	-0.1996346
47	0xbab8f871	-0.0014112127
48	0xbe5c0870	-0.21487594
49	0xbc157b93	-0.009123701
50	0xbd28e9cf	-0.041238602
51	0xbde3a984	-0.11116317
52	0xbcd5fa4d	-0.02612033
53	0xbc555e93	-0.0130230365
54	0xbdcbaae9	-0.09944708
55	0xbd3d3b97	-0.046199407
56	0xbdd11862	-0.10209729
57	0x3e0df3c2	0.13862517
58	0x3e2dae3d	0.16960998
59	0xbdee6fd9	-0.11642427
60	0xbd476a8a	-0.048685588
61	0xbca4a551	-0.02009836
62	0x3e538235	0.20655139
63	0xbdb87693	-0.09006991
64	0xbd905a73	-0.07048502
65	0x3ccb27ad	0.024799192
66	0x3db2415d	0.08703873
67	0x3e4f187e	0.20224187
68	0xbdf75949	-0.12077577
69	0xbe306452	-0.17225769
70	0xbd23452e	-0.039860897
71	0x3dc5e278	0.09662336
72	0x3cad843b	0.021181216
73	0x3e0e824e	0.13916895
74	0x3c0b041f	0.008484869
75	0x3d97efe5	0.07418803
76	0xbcb5058e	-0.022097375
77	0x3c2b557a	0.010457391
78	0x3de44fe6	0.11148052
79	0xbe179926	-0.14804515
80	0x3dd6675c	0.10468933
81	0xbda5c310	-0.08093846
82	0xbd857ef7	-0.06518357
83	0x3d537e75	0.05163427
84	0xbd24d88c	-0.040245578
85	0xbd057202	-0.03257943
86	0xbe4cdeb5	-0.20006831
87	0xbe07b761	-0.13253547
88	0x3dc7854a	0.0974222
89	0x3df34702	0.11878778
90	0xbe461002	-0.19342044
91	0x3e18f96b	0.14938895
92	0xbbef5210	-0.007303484
93	0x3de33095	0.11093251
94	0xbde1083b	-0.10987898
95	0xbdc6b024	-0.09701565
96	0xbdc74603	-0.097301506
97	0x3e12296f	0.14273618
98	0x3dfca624	0.12336376
99	0xbe221c98	-0.1583122
100	0xbe0b9e6c	-0.13634652
101	0x3d53444a	0.051578797
102	0xbc806a2e	-0.01567563
103	0x3d9c6e58	0.07638234
104	0xbd9df5d6	-0.07712905
105	0x3bd59f9b	0.0065192706
106	0x3dad2dcf	0.08456003
107	0x3d4e7ee2	0.050413974
108	0x3e0b4347	0.13599883
109	0xbd846ac7	-0.06465679
110	0xbe31d271	-0.17365433
111	0xbe2fef83	-0.1718121
112	0x3d8f2b0d	0.06990633
113	0x3d8bb10b	0.06820878
114	0xbdb8a426	-0.09015684
115	0x3de38848	0.11109978
116	0xbdd0f575	-0.10203067
117	0xbd2dcdd8	-0.042432636
118	0x3cea4797	0.02859859
119	0x3d8dc625	0.06922559
120	0x3d8a1e9b	0.06744119
121	0x3df36d9f	0.11886143
122	0x3e0ccbaa	0.13749567
123	0xbe2c3b0a	-0.16819397
124	0x3c9dd031	0.019264312
125	0xbd9b00e0	-0.07568526
126	0xbd64351d	-0.055714715
127	0x3dbeca60	0.09315944
128	0x3d718b87	0.058970954
129	0xbdc26b0e	-0.09493075
130	0xbdce9d2e	-0.100885734
131	0x3e2af519	0.1669506
132	0xbdf60ece	-0.120145425
133	0xbb8c704a	-0.004285847
134	0x3e199b56	0.15000662
135	0x3daeb458	0.085304916
136	0xbb6dae77	-0.003626732
137	0xbd92c711	-0.07166875
138	0x3d18a19e	0.037263505
139	0xbe283dc3	-0.1642981
140	0xbe218a42	-0.15775397
141	0xbe169b3e	-0.14707658
142	0xbd210bd9	-0.03931794
143	0x3d1cdbf3	0.038295697
144	0xbdb0cd1a	-0.0863287
145	0x3e572bde	0.21012828
146	0xbe57054a	-0.20998111
147	0xba820214	-0.0009918832
148	0xbd9c20d8	-0.07623452
149	0xbd9b181e	-0.07572959
150	0x3e535eea	0.20641676
151	0x3d481fc7	0.04885843
152	0x3d5f1275	0.05446096
153	0x3ddf572f	0.10905301
154	0x3c72bd3e	0.014815627
155	0x3c7220a5	0.014778291
156	0xbe01f3eb	-0.12690704
157	0xbde21c66	-0.11040573
158	0xbe826504	-0.25467694
159	0x3e66042d	0.2246253
160	0xbe0bb326	-0.13642558
161	0x3dbc26b2	0.09187068
162	0xbdc254dc	-0.09488842
163	0xbdbcc324	-0.092169076
164	0xbd8f9eb0	-0.07012689
165	0xba143caf	-0.00056547945
166	0x3db32839	0.08747906
167	0x3cebfe9b	0.028807929
168	0x3d86603b	0.06561323
169	0xbdf1014e	-0.11767827
170	0xbd570cf8	-0.052502602
171	0x3ca9d07b	0.020729294
172	0x3dffa339	0.12482304
173	0xbd072c07	-0.033000972
174	0xbddee524	-0.10883549
175	0x3c9f61c9	0.019455807
176	0xbd970581	-0.07374097
177	0xbaf11339	-0.001839257
178	0xbd81f2b9	-0.06345124
179	0x3c2d4807	0.010576255
180	0xbdaab4d2	-0.0833527
181	0xbd813be1	-0.06310249
182	0xbcdd9593	-0.027048862
183	0xbbc1a5aa	-0.0059096413
184	0xbb59c811	-0.003323082
185	0x3d5dbd7d	0.05413579
186	0x3ced3457	0.028955622
187	0xbd0c0f25	-0.03419413
188	0xbda97d0b	-0.08275803
189	0xbe02d6fb	-0.12777321
190	0x3d3266df	0.043555137
191	0x3c82b2de	0.015954431
192	0xbe51b9db	-0.20481054
193	0xbc2a8f7c	-0.010410186
194	0x3c3ca9ed	0.011515123
195	0xbd81ab47	-0.06331497
196	0x3d6260ba	0.055268027
197	0xbd8cb7de	-0.068710074
198	0xbe3631ba	-0.17792407
199	0xbe1063fa	-0.14100638
200	0x3da4ac49	0.08040673
201	0x3e1a4e8c	0.15069026
202	0xbdbc80df	-0.09204268
203	0x3db8ee8e	0.09029876
204	0x3bbebafc	0.00582063
205	0x3e17a2e6	0.14808235
206	0x3d16d31c	0.036822423
207	0xbdaae4b5	-0.08344404
208	0xbcc5d948	-0.02415146
209	0x3d8c1264	0.06839445
210	0xbe407fe3	-0.18798785
211	0x3d9f68f8	0.07783693
212	0x3d333f22	0.04376138
213	0x3d98803f	0.07446336
214	0x3d11c043	0.035583746
215	0x3e5130d6	0.20428786
216	0x3d5ec8ba	0.054390647
217	0x3b08509f	0.0020800007
218	0xbdb12b0c	-0.08650789
219	0x3bbdf56a	0.005797078
220	0xbe266273	-0.16248493
221	0x3e2626cf	0.16225742
222	0x3e2e8540	0.17043018
223	0x3b6b9b05	0.0035950553
224	0xbe0d87f8	-0.13821399
225	0x3dcdcfd4	0.10049406
226	0x3cebf0c7	0.028801335
227	0xbdca3377	-0.098730974
228	0xbb919010	-0.0044422224
229	0x3cf9809b	0.030456832
230	0xbdbd4fe7	-0.09243756
231	0x3d32cbbe	0.043651335
232	0x3d6ebfef	0.05828851
233	0xbab40e88	-0.0013737241
234	0x3e12a7d7	0.14321838
235	0xbda4415f	-0.08020281
236	0xbcf8db1a	-0.030377913
237	0xbe3f496d	-0.18680353
238	0x3dac974c	0.08427295
239	0x3d028fe6	0.031875513
240	0xbd93eef9	-0.07223315
241	0x3d8a307b	0.06747528
242	0xbdb3974b	-0.08769091
243	0x3d6b3d5c	0.057431564
244	0xbce73e38	-0.02822791
245	0xbb96b9d8	-0.004599791
246	0x3e0b56ab	0.1360728
247	0xbba554b2	-0.005045497
248	0xbd20a179	-0.039216492
249	0xbc0cf828	-0.008604087
250	0x3d94b5f3	0.072612666
251	0x3de40aaa	0.111348465
252	0x3d812f0a	0.063078
253	0xbd1e4331	-0.038638297
254	0x3d84738e	0.06467353
255	0xbd51ef06	-0.05125334
