Assets/Models/2023-06-09_movementpunishment/My Behavior2.onnx (onnx, 138799 bytes, 9 tensors)

action_model._discrete_distribution.branches.0.bias f4 [3]
00000000: 244f babc 4606 193d d062 3bbd
-0.022742815 0.0373595 -0.04574853

action_model._discrete_distribution.branches.0.weight f4 [3, 128]
00000000: 3c5e e2bd d0da 293d 3135 40bd 7b7b a03d
00000010: 847b d93d f65d 893b 99df 48bd 99ad e7bd
00000020: c9b7 adbc 37f7 623d 5fa5 00bd baa0 183e
00000030: 7072 593d d630 bbbd e293 163e ae55 d93d
00000040: dec3 ca3d eed7 28bc 2ae3 783d bc77 b3bd
00000050: 4ca0 173d 485c de3d a01a 8d3d 4c5f 873c
00000060: 027c 14be b989 aebc e016 45bd f39c 2ebd
00000070: 181c 713d 9049 c4bd d8e4 69bd 7caa b03d
00000080: e16b efbd b865 ff3d 0ecf e0bd 6285 f8bd
00000090: 3475 3b3e 79f8 383d 78ec a23d 01c1 e73d
000000a0: fb3e 7abd f9f2 c4bd c4e2 593d 48a8 3ebd
000000b0: 898f c4bb fc4b 9d3d 6650 3ebd 9c27 0d3e
000000c0: d39e ec3c cfd3 9a3c f13f 50bd 3386 0e3e
000000d0: 3d5c 3cbd 6515 3ebd 8bdd 8dbd 52e6 df3d
000000e0: 641f 12bd fb9a 293d 9f43 a13d cec7 05be
000000f0: 32b4 9ebb 0d11 d23d d938 eebc d4b2 ea3d
00000100: 70cb 7cbd 6c2d 993d a8c2 bebd 786d 6fbd
00000110: 40b1 cc3d ad38 f03d 4b26 9f3d e893 f63d
00000120: e85e 6dbd ea28 ed3d 1e7f 76bd 1b6b 36bd
00000130: bc63 10be 56c3 9fbd 8a86 83bd 67dc 1abd
00000140: a44b 10ba 2460 a5bd aa95 12bd 2a59 ad3d
00000150: f952 a9bd e957 14bd 8504 a3bd 42b7 6b3d
00000160: 3414 bf3d dcd3 7dbc e584 41bd 530f cdbc
00000170: 1907 64bd e69d f1bc f17d be3d fed0 d1bc
00000180: f20b a6bc 34c1 b33d a76b 33bd 1a8b a0bd
00000190: 163b 71bd fd1b 863d 585a a5bd d65d a03d
000001a0: 85ae afbd f271 66bd f0df d93d 5bec 8cbd
000001b0: a1d4 12bd bbee d33d e362 183e 1a9b 4b3d
000001c0: 1d90 e8bd ffa8 763d 0624 eb3d 768e 06be
000001d0: 81a4 813d 2897 cf3d bb6d 0ebd c747 50bd
000001e0: 5ce5 ec3d 3bf4 52bd 07b5 ed3d 1bca e53d
000001f0: 96f8 bfbd b595 36bd e024 41bd a4ca 9dbd
00000200: b51e e93d 19ce 3ebd 5e79 783d 3c78 38bd
00000210: 73bc 75bd ea11 91bd b6c3 763d 899e d33d
00000220: 3420 e43c 2332 4cbd bf5b 3b3d 64a4 e1bc
00000230: 903c 11bd f6e9 b93d e262 1bbe 9f50 68bd
00000240: e704 52bd e3a0 b43c 0912 1fbd 7e4b d13d
00000250: 1b6c 80bd 691a 7bbd a472 56bd 447d d5bb
00000260: 986a 343e 509f 1b3d 928f 5b3d 7ee8 303d
00000270: 606b 73bd 59e0 da3d 44fa 4e3d b5b5 b4bc
00000280: 1867 d93d aa0b 88bd 80d1 c33d bb8d 0e3e
00000290: bae6 ddbd e0ef 50bd 9600 91bd f595 82bd
000002a0: 9b1c 333d 6b62 1c3e 954f 48bd 6ad4 513d
000002b0: 89b1 1ebc 227f 43bd 42c3 853d 2b70 8fbd
000002c0: 1569 1cbd 7ccf 37bd 0e84 993d 5c14 55bd
000002d0: f5bc 9d3d 69b8 4b3d 3fa2 b73d 3d8f 94bd
000002e0: 4962 043d dba0 42bd 973e 5abd a1a9 083e
000002f0: 5aa5 5abc 7026 83bd fd98 993c 56bb 83bd
00000300: a1f2 5e3d 8c7e dfbc b1fd 9a3d 4910 6b3d
00000310: 0e44 94bc bd39 8cbd 061e 4ebd 0260 49bd
00000320: d2af 833d 82b5 49bd 757a 7a3d 285b 273c
00000330: 6b59 2e3e 5e40 9b3d b379 883d 5fc9 183d
00000340: 4656 40bd 2090 913d a69a 263d 7c1c 3fbd
00000350: 0988 a93d 8ce4 093d 8f48 ab3d 69e5 21bd
00000360: bff5 4bbd dd6c b0bb f6ec 123d 370c 163d
00000370: e115 013d 7977 5b3d 44ef 6ebd 5d70 e53c
00000380: 5789 5e3d 2012 8ebd a746 8f3d 7c7f b83d
00000390: 056c 2a3d 38a0 4fbd adc5 833d eb83 8bbd
000003a0: 98a9 d73d d84d d23d 669a 3dbd 8d79 a53d
000003b0: f21f 2b3d eebe 8cbd a5a7 d0bd c1ea 85bd
000003c0: 386a 023e 9e1d 4abd 5480 89bd 88e8 133e
000003d0: b03a 5dbd 3adf 4abd 9661 443d 323b 903d
000003e0: 0556 a8bd 57ee 843d edaa 80bd be63 6ebd
000003f0: a866 e63d c6c0 713d 2633 743d 4197 713d
-0.1105313 0.04146844 -0.046925727 0.07836052 0.10619262 0.004192109 -0.049041364 -0.11312408
-0.0212058 0.055411544 -0.03140771 0.14905062 0.05308765 -0.09140174 0.1470485 0.10612045
0.0990064 -0.010305388 0.060763516 -0.08763072 0.037018105 0.10857445 0.06889844 0.016524933
-0.1450043 -0.021305906 -0.04811752 -0.042630147 0.058864683 -0.095843434 -0.057103008 0.08626267
-0.11690498 0.12470573 -0.109769925 -0.12134816 0.18306428 0.045158837 0.07955259 0.113161094
-0.06109522 -0.09616656 0.053194776 -0.046547204 -0.005998556 0.076805085 -0.046463393 0.13784641
0.028884327 0.018899826 -0.05084223 0.1391838 -0.045986403 -0.046407122 -0.069270216 0.10932602
-0.035674468 0.041407567 0.07874226 -0.130645 -0.0048432583 0.102571584 -0.029079841 0.1145989
-0.06171745 0.07479367 -0.093144715 -0.058454007 0.09994745 0.1172956 0.07770976 0.1203993
-0.057951838 0.11580069 -0.060179822 -0.044535737 -0.14100546 -0.07800929 -0.06422146 -0.03780785
-0.00055044354 -0.08074978 -0.035787262 0.08464272 -0.08267779 -0.03621665 -0.079598464 0.057547815
0.09330025 -0.015492406 -0.04724588 -0.025031721 -0.05567083 -0.029494237 0.09301365 -0.02561235
-0.020269368 0.08777085 -0.043803837 -0.078390315 -0.05889424 0.06548307 -0.08073872 0.07830398
-0.08578209 -0.05626101 0.10638416 -0.06881019 -0.03584731 0.103482686 0.14881472 0.049708463
-0.113556124 0.06021976 0.1148148 -0.13140282 0.06330205 0.10136253 -0.034772616 -0.050849702
0.11567184 -0.051502448 0.11606794 0.11220189 -0.09373586 -0.044576366 -0.047154307 -0.07704666
0.1138281 -0.04658327 0.06066262 -0.04503654 -0.059994172 -0.07083495 0.06024524 0.103329726
0.027847387 -0.0498525 0.045741793 -0.027544208 -0.035458148 0.09077828 -0.1517444 -0.05671751
-0.051274206 0.022049373 -0.03883556 0.10219477 -0.062706195 -0.061304484 -0.052355424 -0.006515177
0.17618787 0.03799373 0.053603716 0.04319047 -0.059428573 0.10687322 0.05053164 -0.0220593
0.10615367 -0.0664285 0.09561443 0.13921253 -0.10835023 -0.051010013 -0.0708019 -0.06376258
0.043728452 0.15271918 -0.04890402 0.051227964 -0.009685882 -0.047728665 0.06531383 -0.07003816
-0.03818615 -0.044875607 0.074958906 -0.05202137 0.07702056 0.049736414 0.08966493 -0.07253883
0.032320295 -0.047516685 -0.053282347 0.13345958 -0.013345087 -0.06403816 0.018749708 -0.06432216
0.054430608 -0.027282022 0.07567919 0.057388578 -0.018098857 -0.0684695 -0.0503216 -0.049163826
0.064300194 -0.049245365 0.06115194 0.010214604 0.17026298 0.075806364 0.06663837 0.037301417
-0.046957277 0.07107568 0.040674828 -0.046658024 0.082779 0.033665225 0.08363449 -0.039525423
-0.04979491 -0.0053840713 0.035870515 0.036632743 0.031515006 0.053580735 -0.05833365 0.02800768
0.054330196 -0.06937051 0.06995898 0.09008691 0.04160692 -0.050689906 0.06434188 -0.06812271
0.10530394 0.10268754 -0.046289824 0.080798246 0.041778512 -0.068723544 -0.10188226 -0.065389164
0.12735832 -0.04934465 -0.0671393 0.14444172 -0.054011047 -0.04952929 0.047944628 0.070425406
-0.08219532 0.06490772 -0.062826015 -0.05820059 0.11250049 0.059021734 0.05961909 0.058982138

action_model._discrete_distribution.branches.1.bias f4 [3]
00000000: 99e3 4abb 4443 933b 35c5 00bb
-0.0030958413 0.0044941027 -0.0019648795

action_model._discrete_distribution.branches.1.weight f4 [3, 128]
00000000: 4f74 8339 a2bc d4bb 12db e1bb b494 9cbc
00000010: a46c 30bc 1846 6dbb 3dfb 063d 21e3 80bb
00000020: 3ffa c3bb 5210 153d d6c4 3d3b 3369 5f3d
00000030: bf9c 163d 05df 75ba 5cef 90bc 74d3 c8ba
00000040: d30d 3f3d 1634 a3bb 20a8 d1b9 1abb 0bbc
00000050: 8b7e a6bb 70da babc 2fe7 fc3c 2be6 a0bb
00000060: cdf6 873a 91ae 3ebc 8066 c8bc eb34 d7bc
00000070: dceb fcbb 8b1c a2bc e97f 0a3b ef1c a63d
00000080: 69bd a23b e6cb 8f3c a2dd 24bc ba9c 16bc
00000090: 10c0 4a3c e6db 273c 3e06 913c b5aa 223d
000000a0: 8400 9abc 6242 20bc 8d29 2e3c b4a6 a0bc
000000b0: 8868 a2bc b5aa 4f3d d9bf 01bd 28a8 2abb
000000c0: a0d4 dabc bc07 61bb be50 9f3b 06d4 2c3c
000000d0: 9f64 26bb f9f4 49bb f78f 2bbc f24c b2bc
000000e0: 660a c4bc f341 4fbc e4d9 99bc 7f5f 6f3b
000000f0: 8720 543d 1a6c 5a3b a311 063d 0d6f 2e3c
00000100: e691 f3bc 06e8 673d 748d 853c ae05 87bc
00000110: fcd6 863d 5602 f13c d984 9cbc 98bd 993d
00000120: eba6 12bd c553 853d c6a8 253b 536e 85bd
00000130: 67bc 243c d4f1 25bc 9d14 7d39 6b21 0abb
00000140: 3235 1fbb 3377 1dbd 8613 8fbc 12ff 893d
00000150: 1a95 57bc 8a1e aebc c176 aebb 99dc e73c
00000160: bf23 843b 6da1 37bd cc05 adbc b8f2 83bc
00000170: 65c3 47bc 57e0 25bc 5547 0c3d 077e 143d
00000180: b2c4 4dbc 4123 2ebc 625a 6abb 1bf1 04bb
00000190: 91f1 a0bb 4067 5b3d 401b e4bb 1a08 803d
000001a0: acd6 0cbc c188 a0bc dff1 703d 7db7 abbc
000001b0: 188d 82bb efc8 783d 366a 0abc f491 423b
000001c0: 835a 78bc ee8e 65bc f66c fb3c 3093 16ba
000001d0: e59a 4bbb 7d43 413d 3549 5cbc 658d 273c
000001e0: ab39 04bd 1bb9 05bc a94e 4cbc be8c 003b
000001f0: 00fc 47bc 9b0e c2bc 47d8 1bbc eff8 14bd
00000200: 9111 07bd 9b4c d13c 08e8 d93b 9289 efbb
00000210: 2bbc 80bc 97b5 c63b 923b 5dbd b6cb e4bb
00000220: 6c16 aa3a 5b49 40bd 9fed 83bc a138 cdbc
00000230: 7f18 35bd cdc0 0ebb 2ff1 cf3b d2c3 75bc
00000240: 40e7 83bd f438 c4bc b7aa 91bc 275e b3bc
00000250: 83ea ef3b 7d4b 2abc ae83 e3bc 582f 2a3d
00000260: 5dbd 463b 0627 4bbc 5ecd 93bb 1147 e93b
00000270: 53c5 96bc ed04 a03b b93c b3bc 03e6 50bd
00000280: 23c1 f3bc b1ff f7bb 638b bebc 76bb 9c39
00000290: 4887 09bc 5fa4 28bc 09a3 91bc 5f79 77bd
000002a0: dc6c 1abb 813c 87bc 391c 463b e577 523c
000002b0: cac6 c83a 47eb 6fbd 27ac 7f3c f3f0 01bc
000002c0: 402f b93b f5f8 0b3c 60a0 5dbc 4215 d63c
000002d0: f29d 0abc ed8f 3dbc b52e 023c 98ae 1ebc
000002e0: c75f b13c 335a b03b 55d6 86ba c8ff a93b
000002f0: 6672 a1bd 9df4 85bc 8d19 08bd f7f6 11bc
00000300: d9ca 51ba 8661 90bd a6a5 b7bc e4a8 97bc
00000310: 6434 64bd c9c2 cd3a 7acc a0bb 1f4b bbbd
00000320: 0c45 c53c 8229 53bd 1b8f e2bc 3425 543d
00000330: a0dc 27bd 3673 0e3a f731 7dbc dedb 643c
00000340: 10cb 233b b8e3 6e3c 5db5 073c 2bab 8abd
00000350: 8a9b 3abb d9ce 8b3c f3c6 5abc 86e2 39bd
00000360: 1fc0 8bbc 8f48 a03d 4324 16bc 2560 e93b
00000370: b235 f0ba 24f1 063c e03e a5bc eca8 1bbd
00000380: ec6a 1b3b b761 3bbc f802 293c cf8e 85bc
00000390: 26c8 853c 725a 47bd 4b32 6bbc 94e2 88bd
000003a0: f901 d7bb 4027 fa3b ce3f 47bd b2bb 94bc
000003b0: bb09 19bc 1dd3 6dbd ce67 0dbc 2436 97bc
000003c0: 0c66 3bbc 51c3 e9bb b1cd 2dbd 9514 9cbc
000003d0: f2be a6bb 0b6a 33bd e103 c439 b157 21bc
000003e0: 22b0 babc 00cf b739 31a0 8bbc c8a9 8bbc
000003f0: 02af dd3b 2163 e53b d622 a6ba bb04 f63c
0.00025072924 -0.0064922133 -0.0068925703 -0.019113876 -0.010768089 -0.003620511 0.032954443 -0.003933326
-0.0059807594 0.036392517 0.0028956435 0.054543685 0.03677058 -0.0009379241 -0.01769226 -0.0015321807
0.046644043 -0.0049805744 -0.0003998885 -0.008528495 -0.005081003 -0.022809237 0.030871956 -0.0049102507
0.0010373235 -0.0116383 -0.024462938 -0.02627035 -0.0077185463 -0.019789001 0.002113337 0.081109874
0.004966427 0.017553281 -0.010062607 -0.00919264 0.012374893 0.010245299 0.017703172 0.03971358
-0.018799074 -0.009781452 0.010630024 -0.01961074 -0.019825235 0.05069991 -0.0316771 -0.002604017
-0.026712716 -0.0034336885 0.00486192 0.010548597 -0.0025389565 -0.003081618 -0.010471336 -0.021765206
-0.02393074 -0.012650001 -0.018780656 0.0036525426 0.051788833 0.0033328594 0.032731663 0.010646594
-0.029732656 0.05661776 0.016302802 -0.0164822 0.06583974 0.02942006 -0.019106315 0.07506865
-0.035803717 0.065101184 0.0025277599 -0.06515183 0.010054684 -0.010128457 0.00024135639 -0.0021077048
-0.0024293181 -0.038443755 -0.017465364 0.06738104 -0.013158107 -0.021254797 -0.005324215 0.028303431
0.0040325816 -0.044831682 -0.021120928 -0.016106948 -0.012192582 -0.010124288 0.034247715 0.036253
-0.012559103 -0.010628522 -0.0035759439 -0.0020285312 -0.0049116095 0.053565264 -0.0069612563 0.06251545
-0.008596104 -0.01959646 0.058824416 -0.020961517 -0.003984105 0.0607385 -0.008448174 0.0029689046
-0.015158298 -0.014011128 0.030691605 -0.00057439785 -0.0031067666 0.047183502 -0.013445188 0.010226582
-0.03228156 -0.008161808 -0.012469926 0.001961514 -0.012206078 -0.023688605 -0.009512014 -0.036370214
-0.032975737 0.025549224 0.0066499747 -0.007310101 -0.015714725 0.0060641277 -0.05401189 -0.006982292
0.0012976653 -0.046944957 -0.016104518 -0.025051417 -0.044212814 -0.0021782399 0.00634589 -0.0150003005
-0.06440592 -0.023952939 -0.017781598 -0.021895481 0.007321657 -0.010393974 -0.02777275 0.041549057
0.0030325272 -0.012399441 -0.0045105657 0.0071190675 -0.018404638 0.0048833997 -0.02187954 -0.051000606
-0.02975518 -0.0075683226 -0.023259824 0.00029894308 -0.00839407 -0.010293095 -0.017777937 -0.060418483
-0.002356342 -0.016508343 0.0030229224 0.012845968 0.0015318033 -0.058573987 0.015605009 -0.007930982
0.0056513846 0.008543243 -0.013527006 0.026133183 -0.008460509 -0.011569959 0.007945706 -0.009685181
0.021652116 0.0053818463 -0.0010287265 0.005187962 -0.07883148 -0.016351992 -0.033227492 -0.008908979
-0.0008002944 -0.07049851 -0.022417855 -0.01851315 -0.055714026 0.0015698309 -0.004907188 -0.091451876
0.024080776 -0.051553257 -0.027656129 0.051793292 -0.04098189 0.0005434038 -0.015453807 0.013968436
0.002499286 0.01458066 0.0082829865 -0.06770929 -0.0028474056 0.017066406 -0.013353097 -0.045382045
-0.017059384 0.078263395 -0.009163919 0.007122057 -0.0018326549 0.008236203 -0.020171583 -0.038002893
0.0023714853 -0.011436871 0.010315649 -0.016303448 0.01633079 -0.04867024 -0.0143552525 -0.06683841
-0.0065615145 0.0076340735 -0.048644833 -0.018155906 -0.009340699 -0.05806266 -0.008630706 -0.018458433
-0.011437904 -0.0071338792 -0.04243249 -0.019052783 -0.0050886804 -0.043802302 0.00037386923 -0.009847567
-0.022789065 0.00035058707 -0.017044159 -0.017048731 0.0067652473 0.0070003425 -0.0012675177 0.030031553

discrete_action_output_shape f4 [1, 2]
00000000: 0000 4040 0000 4040
3.0 3.0

network_body._body_endoder.seq_layers.0.bias f4 [128]
00000000: d78a c8bd 44bb da3d e3ad 0bbe b0ec bebd
00000010: 7947 b5bd 8bb3 c6bd e3a2 403d e71a 85bd
00000020: 43ef c93d 06d7 2abe f422 c03d f164 5cbd
00000030: 5323 cbbd ac32 4b3d 7930 c8bd 9638 abbd
00000040: 6257 e1bd 41f4 8c3d ce63 babd b1f1 213e
00000050: d954 c0bd 77f7 2f3e bddf 33be 8701 05be
00000060: 98cd 9bbd 7e4d 06be 479b cbbd 2ae5 f63d
00000070: 8270 c2bd 3fad 693d 742a e5bd 3e06 e2bd
00000080: 0d0b 833d 490c 8f3d 0f53 a53d 994f 65bd
00000090: 4816 b13d 33ce a9bd e12c 5e3d 8e30 9d3d
000000a0: 6b95 0bbe 3470 d83d a3a3 98bd 6c08 c8bd
000000b0: 4dce cb3d 94c5 6ebd 52fe cabd 7e30 c93d
000000c0: 77d2 9b3d ac88 033e 9ceb b8bd d7f1 343d
000000d0: 6082 973d 77a9 aebd 5bc6 f0bd 8e59 a4bd
000000e0: 5508 f93d 1117 9fbd 0ac6 fbbd eac1 873d
000000f0: a66b abbd b758 693d ffb0 1c3e 585a 263d
00000100: 4307 3a3c 3efc 71bd 75fc 123d 90c1 2a3d
00000110: c6b0 413d 3660 e1bd 038f 9d3d e17a 823e
00000120: d49a 4d3e ee9b b7bd ccb9 bd3d d03f 623e
00000130: 8a3b f73d 37bd 493e 735e 0abe 1778 85bd
00000140: a8e0 bbbd 6ce4 b9bd e8fe 043e b8e7 c23d
00000150: 27d8 39be 16cb bd3d e545 7dbd 3ae0 ddbd
00000160: da65 bb3d 6255 0bbe a0d4 fd3d bd3b 03be
00000170: 84a5 dd3d dbb0 163e a8e9 11be 9108 bd3d
00000180: db37 1a3e a240 aa3d 834a b3bd 0cab e3bd
00000190: 04ba 8d3d d33b b53d d30f d0bd 9067 bbbd
000001a0: bf2f c4bd 1439 dabd e14b fabd 2f8b 2a3e
000001b0: 39bb b7bd 76c3 a93d 5dd8 8f3d e94a 8f3d
000001c0: fd21 063e 3572 e13d 4ba2 f53d 3e0c a43d
000001d0: 2735 d13d cb09 81bd a8f0 a63d a4e5 773c
000001e0: 4704 fa3d a1ab 6cbd 6daa 04be 5628 08be
000001f0: 36a4 04be cc06 72bd 3830 f0bd d9f5 833d
-0.097921066 0.10680249 -0.13640551 -0.09322488 -0.08851523 -0.09702214 0.04703034 -0.06499272
0.09860089 -0.16683587 0.09381667 -0.053807203 -0.09918847 0.04960887 -0.097748704 -0.08360402
-0.11002995 0.06882525 -0.091010675 0.15814854 -0.093911834 0.17184244 -0.17565818 -0.12988864
-0.07607573 -0.13115498 -0.09941726 0.12055428 -0.094941154 0.057049986 -0.11189738 -0.11036347
0.06398592 0.06984765 0.08072483 -0.055984113 0.08646828 -0.082912825 0.05424202 0.07675277
-0.13631217 0.10568276 -0.07453086 -0.09767231 0.09951458 -0.058293894 -0.09911789 0.09823702
0.07608502 0.12845105 -0.09029314 0.04417595 0.07397914 -0.085284166 -0.11756583 -0.08024894
0.12159792 -0.077680714 -0.12293632 0.06628783 -0.08370142 0.05696937 0.15301894 0.040613502
0.01135427 -0.059078448 0.035885293 0.0416885 0.047287725 -0.11004679 0.07693293 0.25484374
0.20078593 -0.08965288 0.092639536 0.22094655 0.12071903 0.19701086 -0.13512592 -0.06517046
-0.09173709 -0.09076771 0.12987864 0.09516853 -0.18148862 0.09267251 -0.061834235 -0.108337834
0.09150286 -0.1360679 0.123940706 -0.12815757 0.10822585 0.14715903 -0.14249289 0.092301495
0.1506037 0.08313109 -0.08754446 -0.11116609 0.06920245 0.08849301 -0.10159268 -0.09150612
-0.09579419 -0.10655418 -0.12221504 0.16654657 -0.08971257 0.08289234 0.0702369 0.0699671
0.13098903 0.110081114 0.119938456 0.080101475 0.10215216 -0.06300696 0.0815137 0.015130434
0.12207847 -0.057780866 -0.12955637 -0.13296637 -0.12953267 -0.059088513 -0.11727947 0.06443376

network_body._body_endoder.seq_layers.0.weight f4 [128, 129]
00000000: c30c 0fbe d079 883d 10c3 02bd 7045 13be
00000010: b7c8 89bd 9447 16bd e88d e2bb 5ba8 3c3d
00000020: 556a 64bd 3bff a1bd a08a 46bd 5069 2bbd
00000030: 6206 89bd 046a 463c 3786 7a3d c499 063d
00000040: 0a2b 2dbd 6a21 03bd 4e39 ff3c e2ce 2e3e
00000050: 4293 a7bd 70a5 073e 502e b93c 12b2 3bbd
00000060: 37c9 493d 5249 163e dbef 6b3d 1ebe 7dbe
00000070: 699e b03e e9f4 623c 93f4 61be 4505 4fbd
00000080: f6f0 a83e e6d5 d3bc 3db4 38be 2425 42bc
00000090: 1a32 8ebd 478d 4b3d 729b 9e3e e28e 003e
000000a0: a2ba 5c39 89a4 c9bd d908 ab3d 63ac 243e
000000b0: 2878 95bd 0645 5c3e 441d b53d d390 42be
000000c0: cfa1 c3bd 832e 09be 16bb 423d 6370 2a3a
000000d0: 293e 4b3e 48ca 84bd 731a 8cbc 96ca fdbd
000000e0: e49f 9bbd eb42 aebd f458 683d c4cc a3bd
000000f0: 7693 11bc 5818 d43d 5e55 03be 57a2 e8bd
00000100: 4d36 21be eabf 663d d9c0 113e 6d79 4cbd
00000110: bbe2 6a3c 791d 29be d0a2 02bd c141 a13c
00000120: aaac 2ebc c007 353d 9c64 5ebd f3fc e43d
00000130: 5b5e 0f3e 32fc 1bbd 5ed3 be3d f0a8 453c
00000140: aba3 d43d 26ae 0a3e 0ceb 8b3d 42c1 7fbd
00000150: bd15 2a3e 2283 853c accd 47bd eaff 373e
00000160: b233 0dbb 8079 45bd 6933 003e 82a3 913d
00000170: cb4f 52bd 63b3 7abd 90f2 6bbd cf0b 7b3c
00000180: ec23 5f3d 81d2 18be 956a 423e 6f1e fb3d
00000190: 57dd 7e3a 6b9e 493e 0f35 253e 8b66 3bbd
000001a0: 8cbd 0b3e f018 ca3d 3d2a 8f3d 6e95 21bd
000001b0: ab56 793d 9bfb 353e c3a7 5e3b 7abd dbbd
000001c0: 5655 203e d87a bfbb 57c0 8cbd 8138 dfbd
000001d0: a25c d73d 2ea0 d7bd 7c24 2dbd b841 aabd
000001e0: 034d 9bbd e824 05be 3b7a 323d 2241 123e
000001f0: 11b3 b93d 9e27 303e 6114 f1bd db0e d13d
00000200: 55d8 703b 7e6b cfbd 021d 983d a146 013e
00000210: 0b22 8ebc d296 793d 4d37 463d a0af 1b3e
00000220: be13 393c 34d9 1ebe 9793 7c3d 1824 62bb
00000230: 5061 f6bc 4a62 3b3e d899 bdbb 670b fa3c
00000240: 47d4 8bbb 1202 833d 499f dcbc da04 17be
00000250: 10de 653e 9e02 a3bc a596 29be 3ef5 2dbe
00000260: d152 fb3d 7018 f33b 5f6b 833c b023 f23d
00000270: 6444 6a3e 0bd7 5abe 6740 fcbc b8c9 b73c
00000280: afb4 a83e e3ff 80bd c789 173c 5332 b7bd
00000290: ff85 69bd 28e8 4a3d 3cad d9bc 0897 6b3d
000002a0: 5108 353d 3d99 0c3d 03bf f3bb 87b8 333d
000002b0: 99af 143c e5ba 1a3e f496 553c 1d65 263d
000002c0: 9168 13be 2935 07bc a319 18bd 67a4 c93d
000002d0: cecf 4c3d 7dd3 41bd 5683 fe3d 298b 853d
000002e0: e473 bfbc 9324 1a3c 7436 043d 9583 98bc
000002f0: 6d4b ee3d 615d 7f3d 7b66 c7bc 3250 aebd
00000300: 1125 9abd 4cd1 fdbd 99d0 2cbc 7466 953d
00000310: 845e cc3c 4384 793c 444c 933c 5e8c 5fbd
00000320: 8476 52bd b141 b83d 13e8 553e 0e87 c1bd
00000330: ac05 bdbd 4553 9d3d 1af1 9cbc 2d18 893d
00000340: b413 833e d46b 54bc 955f 88bd d206 8a3c
00000350: 8d39 523d b284 80be a233 b53d 5b3c 2e3e
00000360: 2d93 0bbe d250 d4bd 3033 283e 4de2 cd3d
00000370: acef 7abd 32b1 bebd 3912 7a3e a0b7 89bd
00000380: df3d d8bd 0b4f b0bd 9eba 1e3e 219e e6bc
00000390: 2003 8d3e 18f0 483e 5e66 98bd 45c6 04be
000003a0: e0d5 1cbd 48d4 153d 98ba c93d fd17 c2bd
000003b0: 6693 7e3d 4d4c 89bd b4d5 4ebd dc43 d4bd
000003c0: 7ef6 18bd 7385 013e c5b0 eb3d c34a b23d
000003d0: 9e18 e1bd 5da2 e3bc dd6b 953d 3856 46be
000003e0: ab99 373e aa90 483e 66f2 4e3e bbc2 f13d
000003f0: 280d 873d 336e 56be c4b0 33be 445a 6d3d
-0.13969712 0.06663859 -0.031924307 -0.14381957 -0.067277364 -0.036689356 -0.006913889 0.046058994
-0.05576547 -0.079100095 -0.048472047 -0.04184848 -0.066906705 0.012110237 0.061163153 0.032861486
-0.042277373 -0.032014288 0.031155255 0.17071107 -0.08182384 0.13246703 0.022605091 -0.045824118
0.04926416 0.14676407 0.05760179 -0.24779555 0.34495857 0.013852336 -0.22065954 -0.050542135
0.3299634 -0.02585883 -0.18037505 -0.011849675 -0.0694315 0.04969528 0.3097797 0.12554505
0.00021050361 -0.09845836 0.08351297 0.16081385 -0.072983086 0.21510705 0.088434726 -0.19000559
-0.09552347 -0.13396649 0.0475417 0.0006501732 0.19847931 -0.064838946 -0.017102456 -0.12392156
-0.07598856 -0.08508857 0.056725457 -0.0799804 -0.008885255 0.10356206 -0.12825534 -0.11359089
-0.1574337 0.056335367 0.14233722 -0.04992049 0.014336283 -0.16515149 -0.03189355 0.019684674
-0.0106612835 0.044196844 -0.054295167 0.11181059 0.14000838 -0.03808231 0.09317659 0.012064204
0.1038278 0.13542995 0.06831941 -0.062440164 0.16609855 0.01629788 -0.04878013 0.17968717
-0.0021545705 -0.048211575 0.12519611 0.07111265 -0.051345628 -0.061206233 -0.057604373 0.01532264
0.054477617 -0.14924051 0.1898597 0.12261664 0.0009722313 0.19689338 0.16133521 -0.04575209
0.13646525 0.09868038 0.06990478 -0.039449148 0.06087367 0.17771761 0.0033974505 -0.10729499
0.15657553 -0.0058435015 -0.068726234 -0.10899449 0.10515715 -0.10528599 -0.042271122 -0.08313316
-0.07583048 -0.1300236 0.0435736 0.14282659 0.09067357 0.17202613 -0.11771465 0.102079116
0.0036750038 -0.101279244 0.07427408 0.12624599 -0.017350217 0.06093485 0.048392583 0.15203714
0.011296211 -0.15512544 0.06166419 -0.0034506377 -0.0300757 0.18299213 -0.005786162 0.030523015
-0.004267249 0.06396879 -0.026931422 -0.14747944 0.22447991 -0.019898709 -0.16561373 -0.16988084
0.12271655 0.0074186847 0.01604241 0.11823213 0.22877651 -0.21371095 -0.030792428 0.022435054
0.3295035 -0.062988065 0.009249157 -0.089451455 -0.057012554 0.049537808 -0.026571862 0.05751708
0.044197384 0.034325827 -0.007438542 0.04387715 0.009075069 0.15110357 0.013036478 0.040623773
-0.14395358 -0.00825242 -0.037133824 0.098458104 0.050002865 -0.04732083 0.12427394 0.06520683
-0.02337069 0.009408134 0.032278493 -0.01861743 0.1163548 0.062344912 -0.024340859 -0.0851139
-0.07526601 -0.12393436 -0.01054778 0.07294932 0.024947412 0.015229288 0.017980702 -0.054577224
-0.051382557 0.08996905 0.2088931 -0.09449588 -0.092295974 0.07681898 -0.019157935 0.06694064
0.2560097 -0.012965161 -0.06658856 0.016848955 0.051324416 -0.25101238 0.08847739 0.17015211
-0.13630362 -0.10366978 0.16425776 0.10052929 -0.061263725 -0.09311141 0.24421014 -0.06724477
-0.10558676 -0.08608826 0.15500876 -0.028151574 0.27541447 0.19622838 -0.074414 -0.12966259
-0.038289905 0.0365794 0.09850043 -0.09477232 0.06215229 -0.06704006 -0.050496772 -0.10364506
-0.03734445 0.12648563 0.115083255 0.08705666 -0.109910235 -0.027787382 0.07295964 -0.19368827
0.17929713 0.19586435 0.20209655 0.1180472 0.06594306 -0.20940475 -0.175479 0.057947412

network_body._body_endoder.seq_layers.2.bias f4 [128]
00000000: d67b bc3d 5b60 30bd 01d8 a23d c935 42bd
00000010: b79e e2bc ac50 53bd 07aa 0f3d e66d c63d
00000020: 949f 3b3d 8d74 2bbc 9131 743d a540 e33c
00000030: 5d24 82bc d94d dd3d 7d79 d8bc de10 d3bc
00000040: 7ee3 e63b b679 633c 545b 9fbc f470 9f3d
00000050: f509 25bd 3ead 9abc 6545 debc 1fb9 a1bb
00000060: 0ce4 063e 433a 563d 6a15 473d bb8b 633d
00000070: 8d11 1dbd eb6e d13d b516 813d e52e 1a3c
00000080: 53f7 c83d 4fbc 8fbc 92d9 e83d dd87 183e
00000090: 346d 563c 0228 11bd c38d 85bc 22d7 953c
000000a0: d2ae 863d e182 003e 4c1f 39bd 28a5 673d
000000b0: 96ea c33b 9c65 5cbc 25e4 6a3d 1cf6 a7bc
000000c0: c9c5 8abd bf4d 68bd 2372 953d 2fce cdbc
000000d0: 4586 963d 47db 7a3d 74c5 b83d e637 bfbc
000000e0: 8f2d 433d 154b 80bd a7bb 27bd 0815 073e
000000f0: d8b0 dfbb 72ed dbbc eef4 0f3d 38c2 8bbc
00000100: e1bc 8f3d cdfa b1bc 4d95 ac3d 299c 9d3d
00000110: 2334 34bb 7a79 17bc 94a4 1cbd 608c bc3b
00000120: 3a51 9a3d 0532 263c 79f2 913d c047 ef3c
00000130: 42cd c33d edaa b13d 0180 a43d d1fb 373d
00000140: 8581 5dbd 05ca 7d3d 3215 503d 4213 86bc
00000150: 7043 bb3d 4f53 5f3d a062 c83d 4ff4 80bc
00000160: d1c2 17bd 09dc 4cbc e9df 5b3d 9237 513d
00000170: ba99 583d 001d 653d 4368 e5bb 0131 493d
00000180: c924 423d 77e1 0cbd 4348 393d f17d b23d
00000190: f201 5a3d 57dd b9bc 3796 a13d 6c40 0cbc
000001a0: 63d6 d23d 56ef c03d e004 713b e2e8 b93d
000001b0: 688e 763d 4d2c 80bc 7d94 fdbc d10b 12bd
000001c0: a13c f33d 5537 48bd 10f1 7cbc 42f1 b33d
000001d0: 9e11 33bd 5974 ae3b 5142 413d da82 8e3d
000001e0: 5aad 08bd 8f59 533d afcd cbbc f891 b9bc
000001f0: 22f8 b93d ab15 733d 93aa 723d d6ef 9a3d
0.09203307 -0.04306064 0.07951356 -0.047414575 -0.027663572 -0.051590607 0.03507426 0.0968893
0.045806482 -0.0104648 0.059617583 0.027740786 -0.01588648 0.10805864 -0.026425118 -0.025764879
0.007046162 0.013883999 -0.019452728 0.07785216 -0.0402927 -0.018881436 -0.0271327 -0.004935398
0.1317293 0.052301656 0.048604406 0.05555318 -0.038346816 0.10226234 0.06303159 0.009410595
0.09812798 -0.017545847 0.11369623 0.14895578 0.0130875595 -0.035438545 -0.016302949 0.01829106
0.06576313 0.12549926 -0.045195863 0.05655399 0.0059788926 -0.01345196 0.05734648 -0.020503096
-0.06776006 -0.05671477 0.072971605 -0.02512273 0.07349829 0.061244275 0.09022036 -0.023342084
0.04765087 -0.06264321 -0.040950444 0.13191617 -0.0068265013 -0.026846621 0.035145693 -0.017060384
0.07018448 -0.021726036 0.08426914 0.07695801 -0.0027496896 -0.009245271 -0.03824289 0.0057540387
0.07535024 0.0101437615 0.07126326 0.029209018 0.09560634 0.0867518 0.08032227 0.044917885
-0.054078598 0.06196024 0.050801463 -0.016366605 0.09143722 0.05452281 0.09784436 -0.015741495
-0.037051026 -0.012503632 0.053680334 0.051078387 0.05288098 0.05593586 -0.0070009544 0.049119
0.047398362 -0.034394708 0.04523493 0.08715428 0.05322451 -0.02268855 0.07889979 -0.008560281
0.10294797 0.0942065 0.0036776587 0.09077622 0.060194403 -0.015646124 -0.030954594 -0.0356558
0.118767984 -0.048880894 -0.015438333 0.08786251 -0.043717973 0.0053239283 0.047182385 0.06958552
-0.033368446 0.05159908 -0.024878351 -0.022652611 0.09080531 0.059346836 0.059244704 0.07565276

network_body._body_endoder.seq_layers.2.weight f4 [128, 128]
00000000: bf1b a53d b368 5f3e 4232 92bd 63cd 1fbe
00000010: d175 8e3d 19b8 36be fe21 bfbd 9087 0bbc
00000020: b4f4 303e f19c ae3d 982c 013d 057f 923d
00000030: 6ed2 fcbd 2e0f 873e 2911 f6bd fa57 50be
00000040: 5ffd cabd 0a1c c03d 92f1 47bd 66da 873c
00000050: 065b 45be 411e 8f3c 4530 fcbd 8f6c c5bd
00000060: fac0 4bbe c59a e3bc 47fc 9dbd c6f3 b43c
00000070: 7479 0cbe e921 c2bc 7736 3fbd 269e 88bd
00000080: 72c7 adbd c695 c5bc ac47 a23d 4fd9 b2bc
00000090: 0d2c 3a3e 29c7 1ebd f062 593d 1e40 52bd
000000a0: c196 c53c ed73 a43d 4934 a9bd 57eb adbc
000000b0: 2b81 12bd ba68 39be 31d5 2d3d f6ae 5e3d
000000c0: 8355 6a3c 81b7 583d b131 d5bd 9625 3c3e
000000d0: 40fc 1bbd 6a4c 513c c452 bebd 457e 17be
000000e0: 90d8 06bd 100d ddbb dec4 97bc 396e 25bd
000000f0: 5e4a 253d ece2 22be 275d a53d 1363 b8bd
00000100: 6704 54bd d40b 193e 047e 593e 5744 663d
00000110: 5c7b b6bb 81f5 87be 27b7 a93c 31c3 573e
00000120: 21ed ab3d 5f59 73bd 31ea f439 824b c43d
00000130: f8f1 ea3d c6ce 423e c9bb 0cbd 20c2 113d
00000140: f397 af3d 5860 14bd 47ca 6a3d afee c53d
00000150: 18e4 95bd c7c3 633d 75d7 9bbc 37fc 99bd
00000160: 86b1 0e3d 7f30 57bd 6ccb 323e 133c 10be
00000170: 6674 393d 9a68 643b add3 8d3c 4c84 5e3e
00000180: b69b 693e d90c 07bd 3877 f13c 698e a2bc
00000190: 32ae 67bd b8bc 053d de4e 11be edfb d6bd
000001a0: 6f85 25be e1d6 34be b317 2bbe c8ab 2f3e
000001b0: 5893 06be 3104 593d c67d 983e 0b96 70bd
000001c0: f2d1 b83d f7d1 4239 f968 013e b1a6 a53d
000001d0: d375 b0bc 4d0f 1bbd 240f 303e 7787 2e3e
000001e0: b5a0 a8bd 897c ef3d f206 583c 824c 02bd
000001f0: c17f 253d 407b a2bd 53b5 50be 49c8 143e
00000200: ea85 c83d ac85 93bc 0cb7 f13d 94d3 9c3c
00000210: b713 1d3d 1fdc 253e 1d03 443d b56d a93c
00000220: 45c1 073d 2aa1 a1bc 38ef 54be 5fdd 6bbd
00000230: e3bf 2c3d ad50 50bd 5333 8cbd 32b5 123e
00000240: e68f 383b 9c88 48bd 8ec5 923c 475a 71bd
00000250: c237 773d 1117 47be 6b85 493d 7c2c abbd
00000260: 633c 153d 783d d93c 2e5d 8b3e 766f c2bd
00000270: f2f3 2d3e 1e98 6c3d c840 293d cf7e 41be
00000280: 3825 ea3c a1ca 013e a306 4d3d 59a5 0dbd
00000290: 6afe a83d 637c 1c3e 9ae5 183e d9d5 183e
000002a0: d727 63bd 82ea c5ba 817f fa3c 6309 203e
000002b0: e58a cdbc 3f44 013d 2152 e63c f743 99bc
000002c0: 1317 0cbe c181 e5bc 82ad 2ebd 59e0 19bd
000002d0: da0c a13c 4a22 923d a21c 803d 06d1 5c3b
000002e0: eb45 1b3e ba97 d63c 62d1 343e 5971 21be
000002f0: 4eb6 a2bd 055b 94bd 2ae9 edbb 93e5 31bd
00000300: 4c12 f6b9 c4c4 8ebd 23a0 d0b9 73f2 df3b
00000310: f384 67bc f396 283e 882e f0bd b61a 79be
00000320: d2f2 443d 6a45 963d 0e4e 83bc c9d3 80bd
00000330: 1003 d73c fb5a 90bd 82df 9a3d 8d41 743d
00000340: ef35 24be 8b16 01bd 7b1f b33d dbda b93b
00000350: 51ba 643d 2ac9 3d3e 4671 60bd 200d 5e3e
00000360: 5415 b0bd 6cd5 473d 9ae6 10be 8cb2 103e
00000370: c4ee db3d fbf9 f63d 7315 f83c eb0d 83bd
00000380: c3b1 7fbd dd2a c4bd d955 25be 406a dabd
00000390: 193d 703d 8aed e8bc 66c9 07bc 1262 053e
000003a0: 63d9 73bd 4aa4 ccbd b5ce 4abc c87b 573d
000003b0: 07c5 603e b40d 97bc 6e0b 09bd cc15 923c
000003c0: c265 773c 1a65 92bc 3b51 51bc 0ac6 e8bd
000003d0: 4143 1abe 79b7 d1bd e9e8 95bd e8fc 053d
000003e0: 0f46 a93c 6225 23bd c2f4 953d 013f 333c
000003f0: 5848 cabd 7bf3 003e cf93 0d3e b82d b3bd
0.08061933 0.21817283 -0.07138492 -0.15605693 0.069560654 -0.17843665 -0.09332655 -0.008516207
0.17280847 0.08526028 0.03153667 0.07153133 -0.12344824 0.2637877 -0.12014992 -0.2034606
-0.09911608 0.09380348 -0.048814364 0.016583633 -0.19273004 0.01747048 -0.12313894 -0.096398465
-0.19897833 -0.02778376 -0.07714134 0.022088896 -0.13718206 -0.02369781 -0.0466828 -0.066707894
-0.08485307 -0.02411927 0.079238266 -0.021832136 0.18180867 -0.038764153 0.05307287 -0.05133068
0.024119737 0.080299236 -0.08261926 -0.021230383 -0.035767715 -0.18106356 0.042439643 0.054366075
0.014302614 0.052909378 -0.104098685 0.18373713 -0.03808236 0.012774566 -0.0929313 -0.14794262
-0.032921374 -0.006745942 -0.01852649 -0.04038832 0.040354125 -0.15906876 0.08074408 -0.09003272
-0.05176201 0.14945918 0.21239477 0.056217518 -0.005568905 -0.26554492 0.020717217 0.21070553
0.08394838 -0.059411403 0.00046713793 0.095847145 0.11471933 0.1902419 -0.034358773 0.035585523
0.08573904 -0.036224693 0.057321813 0.09664666 -0.07318896 0.05560663 -0.019023636 -0.07518809
0.03483727 -0.052536484 0.17460412 -0.14085416 0.04527702 0.0034852386 0.017312849 0.21730155
0.22813305 -0.032971237 0.029475793 -0.019843297 -0.05656261 0.03265068 -0.14190242 -0.1049727
-0.16164182 -0.17660095 -0.1670826 0.17155373 -0.13142145 0.052982513 0.29783458 -0.058736842
0.09024419 0.000185795 0.126377 0.080884345 -0.021540558 -0.03785639 0.17193276 0.17043863
-0.082337774 0.11693675 0.01318525 -0.031811245 0.04040504 -0.07933664 -0.2038167 0.14529528
0.09791167 -0.018008076 0.118024915 0.019143857 0.03834888 0.16197251 0.04785453 0.020682195
0.0331433 -0.01973017 -0.2079438 -0.057584163 0.042175185 -0.05085819 -0.06845727 0.14326933
0.0028161942 -0.048958406 0.017916467 -0.058923986 0.06035591 -0.19442393 0.049199503 -0.08358094
0.036434542 0.026518568 0.27219528 -0.09493916 0.16987589 0.057762258 0.041321546 -0.1889603
0.0285822 0.12674953 0.050055157 -0.034581516 0.08251651 0.15281825 0.14931336 0.14925326
-0.055457916 -0.0015099796 0.030578377 0.15628581 -0.025090644 0.031559225 0.028115334 -0.018709166
-0.13680677 -0.028015973 -0.04264594 -0.03756747 0.019659448 0.07135446 0.06255461 0.0033693924
0.1516339 0.026195396 0.17657998 -0.15765895 -0.07944928 -0.07243923 -0.0072604613 -0.04343183
-0.0004693441 -0.06971124 -0.00039792163 0.006834322 -0.014130819 0.16463833 -0.11727625 -0.24326596
0.048083134 0.073374584 -0.01602843 -0.06290395 0.026246578 -0.07048603 0.07562162 0.059632827
-0.16036199 -0.03151564 0.08746239 0.0056718416 0.055841748 0.18533769 -0.054795526 0.21684694
-0.08597818 0.04878752 -0.14150468 0.1413061 0.107389 0.12059399 0.030283665 -0.06399139
-0.062425386 -0.09578488 -0.1614603 -0.10664797 0.058652017 -0.02843358 -0.008287763 0.13025692
-0.059533488 -0.09992273 -0.012378384 0.05260828 0.2195016 -0.018439151 -0.033458166 0.01783266
0.015099945 -0.017870475 -0.0127757145 -0.11365898 -0.15064718 -0.10240073 -0.07319815 0.032711893
0.02066329 -0.039830573 0.073220745 0.010940314 -0.0987708 0.1259288 0.13825916 -0.087489545
