Assets/Models/2023-05-29_3e80d68/My Behavior.onnx (onnx, 107141 bytes, 6 tensors)

action_model._discrete_distribution.branches.0.bias f4 [3]
000000 45 fd a3 38 06 b9 e3 3a e6 30 53 b9
       7.819621e-05 0.0017373867 -0.00020140744

action_model._discrete_distribution.branches.0.weight f4 [3, 128]
000000 50 61 91 bd 35 a4 27 3d be fa 7b 3d a6 0d 92 3b
       -0.07098639 0.040928084 0.061518423 0.0044571934
000010 81 5a 99 bc cf 5f 90 bd 5a f2 48 3d d4 36 88 bd
       -0.018719913 -0.07049524 0.04905925 -0.06651083
000020 8b 36 73 bd 01 4b 7b bc 05 69 57 3d db e2 92 3d
       -0.059378188 -0.015337707 0.05259039 0.071721755
000030 81 8b da 3c b3 32 db 3c a7 33 3d bd 10 b8 49 bd
       0.026677849 0.026757574 -0.046191838 -0.0492478
000040 06 19 95 3d 45 bb 3d 3d 3d 00 21 bd 54 77 29 bd
       0.072801635 0.046321172 -0.039306868 -0.041373566
000050 e3 6f f6 bc 89 79 c5 bd 78 ce 8d 3d c2 a3 9b bd
       -0.030082649 -0.096423216 0.069241464 -0.07599594
000060 f6 c8 8f bd d5 5c b4 bd e6 4e 67 bd e5 4a 5c 3d
       -0.07020752 -0.08806769 -0.056471728 0.053782362
000070 15 7b ee 3c f6 bb 6c 3d 0d fa 54 3d e8 e2 3c bc
       0.029111424 0.05779644 0.05199628 -0.011528708
000080 fb 4b 64 bd 72 7b 77 bd 36 a0 96 bd 2f 23 86 3d
       -0.055736523 -0.06042046 -0.073547766 0.065496795
000090 20 9a a3 3d 28 a0 ae bd 76 c2 62 bd 7f b6 63 3d
       0.079883814 -0.08526641 -0.055361234 0.055593964
0000a0 31 f9 a9 bc db e5 bb bd 14 c7 58 3d e5 f9 80 3d
       -0.020748707 -0.09174701 0.05292423 0.062976636
0000b0 1e 36 85 bc 5b ab b5 bc 80 a2 65 bd 45 17 4d bd
       -0.016261157 -0.022176435 -0.056063175 -0.05007102
0000c0 e1 c6 3c 3c 38 b5 a7 3d 61 ba 61 3d 61 07 9e 3d
       0.011522026 0.081888616 0.055109385 0.07716251
0000d0 9b 00 8d 3d c4 b4 b2 3c 2e 26 78 3d 17 2a 4f bd
       0.06884881 0.021814711 0.060583286 -0.05057725
0000e0 0f af 49 bd 30 9a 8d bd dd 65 a5 3d 72 69 68 bd
       -0.049239215 -0.069141746 0.080760695 -0.056741185
0000f0 b8 6d 80 3d c8 f6 87 bd f9 05 02 3c f3 b4 8d 3d
       0.06270927 -0.06638867 0.007935994 0.06919279
000100 e0 e9 71 bd 49 81 97 bd b7 ce 7c 3d 3a 8f bb bc
       -0.05906093 -0.07397706 0.061720576 -0.022895444
000110 9b a2 4a bd d7 c4 81 3d ef 0d 11 3d cb e9 96 3d
       -0.04947148 0.06336372 0.03541368 0.07368811
000120 8a 26 87 3d 14 9e 58 3d ac 59 76 bd bb 30 0e bd
       0.065991476 0.05288513 -0.06014411 -0.03471444
000130 6e e1 36 3d 18 6f 55 bd da 82 58 3d 93 7e 62 bd
       0.04464858 -0.0521079 0.052859165 -0.05529649
000140 1d 8d d2 3d 7f ab 4b 3d ca d8 8d bd 5c 45 1c 3c
       0.102808215 0.0497241 -0.06926115 0.009538021
000150 21 97 74 3d 73 9b 69 3d fa 9f 9a bd c6 43 af bd
       0.05971444 0.057033014 -0.07550044 -0.08557849
000160 9f b1 87 bc 6b 02 99 3d 49 a7 81 bd 08 61 65 bd
       -0.016564189 0.07471164 -0.06330735 -0.05600074
000170 f2 93 1b bd b4 e4 7e bd e1 af bb bc 53 19 31 bd
       -0.03798289 -0.062229827 -0.022911014 -0.04323704
000180 ab bc a9 3b d5 fb 14 3d 33 97 54 3d 68 68 13 bd
       0.0051799617 0.03637298 0.051902007 -0.03598824
000190 34 5d 72 3d 1e 5c 49 3d c1 33 62 bd 2b ab 5d 3d
       0.059170917 0.049160115 -0.055225138 0.054118317
0001a0 6b 88 02 bd 0e 0c 90 3d 2c cd 84 3c 8b e1 14 bd
       -0.03186838 0.07033549 0.016211115 -0.036347907
0001b0 09 b9 89 bd 4e 39 e9 3c 3a 09 83 bc 91 fa c5 3d
       -0.06724746 0.028469708 -0.01599561 0.096669324
0001c0 d5 4d 7a 3d 28 d5 8b 3d 75 06 47 bb 5e ee b3 3d
       0.061109383 0.06827766 -0.003036884 0.08785699
0001d0 d6 c7 a2 3d 0b 38 90 3d 6f 1b 6c 3d ce 36 8b 3d
       0.07948272 0.07041939 0.05764335 0.067975625
0001e0 d1 88 88 3d 58 c6 16 3d dc e4 7c bd ba 7d 97 bd
       0.06666721 0.03681025 -0.061741695 -0.07397027
0001f0 09 60 8e 3d e0 b2 66 3d d7 2a dc bb 79 43 d0 3d
       0.06951911 0.056322932 -0.006718974 0.101691194
000200 c1 03 9c 3d a4 c7 62 bc 11 f8 59 bd bc ee 7a 3d
       0.076179035 -0.013841543 -0.05321509 0.06126283
000210 d3 31 e7 bc 3e 2e 12 3d a5 86 1c bd 49 d8 d3 38
       -0.028222 0.03568863 -0.038214345 0.0001010155
000220 46 7e 77 bd e5 1e 7b 3d f6 53 89 bb cf 19 bf bc
       -0.060423158 0.06130876 -0.004190917 -0.023327736
000230 17 08 02 bd 9d 88 4d ba 64 11 26 bc fd 82 a8 3d
       -0.031745996 -0.00078404864 -0.010135982 0.08228109
000240 46 ca 26 bd 8d 4f 58 bc 1f 4a a2 3d c6 87 89 3d
       -0.040720247 -0.01320256 0.07924294 0.0671535
000250 d2 1e 1e bd a2 5e ad 3b 11 49 0f 3b 95 bf d1 bc
       -0.03860361 0.005290822 0.002186362 -0.025604049
000260 8e 30 12 bc 25 9c 74 3d de 20 5a bd df 0b c0 bb
       -0.008922709 0.059719224 -0.053254 -0.00586079
000270 63 75 d4 bb 70 21 63 bd 63 9a ac bc 7c 64 80 bd
       -0.00648372 -0.05545181 -0.021069711 -0.06269166
000280 06 86 18 bd 4e 14 28 bd 49 04 6e 3c 6b 27 ee bc
       -0.03723719 -0.04103499 0.014527389 -0.02907153
000290 48 ba 27 bd b8 95 22 bc 2e 3a d2 bc 29 c0 d2 bb
       -0.040949136 -0.009923391 -0.025662508 -0.0064315987
0002a0 d6 85 80 3d d8 9a 85 3d c3 fe 1b bd 1c 2e a4 bc
       0.06275527 0.06523675 -0.038084757 -0.020041518
0002b0 d1 19 5b 3d 7b 8a 47 bd a8 dd 67 bd 86 a0 14 bd
       0.053491417 -0.04871605 -0.056607872 -0.0362859
0002c0 a2 f7 59 3a 82 f1 98 bd c3 df 28 bd db 0b 24 bd
       0.0008314793 -0.07467939 -0.04122902 -0.04005037
0002d0 c5 6b 04 bd a1 bc 8d bd 7d b2 07 bd 52 0e 65 bd
       -0.03232934 -0.06920744 -0.033129204 -0.05592186
0002e0 76 3c 2e bd 5a dd be 3d 42 b3 11 bd 0d 45 fd bc
       -0.04253813 0.09319563 -0.035571344 -0.030916715
0002f0 af 57 8d bd a3 70 37 bd 10 29 e5 3d 3e 25 2c bd
       -0.0690149 -0.044785153 0.11189473 -0.042027704
000300 90 49 26 3d 6d b8 5e bd 13 56 27 bd 24 7f 44 3d
       0.0405975 -0.0543751 -0.04085357 0.047972813
000310 ea 05 6a bb f4 22 a1 bd 7e a3 21 3d 6a 1e 19 bd
       -0.0035709091 -0.07867995 0.03946256 -0.03738252
000320 7c 3c c5 bc b6 31 5e bc d4 09 d0 bc 94 df 5e bd
       -0.024076693 -0.013561657 -0.025395311 -0.05441244
000330 b7 4c 50 3d f6 23 8d bc 8d ab bb bc e0 fd 3f bc
       0.05085441 -0.017229062 -0.02290895 -0.011718243
000340 2e 71 48 bd d9 3f 28 bd 4b c7 9a bb ce 3a 38 bd
       -0.04893606 -0.041076515 -0.0047234646 -0.044977956
000350 50 a5 de ba 1d c4 15 bd 3d 35 8f bc f5 38 1f 3d
       -0.0016986523 -0.03656398 -0.01748144 0.038872678
000360 d3 f0 f6 3c b5 b2 ec bb cf 9d f8 bc f9 93 92 bd
       0.03014413 -0.007223452 -0.030348687 -0.0715713
000370 ed 2b 16 bd 9d bd 5d bc eb c2 8c bd 35 c3 65 3d
       -0.036662985 -0.013533977 -0.06873115 0.056094367
000380 0d 54 6b bd 02 33 b9 37 ae 45 4b bd e5 35 88 3d
       -0.057453204 2.2077471e-05 -0.049627 0.066509046
000390 30 1a 8a bc 57 8c 0b bd 3f 32 39 bd e4 ae 2e bd
       -0.01685819 -0.034069385 -0.045213934 -0.042647257
0003a0 54 cf 34 bd 9d 61 c7 bc 59 75 4b bd ba fd 46 bd
       -0.044143036 -0.024338538 -0.04967246 -0.048581816
0003b0 e1 fb 3b 3d 93 91 0f bd 6f 20 45 3d 21 61 44 bd
       0.045894507 -0.03505094 0.048126634 -0.04794419
0003c0 0b f5 1a bc 54 38 a9 3a 96 80 15 3d eb e2 2c bd
       -0.009457837 0.0012910464 0.036499582 -0.042208593
0003d0 91 ae 26 bd 98 f9 b9 bb 46 54 95 bd 73 46 39 bd
       -0.040693823 -0.005675506 -0.072914645 -0.0452332
0003e0 3a 74 57 bd 32 54 2a bc 77 17 30 bd 5c c2 08 3d
       -0.052601077 -0.01039605 -0.042991128 0.03338848
0003f0 ef 57 3d bd 63 de 3d 3c 3f 20 8a 3d 67 fd 8d bd
       -0.046226438 0.011588666 0.06744432 -0.06933098

network_body._body_endoder.seq_layers.0.bias f4 [128]
000000 61 8f 80 3c e7 03 3a 3c 63 32 9e 3b 90 ac 8a 3b
       0.015693368 0.011353469 0.004827784 0.004231997
000010 40 1d b8 3c 55 cd de 3c f9 f9 62 3c 25 2b 03 3d
       0.022474885 0.02719752 0.013853543 0.032023568
000020 18 b9 d2 3c b7 4f 85 3c c6 76 0e 3d 99 10 e4 3c
       0.025723025 0.016273363 0.03478124 0.027839946
000030 69 8d 1f bc ac 56 bd 3c c3 58 cd 3c 37 9c e5 3c
       -0.009738305 0.023112617 0.025066739 0.02802859
000040 ea b0 e6 3b 15 58 dc 3c 57 e5 5d 3c 05 34 02 3c
       0.007040133 0.02689747 0.013543448 0.007946973
000050 e2 f5 6b 3c 88 2d c2 3c 39 9e 87 3c e6 1d a7 3c
       0.014401885 0.023703352 0.016554939 0.020399999
000060 cb a9 71 3d 90 dc a4 3c 3d c3 7c bc 66 78 c4 3c
       0.058999818 0.020124704 -0.015427408 0.023983192
000070 a9 ef c6 3c 73 06 33 3d 34 b7 f1 bc a1 8e 29 3d
       0.0242842 0.043707322 -0.029506303 0.041395787
000080 f8 08 95 3c 14 2a 97 3c 4c 41 9e 3c c9 0e 6a 3b
       0.018192753 0.018452682 0.019318245 0.003571438
000090 d3 e4 01 bb 82 96 47 3d 47 be 30 bb 86 00 2c 3b
       -0.0019820228 0.04872752 -0.0026968883 0.002624543
0000a0 44 1f 35 bd cd d3 3f ba cb 39 d6 3c 72 3a 87 3a
       -0.04421927 -0.00073176326 0.026150605 0.0010317101
0000b0 96 9c 41 3d 5a 34 4b 3c b5 85 ab 3c 5d 19 1b 3c
       0.047268473 0.012402618 0.02093778 0.009466496
0000c0 af 9f a9 3c c6 6d 67 3c aa 68 08 bd 1a eb 52 bb
       0.020706026 0.014125293 -0.03330294 -0.0032183588
0000d0 06 2f 8e 3c 94 c4 17 3d 88 d5 d8 3c aa cd 73 3c
       0.017356407 0.037052706 0.026469007 0.014880577
0000e0 0c 6d 17 3d 21 ff 05 3b 5a 4d 75 3c 13 e8 8f 3c
       0.03696923 0.0020446258 0.014972055 0.017566716
0000f0 e5 8a ec 3b 70 16 63 3c 5a 0c d4 3c 2c b6 4f 3c
       0.007218706 0.01386033 0.025884796 0.0126777105
000100 7e 84 0d 3c 81 ea a5 bb b1 db ec 3c 72 65 56 3d
       0.008637546 -0.0050633554 0.02891335 0.05234284
000110 ea 69 9e 3b f9 39 67 3c 0c f5 7a 3c 5f 43 a7 3c
       0.0048344033 0.014112943 0.015317213 0.020417867
000120 29 aa 02 3c 5b e1 84 3c 6f 00 f7 3c bb cb 49 3d
       0.00797514 0.01622074 0.030151574 0.04926656
000130 8c eb 6e 3c 13 23 fe 3c a5 e1 db 3c 53 47 41 3d
       0.014582526 0.031022584 0.026840994 0.04718716
000140 75 1a d7 3c b5 30 1e 3c 75 a9 07 bb 98 6b 82 bc
       0.026257733 0.009655167 -0.002070037 -0.015920445
000150 c5 18 2b 3d 72 f5 13 3d 4b f3 f0 3b ad 90 49 3c
       0.04177167 0.036122747 0.0073532215 0.01230256
000160 89 7d b0 3c a1 f6 a7 3c e1 f1 e8 3c 01 8c 5a 3b
       0.021544235 0.020503344 0.02843565 0.003334761
000170 12 d1 1c 3d 60 93 8f bc 7e 7f e3 3c cb 6e c8 3c
       0.038285322 -0.017526329 0.027770754 0.024466893
000180 bb be 12 3d 9a f9 cd bb 7e 06 b7 3c 1c b8 f4 3c
       0.035826426 -0.0062858583 0.022341963 0.029872946
000190 99 e2 04 3d 02 72 72 3c ed 46 5a 3d 8c ba 97 bb
       0.032442663 0.014797689 0.053290296 -0.0046303924
0001a0 3d 6f 94 3c 93 b8 b2 39 2e f5 de 3b 4f eb d7 3b
       0.018119449 0.00034088324 0.00680413 0.0065893303
0001b0 5b 9c 85 3c 9a ec 05 3c 76 27 80 3c 2a f5 8a 3b
       0.016309908 0.008174086 0.015643816 0.0042406516
0001c0 8d e4 9a 3c 52 2a be 3c 38 6f 36 3d 02 3f 10 3d
       0.01890781 0.02321354 0.04453966 0.03521634
0001d0 41 fd e0 3c 37 4c cb 3a 6c 10 8c 3c 9c 68 43 bb
       0.02746451 0.0015510385 0.017097674 -0.002981699
0001e0 f0 00 f3 3c 88 5e 02 3d 54 03 58 3c 91 8d 24 bd
       0.029663533 0.031828433 0.013184387 -0.04017407
0001f0 96 c0 29 3d f4 fa 87 3b 26 67 f1 3c 32 03 90 3b
       0.04144343 0.004149789 0.02946813 0.004394912

network_body._body_endoder.seq_layers.0.weight f4 [128, 72]
000000 7e 69 11 be 90 d1 1d 3e 3b 67 37 3e 36 84 8a 3e
       -0.14200398 0.15411973 0.17910473 0.27053994
000010 55 59 ad bd 9f 44 90 3d 5f 09 aa 3d b8 33 c1 3d
       -0.08464304 0.070443384 0.08302569 0.09433693
000020 ce 87 8d 3d aa 1d 2c 3e 4d e3 cc 3d 6f ad ae 3c
       0.06910668 0.16808191 0.10004292 0.021322934
000030 b8 78 1c 3e 1b 1d a3 3c d4 74 bc bd 18 06 bb bd
       0.15280426 0.01991134 -0.09201971 -0.09132022
000040 fe 9c af 3d ba 83 9d bd 3c 91 a2 bd 3a 8e ae 3d
       0.08574866 -0.076911405 -0.079378575 0.08523221
000050 7f ee 91 bd d0 59 87 be 90 a0 24 3e f3 3f 95 3d
       -0.07125568 -0.2643571 0.16076875 0.07287588
000060 23 51 9b 3d 73 67 5b bc fc ec 29 3d 99 e4 31 be
       0.07583835 -0.013391363 0.04148577 -0.1737236
000070 bd 7d 97 3e 05 ac 20 bc a7 c9 e7 3d 2a d3 35 3d
       0.29588118 -0.009806638 0.11317759 0.044390835
000080 9d c7 7c 3e b1 37 5d 3e 9c 94 0f 3c 4b 9a 7b 3c
       0.24685521 0.21603276 0.008763459 0.0153566105
000090 86 ff 72 bc 03 d8 1b 3d 63 fb 7c 3c a3 49 06 3d
       -0.014831429 0.0380478 0.015440795 0.03278507
0000a0 42 34 29 be 28 51 1f bd 98 f7 29 bc 39 cf 3e bd
       -0.16523841 -0.038895756 -0.010373972 -0.04658434
0000b0 13 5d 70 3d cd bd ed bc 80 fe 24 3e 69 44 37 bd
       0.058682512 -0.029021168 0.16112709 -0.044742975
0000c0 83 ed f1 3d 09 a2 32 bd 2d c5 9d 3d a6 ab 84 3d
       0.1181288 -0.04361156 0.07703624 0.06478052
0000d0 97 b4 22 3d ab 1e 83 bd bb 68 17 be 1e bb 1b 3e
       0.039723005 -0.06402334 -0.14786045 0.15208098
0000e0 d5 b3 18 3e 63 1a 09 3d c6 9f d5 3c d2 6e 50 bd
       0.1491235 0.03347243 0.026077162 -0.050886936
0000f0 54 17 e2 3d cc 17 a9 ba 4f 14 0b 3e ed ce 1f 3e
       0.11039606 -0.0012900769 0.13581966 0.1560628
000100 9c 23 4e bd d2 ed ff 3d 65 ee 93 bc 8d 37 9a 3c
       -0.05032693 0.124965325 -0.018058011 0.018825317
000110 e2 fa 7f bd 73 b4 22 3e 63 2f 21 be 7c 21 93 bb
       -0.06249512 0.15889148 -0.15740733 -0.0044900756
000120 7f d8 7b 3e 05 30 94 bd 9e 81 0f bc 72 58 c6 3c
       0.24594305 -0.072357215 -0.0087589305 0.024212096
000130 92 a2 e8 3d 32 14 1e 3e 72 a9 e9 3c d4 a7 e3 bd
       0.11359133 0.15437391 0.02852318 -0.11115995
000140 43 1d d7 3d 50 93 9c be 74 47 9a 3b 7a c3 1d be
       0.10503628 -0.3058114 0.004708225 -0.154066
000150 a8 d0 aa bd 38 51 c5 bd a7 50 3f bd 20 cd b2 3d
       -0.08340579 -0.09634632 -0.046707775 0.08730531
000160 30 73 39 bd 37 1f 04 3e 05 4b 7e 3e 28 07 18 bc
       -0.045275867 0.12902533 0.24833305 -0.00927905
000170 f8 6d 57 3e 60 5d 68 bd e7 93 1f be 2c d6 45 3e
       0.21038043 -0.056729674 -0.15583764 0.19319981
000180 85 44 3c 3e 6f f0 20 3d 2c 8d be 3c b6 59 c4 3c
       0.18385513 0.039291795 0.023260675 0.023968559
000190 3e 3e a7 bd 05 f6 01 3e f9 02 07 bd a0 b7 0f be
       -0.08166169 0.12691505 -0.03296182 -0.14034891
0001a0 7d 5e 96 bd ea 3e 70 3d 90 ed 09 be 61 f6 9a 3d
       -0.07342241 0.05865375 -0.13469529 0.07566524
0001b0 67 0a 25 bd e6 b1 cf bd f2 a0 ac bd 12 8e a0 bd
       -0.040293124 -0.10141353 -0.084291354 -0.07839598
0001c0 d3 ee bf bd aa bc 09 bd d0 74 00 be 93 25 81 bd
       -0.09371724 -0.03362719 -0.1254456 -0.06305995
0001d0 7b 4c 71 3d 91 15 97 bd 28 b2 64 3d 76 85 8f 3d
       0.058910828 -0.0737716 0.055833966 0.070078775
0001e0 17 06 f5 bd af c7 dc bd 3f 36 73 3e 4d a0 74 3c
       -0.11964052 -0.10780274 0.23751162 0.014930797
0001f0 fc f6 d6 bc 0a bd b5 3c f3 91 94 3e 64 da 34 3e
       -0.026240818 0.022184867 0.290176 0.17661434
000200 f5 57 35 3e 83 bb 0a bd 70 88 38 bc 7a 45 02 3e
       0.17709334 -0.03387023 -0.011262998 0.12721816
000210 4d 75 1a be 3a c5 42 3d 1d 7e 51 bd 70 8c ba bd
       -0.15083809 0.04755137 -0.05114566 -0.091088176
000220 66 0c 51 3d 29 04 21 3e 04 b9 35 be 3b a9 cb 3d
       0.051037215 0.15724243 -0.17746359 0.099443875
000230 e5 3c 10 be d7 8b c5 3c 4f c1 4e 3d 35 ef 90 bd
       -0.1408573 0.024114532 0.050477322 -0.07076875
000240 a0 45 57 be f2 00 7e 3d 1a 10 1a 3e 10 05 6b be
       -0.21022654 0.06201262 0.15045205 -0.2295115
000250 b3 1a b1 3d 1c 52 9b bd 9b 5f 98 3d d0 4c 51 be
       0.086476706 -0.075840205 0.0744011 -0.20439458
000260 b6 4c b5 3d 2d 5e f8 bd 95 ea 57 be 26 2f e7 3c
       0.08852522 -0.121273376 -0.2108558 0.028220724
000270 fa 0b 05 3d 57 db 89 be 7c 3d a6 bd 42 9f fc 3d
       0.032482125 -0.26925156 -0.08117196 0.123350635
000280 b9 04 39 3d 81 97 95 3e e1 bc f1 3c 60 dc 45 bd
       0.04517052 0.2921715 0.02950901 -0.04830587
000290 07 b8 c0 bd b8 75 16 be 87 88 ba bd c4 72 b7 3d
       -0.094101004 -0.14693344 -0.09108072 0.08957437
0002a0 17 44 19 3e 47 12 ef bd ae 7f 43 be ad 23 0a 3c
       0.1496738 -0.11673408 -0.19091675 0.008431357
0002b0 c9 be 7d 3c c5 db f9 bd 12 81 92 bd 33 84 cf 3d
       0.015487381 -0.12200121 -0.071535245 0.10132637
0002c0 db fc 38 be f7 47 8a 3d 8a 47 5b 3d c1 0c 5d bd
       -0.18065207 0.067520075 0.05353502 -0.05396724
0002d0 66 24 ca bd 01 a2 14 3e 6e 13 83 3d a2 8f cf bd
       -0.09870224 0.14514925 0.0640019 -0.10134818
0002e0 db a5 1d bd 50 94 40 3d 21 ec 1d bd f2 d5 45 be
       -0.03848825 0.04701644 -0.03855527 -0.19319895
0002f0 ac 97 d2 3d 93 9e ed 3c e5 78 49 3e 87 06 16 3c
       0.10282835 0.029006278 0.19675024 0.00915683
000300 2d bc 3c be 3b 80 98 bd 3c c2 01 3d 59 7f b6 bd
       -0.18431158 -0.07446333 0.031679377 -0.089110084
000310 41 5c a3 3e 83 1b 60 bc 49 02 43 3e 1f f8 15 be
       0.31906322 -0.013678434 0.1904384 -0.14645432
000320 33 26 64 3e fa a8 00 be 32 15 1f bd 64 b3 99 3d
       0.22280197 -0.1256446 -0.038838573 0.07504919
000330 03 d2 ec 3d ac af d4 bd 9d 5b 3e be f2 f6 eb 3c
       0.11563494 -0.10385069 -0.18589635 0.028804276
000340 a0 14 ce bb db bc f1 3d e1 4c 46 3d 75 d8 d8 3d
       -0.00628908 0.118035994 0.04841316 0.10588161
000350 8c bd c5 bd 7b 9c 9a be ed 58 1e be b9 3a 28 3e
       -0.09655294 -0.3019751 -0.1546361 0.16428651
000360 d1 ed 97 3d 1b 0b 5e be d2 a8 00 3d 94 0c 70 3d
       0.07418407 -0.21683924 0.031411 0.058605745
000370 60 ce a3 3d 87 37 f9 bd 05 09 33 3e dd bc 8e bd
       0.07998347 -0.12168794 0.1748391 -0.069696166
000380 2f d0 22 3d bc 58 16 be 76 52 ad bd 95 2a 0f bd
       0.03974932 -0.14682287 -0.08462994 -0.03495272
000390 13 55 f4 3c db f3 43 bd 3b ad 43 3e 19 2a 02 be
       0.029825723 -0.04783998 0.19109051 -0.12711371
0003a0 62 5b e1 bd 26 80 53 3e a9 30 67 3e eb bf 6e 3d
       -0.11003758 0.20654353 0.22577156 0.058288496
0003b0 72 80 8f 3c d0 5e 0e 3e 4e a3 5b 3e c2 d8 1e be
       0.017517302 0.13903356 0.21449015 -0.15512374
0003c0 85 4c 4e be b5 9b 80 3d c9 88 a1 bd 46 f8 72 be
       -0.20146377 0.06279699 -0.07887418 -0.23727521
0003d0 f8 10 b2 bc e9 f6 39 bd 11 8f 98 3c b3 1a e3 bd
       -0.021736607 -0.045401487 0.018622907 -0.11089077
0003e0 88 9d 01 be dc 7e e3 bc 82 24 08 be 05 5c d9 3c
       -0.1265775 -0.027770452 -0.13295177 0.026533136
0003f0 16 3d 92 3d e7 26 89 3d 6b 41 3b bd b2 99 8a 3e
       0.071405575 0.06696873 -0.045716684 0.27070385

network_body._body_endoder.seq_layers.2.bias f4 [128]
000000 20 55 1c 3d 8f f4 a6 3b b2 14 dd 3b 06 61 0e 3d
       0.03816712 0.0050950716 0.006746852 0.034760498
000010 83 e0 68 3c 0c c1 c9 3c da 1e 0b 3c 14 4a c9 3c
       0.014213684 0.024628185 0.008491242 0.024571456
000020 86 de 13 3d d0 d7 fb 3c d5 40 fa 3b 76 6c 9f 3c
       0.036100887 0.030742556 0.007637123 0.019460898
000030 52 ff 14 bb 82 b7 cb 3b 98 a2 2f 3d 91 83 38 3d
       -0.002273519 0.006216944 0.04287967 0.045047347
000040 c8 b3 cb 3c c0 8a a2 3b 71 7f 01 3d ca b7 86 3d
       0.024866 0.004960388 0.03161568 0.06578024
000050 5b f3 8b 3c 20 d2 27 3d 9a ae 92 3c b2 89 1c 3d
       0.017083814 0.040971875 0.017905522 0.038217254
000060 90 a0 03 3d 28 83 ea 3c 72 04 04 3d 7f 59 34 3c
       0.032135546 0.028626993 0.032230802 0.011007666
000070 0c de 4b bb 6b 8b 64 3c 91 76 2c 3c ec 40 87 3c
       -0.0031107692 0.013949255 0.010526315 0.01651045
000080 6e ae 01 3d e3 17 ab 3c f9 cc fe 3c f0 fc 13 3c
       0.03166049 0.020885414 0.031103598 0.009032473
000090 63 de ee 3c 98 04 e4 3c 15 e8 b5 3c f6 a7 24 3c
       0.029158777 0.027834222 0.022205392 0.010049811
0000a0 e2 18 92 3c bb 45 18 3d 59 27 4d 3c 53 6a 14 3c
       0.01783413 0.037175875 0.012521588 0.009058553
0000b0 fd 81 fa 3c 0f bd c5 3c bc 21 16 3d ec 44 d0 3c
       0.030579561 0.024138002 0.036653265 0.02542349
0000c0 50 82 35 3c 84 6f 31 3c a0 f0 1e 3c 46 18 a4 3c
       0.011078432 0.01082981 0.009700924 0.020031106
0000d0 b3 5e 85 3c 13 0d d7 3c c8 9c 76 3c e1 f2 1c 3d
       0.016280508 0.026251351 0.015052028 0.038317565
0000e0 a6 fc 04 3d 06 53 f5 3c 16 07 09 3d 22 83 c7 3c
       0.032467507 0.029946815 0.033454023 0.024354521
0000f0 02 35 49 3c a2 24 18 3d fc 6e 15 3d b9 95 bd 3c
       0.012280704 0.03714431 0.036482796 0.023142682
000100 a5 85 f8 3c f9 e6 41 3d e7 d9 16 3c f1 e7 af 3c
       0.030337164 0.047339413 0.009207225 0.021472903
000110 b6 5d 0d 3d 3c d5 96 3c c2 5d 9a 3c 61 5f 83 3c
       0.034513198 0.018412225 0.018843535 0.016036691
000120 83 8b 41 3c b8 e9 47 3c 92 a7 06 3d 64 0d 0d 3d
       0.011813047 0.012201719 0.03287465 0.0344366
000130 0b 33 96 3c 74 e7 0b 3d 0b 03 eb 3b f1 ae dc 3c
       0.018334886 0.034156278 0.0071719936 0.026938887
000140 e5 e1 de 3c dc 23 c3 3b 52 19 dd 3c 0b 6c 07 3c
       0.027207324 0.0059552025 0.026989613 0.008265506
000150 d9 c7 84 3c b1 55 05 3c db 60 14 3d b0 0d 1b 3d
       0.016208576 0.008138106 0.03622518 0.03785485
000160 59 94 95 3c d0 a3 90 3c 54 f4 cd 3c 9c 48 28 3d
       0.018259214 0.017656237 0.025140919 0.04108487
000170 1e ea 88 3c 79 43 15 3d 52 65 de 3c 1f 29 f3 3c
       0.016713198 0.0364413 0.027147923 0.029682694
000180 db 39 61 3c 46 54 7c 3b 12 57 c5 39 76 a7 b9 3c
       0.013746704 0.003850238 0.0003763964 0.02266286
000190 5b 19 b4 3c da cf 0c 3c ed e7 ef 3c c3 c5 40 3a
       0.021984747 0.008594478 0.029285396 0.00073536875
0001a0 3c 61 ce 3c 06 28 9c 3c b6 fa b7 3b 17 9a fd 3c
       0.02519285 0.019062053 0.005614604 0.030957265
0001b0 f2 89 99 3c b5 f4 8a ba 9a c3 a0 3c 12 36 bc 3c
       0.018742535 -0.0010601493 0.01962452 0.022975001
0001c0 20 74 a1 3c cb 76 a7 3c 3d ef 3a 3d a9 67 c3 3c
       0.019708693 0.020442387 0.04563831 0.02385314
0001d0 89 11 87 3c 49 5a 0f 3c c4 2c 82 3c d5 93 49 3c
       0.016487854 0.008749553 0.015890487 0.012303312
0001e0 90 c4 aa 3c 17 d7 8f 3b 65 6c 0f 3d b2 62 b5 3c
       0.020845681 0.0043896544 0.035015482 0.022141788
0001f0 25 c3 64 3c f7 9a f6 3b 24 e5 33 3d 9a 60 ff 3c
       0.013962542 0.0075257975 0.043919697 0.031173993

network_body._body_endoder.seq_layers.2.weight f4 [128, 128]
000000 b2 e7 e5 3d 0e e5 44 3d a8 49 3c 3e 69 5f 63 bd
       0.11225833 0.048070006 0.18387473 -0.055510912
000010 8f c1 c2 bd cb 05 db 3d 74 0f 14 3e 97 1a 8e 3d
       -0.095095746 0.10694464 0.1445902 0.06938665
000020 6e 4a 6b 3e fa 30 50 bc 83 1d 96 bd 56 0e cd 3d
       0.22977611 -0.012706989 -0.07329848 0.100125
000030 5c 1b c2 3d 9d b1 ea 3d 6c d5 9b bd 13 7b ed 3d
       0.09477875 0.11459658 -0.07609066 0.1159574
000040 85 31 b1 3c 1f 08 06 3e 76 7f cf 3d a9 8d 7d bd
       0.021630058 0.13089035 0.10131733 -0.061902676
000050 ff b4 38 3d 23 26 be 3d 76 de 1e 3e b9 9b 70 3d
       0.045094486 0.09284618 0.1551455 0.05874226
000060 26 60 c0 3d df c9 fc bd af d5 0e be b8 6f bc bd
       0.09393339 -0.12343191 -0.13948701 -0.09200996
000070 6d dd c4 3d 14 2a db 3b 38 cd 35 be d4 15 b8 bd
       0.09612546 0.0066883657 -0.17754066 -0.089885384
000080 b6 82 e3 3d 82 b7 02 3e 94 41 2b 3e bc 52 48 bd
       0.111089155 0.12765315 0.16724235 -0.048907027
000090 e5 12 a0 3d da 34 f0 bd 8d bb 1f 3d bd 27 ee bd
       0.07816104 -0.11728831 0.03899722 -0.11628673
0000a0 f6 7d 86 3d 7f 3b 8e 3d 81 c2 9b bd b1 4f cc bd
       0.06566994 0.06944942 -0.07605458 -0.099761374
0000b0 8e bf c6 bc 8a aa 9e bd 4c d8 0d be 95 a0 7d bd
       -0.024261262 -0.077473715 -0.13852042 -0.06192072
0000c0 36 44 ee 3d fb cb 01 be 49 a7 71 3c 8a 6f d1 3d
       0.11634104 -0.12675469 0.014749357 0.102263525
0000d0 92 9c f6 3a 24 7d b8 bd 3f 2c e0 3c 6c 5c 6c be
       0.0018814972 -0.09008244 0.027364848 -0.23082131
0000e0 26 38 eb bc f6 97 ae 3d 41 88 5f bd 12 85 0f 3e
       -0.028713297 0.08525078 -0.0545733 0.14015606
0000f0 ae 5d 06 3e 85 6d 9b bc df 54 8c 3d 36 06 77 be
       0.13121673 -0.018973121 0.068521254 -0.24123463
000100 e1 11 0a 3e 32 ab 15 3b 1b b3 05 be c4 d9 42 3e
       0.13483383 0.0022837636 -0.13056605 0.19028383
000110 3e 93 6f 3d 96 4e 8b bd e5 b0 57 3e b6 76 8f bd
       0.05849003 -0.068020985 0.21063574 -0.07005064
000120 1e 37 a3 3d a1 c1 26 bd 3c 41 3f 3e 51 dd 19 bc
       0.07969497 -0.040712003 0.18677229 -0.009391145
000130 8e 12 f2 3c ce cf 86 bd a2 32 ca bc 6f 75 74 3e
       0.029549863 -0.06582604 -0.024682347 0.23872922
000140 00 b5 a3 3d 2c 73 6a bc fb d6 3f 3d 52 ba d3 bd
       0.079935074 -0.014309686 0.04683588 -0.10338272
000150 f6 43 c0 3d f0 e3 ba 3d c5 b7 0c be 1a 8b 6a bd
       0.093879625 0.09125507 -0.13741978 -0.057261564
000160 33 8b ee bd 5c e2 dc bb 54 e3 2c bd 34 d1 db 3a
       -0.11647644 -0.0067408513 -0.042208984 0.0016770721
000170 d0 93 a4 bb f4 5d 7a 3d dd 38 01 be e2 68 77 3d
       -0.0050225034 0.061124757 -0.12619348 0.06040276
000180 1c 7b 5a bd 80 88 17 3c 2c 50 08 3d a9 ca ab 3d
       -0.053340062 0.009248853 0.033279583 0.08388264
000190 52 d4 ac bb 57 2c fa 3d c8 f9 b9 bc 10 0a ab 3d
       -0.005274334 0.122154884 -0.022702113 0.08351529
0001a0 62 4e 0f bc 8e 2f 8f 3d 95 cc 87 3d 7e c8 3c 3d
       -0.008746715 0.06991492 0.06630818 0.04608964
0001b0 00 a3 8d bb 22 eb 09 be 72 4d 99 bd a8 63 28 bd
       -0.0043224096 -0.13468602 -0.07485475 -0.041110665
0001c0 f8 74 a6 bd 5b ac 9e bd 36 48 8e 3d 77 cb 3d be
       -0.08127779 -0.07747718 0.06947367 -0.18534647
0001d0 82 70 d7 bd 7a 55 4c bc 78 74 b1 bd d4 ed f8 3d
       -0.10519506 -0.012471551 -0.08664793 0.12154737
0001e0 0e 42 4c be 97 53 52 bc 90 0b 98 3d 32 75 9e bd
       -0.19947073 -0.012837312 0.0742408 -0.07737197
0001f0 08 de 19 3d ea 9d 75 3d d2 e0 73 bc 33 5c 6d 3e
       0.03756526 0.05996505 -0.014885144 0.23179702
000200 dd 62 05 3d 76 4a f2 3d 92 5b 39 3d 58 51 b2 3d
       0.032564986 0.118306085 0.045253344 0.08706921
000210 7c a9 c1 3d 8f 4f eb bd 57 e7 13 3e 03 94 f8 bd
       0.09456155 -0.11489784 0.14443718 -0.12137606
000220 3b c5 9c 3d bd bf a5 3d 05 2c 3b 3e 56 55 52 be
       0.07654806 0.08093212 0.18278511 -0.20540366
000230 af 4f 52 3d e4 09 66 3d eb 1c ee 3d 09 3a c4 bd
       0.051345523 0.056161776 0.116266094 -0.09581382
000240 7b 47 8b bc 1d a4 9e bd 09 4a 06 bd 57 b7 87 3d
       -0.017001858 -0.07746146 -0.03278545 0.06626766
000250 4a 5e 2a 3e 7f e1 ee bd 70 9b 02 be df bb 11 be
       0.16637531 -0.11664104 -0.12754607 -0.14231823
000260 78 16 e4 3c 0d f0 64 bb da 16 3c 3d c0 7b b4 3d
       0.027842745 -0.003493312 0.04592023 0.08812666
000270 d3 19 30 3c 7a 94 44 3d 21 7b 62 3d 68 df 4c bc
       0.0107483445 0.04799316 0.055293206 -0.012504436
000280 73 ea ff bc bb 84 82 bc 1f 77 d5 bd b6 46 a4 bd
       -0.031239724 -0.015932431 -0.10423111 -0.080212995
000290 78 6a 47 bd 1a 69 c7 bc 26 4f 0f bd ec 2f 09 3b
       -0.04868552 -0.024342109 -0.03498759 0.0020933105
0002a0 92 b1 b3 bc 26 d4 4c bd 9e 34 4d bc 9d d4 51 3d
       -0.021935258 -0.050007008 -0.012524752 0.051228154
0002b0 9f aa 16 3e ab 95 ab bd f3 87 bc 3d 8f 79 2f 3e
       0.14713524 -0.08378156 0.09205618 0.17136215
0002c0 50 5f c5 3c 00 90 0c 3e 0b d6 f2 3d 54 94 3a bd
       0.0240933 0.13726807 0.11857232 -0.045551613
0002d0 7f 5a 9e 3c da 55 06 be b3 ac 85 3d 54 3c 17 3e
       0.019330261 -0.13118687 0.065270804 0.14769107
0002e0 a9 83 cb 3d 59 10 ec 3a f1 ae 34 3e d3 56 8a bd
       0.099372216 0.0018010243 0.1764486 -0.06754842
0002f0 eb 6c df bd 53 8d 06 3d a7 4d 84 bd c6 da 09 3c
       -0.10909446 0.03284962 -0.064601235 0.008413976
000300 76 ed 50 3d af 04 5f 3d 29 09 8a 3d 18 b1 89 bc
       0.05100771 0.054447826 0.067400284 -0.016808078
000310 71 9e 22 be 50 4a f5 3a db b9 bd bd 28 78 82 3c
       -0.15880753 0.0018714163 -0.09263965 0.015926436
000320 94 58 de 3d 2c 8a 0e 3c 54 bf d4 b6 ea 76 8b bc
       0.10856739 0.008699935 -6.340366e-06 -0.017024476
000330 42 77 40 3e 37 ac b2 3d af d9 0d 3e a0 95 66 bd
       0.18795493 0.087242536 0.13852571 -0.056295037
000340 f5 1c 84 b9 9f 0e a6 bc 5e 54 be 3d 21 f9 a6 bd
       -0.00025198577 -0.020270644 0.092934355 -0.08152986
000350 f6 02 e3 3c 7b c4 35 3c 9b b1 b8 bd 92 15 72 3e
       0.027711373 0.011094208 -0.090182506 0.23641041
000360 ba c2 8e bc 5c 0b e7 bd a9 90 65 3e 2f 7f 4a bd
       -0.017426837 -0.112814635 0.22418465 -0.049437698
000370 13 7a b9 39 12 90 df 3d 33 83 6c 3d 79 7c ee bc
       0.00035376902 0.10916151 0.05774231 -0.029112088
000380 2b 23 9e 3d 02 64 1c 3d d1 d3 2d 3d ef 03 85 bd
       0.077215515 0.038181312 0.042438332 -0.06494891
000390 4a ff e3 3d 67 8d bd 3c df 0a 04 bd e8 b3 d5 ba
       0.11132677 0.023138715 -0.03223693 -0.0016304227
0003a0 94 52 54 3d ac 1a 7b bc 72 cf a5 bd dd f3 b3 3d
       0.051836565 -0.015326183 -0.08096208 0.087867476
0003b0 15 19 3b 3e 99 d7 d1 3d b7 4e 82 bd 58 3d 24 3e
       0.18271287 0.102462 -0.0636267 0.16039026
0003c0 4c 81 80 bd 06 5d 56 bc e4 8a b2 3d 81 fd c7 ba
       -0.062746614 -0.013083702 0.087178975 -0.0015258045
0003d0 f8 f9 c3 3d 11 17 8f bc 6a 3d 8c bb c4 74 52 3d
       0.09569162 -0.017467054 -0.004279782 0.051380888
0003e0 e6 f5 0e 3d 28 79 77 3d 57 69 ac 3d cc 50 a2 3d
       0.034902476 0.060418278 0.084185295 0.07925567
0003f0 3a 6c c0 bd 1b a1 23 bd 57 36 93 3c e3 1c 5f 3d
       -0.093956426 -0.039948564 0.017970247 0.054470908
