Assets/Models/2023-06-06_slidejump/My Behavior.onnx (onnx, 137225 bytes, 9 tensors)

action_model._discrete_distribution.branches.0.bias f4 [3]
0	0x3c0169c5	0.007898753
1	0x3c24d0e5	0.01005957
2	0xbca8033a	-0.020509351

action_model._discrete_distribution.branches.0.weight f4 [3, 128]
0	0xbca212f7	-0.019784434
1	0xbdc59c26	-0.096489236
2	0x3d3275ea	0.043569483
3	0x3d16d4ce	0.03682404
4	0xbdb122d0	-0.08649218
5	0xbdbbb56b	-0.09165462
6	0x3bd16e61	0.006391332
7	0x3c2db1ee	0.010601504
8	0x3db80a27	0.089863114
9	0xbd4245da	-0.047429897
10	0x3d207bcd	0.039180566
11	0xbd9a5a85	-0.075367965
12	0xbda550e2	-0.08072068
13	0xbdedcbe0	-0.11611152
14	0x3cb78998	0.022404477
15	0x3d122a84	0.035685077
16	0x3c023929	0.007948198
17	0x3d4c2451	0.04983932
18	0x3d7722a0	0.060335755
19	0x3cb569ad	0.022145117
20	0x3b72d51e	0.0037053297
21	0xbdcbc261	-0.09949184
22	0xbdc6ebe3	-0.097129606
23	0xbd9e5c6b	-0.07732471
24	0xbdb86650	-0.090038896
25	0xbdf974ee	-0.12180506
26	0x3d36bcc6	0.044613622
27	0x3d994a35	0.07484857
28	0xbcbf00c4	-0.023315795
29	0xbd59d90f	-0.05318552
30	0x3da9b6d8	0.08286828
31	0xbe00f686	-0.12594041
32	0x3d98bb7c	0.07457635
33	0x3cfa172f	0.030528633
34	0xbe00dbd4	-0.12583858
35	0xbc648b07	-0.013949162
36	0xbd70f0a3	-0.05882324
37	0x3dbe989e	0.09306453
38	0xbddc5b94	-0.10759655
39	0xbb279475	-0.0025570665
40	0x3d104807	0.03522494
41	0x3daf55e3	0.085613035
42	0x3c4beefd	0.012447116
43	0x3d835298	0.06412238
44	0xbdc46849	-0.09590203
45	0xbdac41c2	-0.0841098
46	0x3d83af2d	0.064298965
47	0xbd0a803a	-0.033813693
48	0x3c6c667f	0.014428734
49	0x3da58b0a	0.0808316
50	0x3d83989d	0.06425593
51	0xbdc911e7	-0.09817868
52	0xbd13b9f8	-0.036066025
53	0xbdb2d58a	-0.087321356
54	0xbdbf21b9	-0.09332604
55	0xbc90d275	-0.017678479
56	0x3d18e71d	0.03732978
57	0xbd9125da	-0.07087298
58	0xbd7c192c	-0.061547443
59	0x3d4f6861	0.050636653
60	0x3d85d1d7	0.065341644
61	0xbd98028b	-0.0742236
62	0x3d46ca14	0.04853256
63	0xbd85096b	-0.06495937
64	0xbd899f9c	-0.06719896
65	0x3d2d0058	0.042236656
66	0x3d0fe41f	0.035129663
67	0x3d6efe02	0.05834771
68	0x3d6e4254	0.058168724
69	0xbcf8d9cd	-0.030377293
70	0x3d403396	0.046924196
71	0x3dc3dcdb	0.09563609
72	0xbc4b0660	-0.012391657
73	0x3df65da7	0.120295815
74	0xbd0b27b4	-0.03397341
75	0xbdfa5977	-0.12224095
76	0xbda560ae	-0.08075081
77	0x3d963f79	0.07336325
78	0xbdc6b737	-0.09702914
79	0xbdb2ecfc	-0.087366074
80	0xbdac83ea	-0.08423598
81	0xbc9ead41	-0.019369723
82	0xbdaac62f	-0.08338582
83	0x3d87fb1d	0.06639693
84	0xbcb43fa8	-0.02200301
85	0x3deec6d0	0.11659014
86	0x3b59d686	0.0033239438
87	0x3bd48677	0.006485756
88	0x3d9da46f	0.07697379
89	0xbdf03306	-0.11728482
90	0x3d90a76e	0.07063185
91	0xbd4986aa	-0.04920069
92	0xbcac131b	-0.021005204
93	0x3d61ddd8	0.055143207
94	0xbdb05691	-0.08610261
95	0xbdbec2dd	-0.09314511
96	0xbde3ec92	-0.111291066
97	0xbde7cc37	-0.11318248
98	0xbdaa2248	-0.0830732
99	0xbdd60e8e	-0.10451995
100	0xbd174b74	-0.036937192
101	0xbc3dd0a3	-0.011585387
102	0x3d266d68	0.04063168
103	0xbdf0a412	-0.11750044
104	0x3dc331b6	0.09530966
105	0x3aaaeaa4	0.0013039899
106	0xbdb2dfd8	-0.08734101
107	0xbddb081e	-0.106949076
108	0xbcf0069d	-0.029300028
109	0xbdbd3dc4	-0.092402965
110	0xbd320814	-0.043464735
111	0xbdde6f22	-0.10861041
112	0xbcc70add	-0.024297172
113	0x3dbac3b2	0.09119357
114	0xbd3f0970	-0.04663986
115	0xbd932ef1	-0.07186688
116	0xbe0a6fc3	-0.13519196
117	0xbce959e3	-0.028485244
118	0x3db38234	0.08765069
119	0xbc60b271	-0.013714419
120	0xbca2164e	-0.019786026
121	0xbc9937a6	-0.018703293
122	0xbc4556ad	-0.012044591
123	0x3dd76e4b	0.105190836
124	0xbdde300f	-0.1084901
125	0x3dca0c61	0.09865642
126	0xbd3c2650	-0.045934975
127	0xbd8693d0	-0.06571162
128	0x3d554a8e	0.052073054
129	0x3c8aa9c2	0.01692665
130	0x3ce0d37b	0.027444592
131	0xbd443034	-0.047897533
132	0x3c5606c7	0.013063139
133	0xbd88c9da	-0.06679125
134	0xbcfe398c	-0.0310333
135	0x3cba7210	0.022759467
136	0xbdb60f13	-0.08889594
137	0xbce148ee	-0.027500596
138	0x3c21dd0a	0.00987936
139	0x3d03ee55	0.032209713
140	0xbcbdd109	-0.023170965
141	0x3d258c67	0.0404171
142	0x3d1ba832	0.0380022
143	0x3c18206b	0.009285073
144	0x3b7ea4c3	0.003885553
145	0x3cd27248	0.02568926
146	0xbc491e03	-0.012275222
147	0xbd3a70d4	-0.045517758
148	0xbd80951d	-0.06278441
149	0x3ce0886d	0.027408803
150	0x3d1fca34	0.039011195
151	0xbd270988	-0.040780574
152	0x3c196bc0	0.0093640685
153	0x3d0f0f8a	0.03492693
154	0x3d4642d3	0.048403572
155	0x3c8cb450	0.017175823
156	0xbd598030	-0.053100765
157	0x3d35a7be	0.044349425
158	0x3caa46d9	0.020785736
159	0x36bf101c	5.694119e-06
160	0xbdb4fcac	-0.08837256
161	0x3b9d8ba1	0.004807905
162	0x3d1387fe	0.036018364
163	0x3d1d3e17	0.03838929
164	0x3d379549	0.044820104
165	0xbd0de6a7	-0.034643795
166	0xbcc29614	-0.023753203
167	0xbd9462c5	-0.07245401
168	0x3ca3681d	0.019947106
169	0xbd0c4f04	-0.034255043
170	0x3d39598e	0.04525142
171	0x3c56f559	0.013120019
172	0x3d71d7f9	0.05904386
173	0xbc04ff9e	-0.0081175845
174	0xbc02afa9	-0.007976451
175	0x3d5afb39	0.05346224
176	0xbd232c32	-0.03983707
177	0x3b58d2a7	0.0033084543
178	0x3c5bf122	0.01342419
179	0x3d338481	0.043827537
180	0xbcaedac6	-0.021344554
181	0x3cff8259	0.031190084
182	0x3cb5752c	0.022150598
183	0x3d5d5134	0.05403252
184	0x3cf915ff	0.030405996
185	0xbd3c195b	-0.04592262
186	0xbd380de5	-0.044935126
187	0xbdbefd53	-0.093256615
188	0x3c4df8b1	0.0125715
189	0x3c434b14	0.0119197555
190	0xbd92c8f1	-0.07167233
191	0x3d2afd61	0.041745547
192	0xbced29ef	-0.02895066
193	0x3c730420	0.014832526
194	0x3c6bcdaa	0.014392296
195	0xbb85e983	-0.0040866747
196	0x3cb2638c	0.021775983
197	0x3d132a24	0.03592886
198	0x3cb107c9	0.021610158
199	0x3c9504a0	0.018190682
200	0xbdb5d746	-0.08878951
201	0xbdaa1b73	-0.08306017
202	0x3d191aba	0.037379004
203	0x3d5c4023	0.053772103
204	0x3c03ac09	0.008036622
205	0xbd198c13	-0.0374871
206	0x3cd7a597	0.026324077
207	0xbd09718d	-0.033555556
208	0xbd14e5e7	-0.036352064
209	0x3cff32eb	0.03115221
210	0xbd59051e	-0.052983396
211	0xbd4d5b5f	-0.050135966
212	0x3c98b7a0	0.018642247
213	0xbcac8f30	-0.02106437
214	0xbd58ee70	-0.052961767
215	0x3cb2d887	0.021831764
216	0xbdcd35c5	-0.10020021
217	0x3d06de7e	0.03292703
218	0x3b8140be	0.0039444854
219	0x3ce22fb8	0.027610645
220	0x3d11fb29	0.035639916
221	0x3c9f8e7d	0.019477123
222	0x3d263c66	0.040584944
223	0x3cd3660b	0.025805494
224	0x3c98ca8a	0.018651266
225	0x3c8ca249	0.017167227
226	0x3cec9b5c	0.028882675
227	0x3c9671ef	0.018364875
228	0xbd7e0784	-0.062018886
229	0x3d4b1e8b	0.049589675
230	0x3c9ef48e	0.019403722
231	0x3cf75948	0.03019394
232	0x3bbe2cd2	0.005803683
233	0x3d1ecec0	0.03877139
234	0xbc586c75	-0.013209452
235	0xbb972cf0	-0.0046135113
236	0xbd9762f7	-0.07391923
237	0x3c9f4c03	0.019445425
238	0xbd93b33d	-0.07211921
239	0x3bf9991b	0.0076171285
240	0xbd715666	-0.058920287
241	0xbd0a1aaf	-0.033716854
242	0xbd50329a	-0.050829507
243	0x3d473d72	0.048642583
244	0x3d1086c4	0.035284773
245	0xbd6b5197	-0.057450857
246	0xbd079298	-0.033098787
247	0xbd67495a	-0.056466438
248	0xbc1a54ea	-0.009419659
249	0xbda09d6b	-0.07842525
250	0xbd8beadc	-0.06831905
251	0xbd93a9e6	-0.0721014
252	0xbcebcb8f	-0.028783588
253	0x38b4fe1e	8.630402e-05
254	0xbd07521b	-0.033037286
255	0xbd3a504c	-0.045486733

action_model._discrete_distribution.branches.1.bias f4 [3]
0	0x385f5606	5.324746e-05
1	0xbc053660	-0.00813064
2	0x3c3a1c03	0.011359218

action_model._discrete_distribution.branches.1.weight f4 [3, 128]
0	0x3c27de0b	0.01024581
1	0x3b9cc095	0.0047836998
2	0x3c3efb5f	0.011656611
3	0x3b2ca0df	0.0026341004
4	0xb92808fc	-0.00016025075
5	0x3b8d69b2	0.0043155784
6	0xb907ed7e	-0.00012963076
7	0x3b7b4103	0.003833831
8	0xbac6e0b9	-0.0015173174
9	0x3bf36391	0.0074276407
10	0x3b8dbe1e	0.0043256423
11	0x3c8408d3	0.016117489
12	0x3b814e8a	0.00394613
13	0x3c8512e1	0.016244354
14	0x3c9a34a6	0.018823933
15	0xbbb4e00d	-0.005519873
16	0x3ccab2e8	0.024743512
17	0xbab76812	-0.0013992807
18	0xbc41482b	-0.011796991
19	0x3b9b86f1	0.004746311
20	0xbb9b170b	-0.0047329715
21	0xbc06a0e8	-0.008217074
22	0x3ceab039	0.028648483
23	0x3c6ec614	0.014573593
24	0x3b8dceae	0.0043276167
25	0xbad07258	-0.0015903218
26	0xbc6b5bdd	-0.014365164
27	0x3c2dbe3e	0.010604439
28	0x3afd395d	0.0019319464
29	0x3bf34370	0.0074238107
30	0xbc9270d8	-0.017876074
31	0xbafea86c	-0.0019428856
32	0xbc09f5c9	-0.008420416
33	0x3d04599d	0.032312024
34	0x3c1ce8de	0.009577004
35	0x3c27af21	0.010234625
36	0x3cd4cf0d	0.025977636
37	0xbc973f73	-0.018462872
38	0x3c886906	0.016651642
39	0x3cc8d664	0.024516292
40	0x3b0ef3cb	0.0021812792
41	0xbcb363bb	-0.021898141
42	0xbbc0b418	-0.005880844
43	0x3be5dd05	0.007014873
44	0x3c8d8540	0.017275453
45	0x3cce0567	0.02514906
46	0xbc06f7cb	-0.008237789
47	0x3c72da81	0.014822603
48	0xbb9b0acd	-0.004731512
49	0xbc0254be	-0.007954774
50	0x3bed43fa	0.0072407695
51	0x3cbd1562	0.023081485
52	0x39f00984	0.00045783457
53	0xbc29efaa	-0.010372082
54	0xbca371fb	-0.019951811
55	0x3c8b6149	0.017014163
56	0x3ca750d9	0.020424293
57	0x3aeb0b2c	0.0017932407
58	0x3a978366	0.0011559546
59	0xbb8e1427	-0.0043358984
60	0xbaf3c5d0	-0.0018598381
61	0xba116f92	-0.00055479363
62	0xbcc303be	-0.023805495
63	0xbc33ee76	-0.0109821465
64	0xbc038fbd	-0.008029875
65	0xbc2db2be	-0.0106016975
66	0x3a5be1b6	0.00083878206
67	0x3c70e779	0.014703625
68	0xbc8db901	-0.01730013
69	0x3cb97643	0.0226394
70	0xbb991b4f	-0.004672445
71	0xbb71c050	-0.0036888309
72	0xbca24c3a	-0.019811738
73	0xbc45c9e7	-0.012072063
74	0x3c4e8ef3	0.012607324
75	0x3bed218f	0.0072366665
76	0x3bb7b0ce	0.0056057936
77	0xbc85d5ed	-0.01633736
78	0x3c19451f	0.009354859
79	0x3a8ad235	0.0010591211
80	0xbcb8b6db	-0.02254813
81	0x3a01693f	0.00049366424
82	0xbb6f03f2	-0.0036470857
83	0xbb3d6fce	-0.0028905752
84	0x3a5cfbad	0.00084298366
85	0xbbe7b9d6	-0.007071714
86	0x3c7bb798	0.015363596
87	0x3ba7fdb4	0.0051266793
88	0xbc30fa86	-0.010801917
89	0xbb3e69d7	-0.0029054785
90	0x3b078b7a	0.00206825
91	0xbc61a199	-0.013771438
92	0x3bffb5ae	0.0078036403
93	0xbbe394a3	-0.006945209
94	0x3b99c61e	0.004692807
95	0xbbb32d0a	-0.0054680156
96	0x3c44d177	0.012012831
97	0x3c8c6557	0.017138166
98	0xbbef7ea2	-0.007308797
99	0x3c39a50d	0.011330855
100	0xbb85bbf6	-0.0040812446
101	0xbc090269	-0.008362391
102	0x3c8ceb82	0.017202143
103	0xbbaf3413	-0.005346784
104	0xbcaa7a25	-0.020810196
105	0x3c742bdd	0.014903036
106	0x3c0398e7	0.00803206
107	0x3cc8e0fe	0.024521347
108	0x375f1965	1.3297748e-05
109	0xbc3f6aab	-0.0116831465
110	0xbc50636d	-0.012719017
111	0x3cad12b7	0.021127088
112	0xbcaf5ec5	-0.021407494
113	0xbb6bc079	-0.0035972877
114	0x3ca48a41	0.020085456
115	0x3c855f90	0.01628092
116	0x3cc1423a	0.02359115
117	0xbc9eca8a	-0.019383688
118	0xbcbf5549	-0.023356097
119	0xbbaab67f	-0.0052097435
120	0xbd05c5ce	-0.032659344
121	0xbc08e837	-0.008356146
122	0xbbc331aa	-0.005956848
123	0x3bcd5f64	0.006267475
124	0x3b2ab5cf	0.0026048308
125	0xbc712fb0	-0.014720842
126	0xbc1ff36d	-0.009762627
127	0x3c4fbc37	0.012679151
128	0x3b678692	0.0035328013
129	0x38b269c4	8.507402e-05
130	0x3b9e3b82	0.004828871
131	0xbbeee9ea	-0.0072910683
132	0xbc2875fa	-0.010282034
133	0xbc98b36f	-0.018640248
134	0xbcb9c74b	-0.022678038
135	0xbac60a05	-0.0015109187
136	0xb9867099	-0.00025642363
137	0xbcaf977f	-0.021434544
138	0x3c963aa7	0.018338514
139	0xbce3e959	-0.02782123
140	0xbbaf866d	-0.005356601
141	0xbc2bf5dd	-0.01049563
142	0x3b86a081	0.004108489
143	0x3bc85d75	0.0061146566
144	0xbc86f817	-0.01647572
145	0x3cfca6f3	0.030841326
146	0x3b2499d9	0.0025116114
147	0x3be7f917	0.0070792544
148	0xbc27559f	-0.010213285
149	0x3bcb9ba5	0.0062136226
150	0xbcd94d2b	-0.026526054
151	0xbcd1124b	-0.025521418
152	0xbb93060e	-0.0044868058
153	0x3c1d6595	0.009606739
154	0x3cbbfc01	0.022947313
155	0x3ba93787	0.00516409
156	0xbbd0fa6e	-0.00637751
157	0x3bc3e5b8	0.0059783123
158	0x3c9195ef	0.01777169
159	0xbbe90f51	-0.0071124216
160	0x3c5f5a55	0.013632377
161	0xbce34ddb	-0.027747085
162	0xbbcd9c58	-0.006274741
163	0x3a84fc22	0.0010145942
164	0xbc6457c8	-0.013936944
165	0x3cfba7cd	0.030719662
166	0xbcf469b3	-0.029835558
167	0xbd100af3	-0.035166692
168	0x3c4322be	0.011910139
169	0x3cd06966	0.025440883
170	0x3b8ec088	0.0043564476
171	0x3c9ecd8a	0.019385118
172	0xbc8d2dbf	-0.017233727
173	0xbc290a56	-0.010317406
174	0x3b8ba4a6	0.004261571
175	0xba9677a9	-0.0011479753
176	0xbcab0fd7	-0.020881576
177	0x3c089877	0.008337132
178	0xb98dd791	-0.00027054225
179	0x3c8262b2	0.015916202
180	0xbc846383	-0.016160732
181	0xbc199874	-0.009374727
182	0x3c878195	0.016541282
183	0x3a3ba6bb	0.00071583287
184	0x3c6e7132	0.014553355
185	0xbd31adf2	-0.043378778
186	0xbce6f1b9	-0.028191434
187	0xbce81803	-0.028331762
188	0x3c94d4fc	0.018167965
189	0xbc068c62	-0.008212181
190	0x3d0cdfc8	0.034393102
191	0x3c45ac66	0.012065029
192	0x3ab2cd8b	0.0013641579
193	0x3cbadce3	0.022810405
194	0xbc4dd97f	-0.012564062
195	0xbc81d5c7	-0.015849007
196	0x3c487f1f	0.012237339
197	0xbc5e54f3	-0.013570058
198	0x3cd589d1	0.026066693
199	0x3b28bcd0	0.0025747307
200	0xba925b9e	-0.001116622
201	0x3c61dd60	0.01378569
202	0xbbe479d6	-0.006972532
203	0xbca4b1ac	-0.020104252
204	0x3c29291b	0.010324742
205	0x3cba490e	0.022739913
206	0xbca429cd	-0.020039463
207	0xbca07bc4	-0.019590266
208	0xbbe754d3	-0.0070596724
209	0x3c8736a6	0.01650555
210	0xbc4f2ef4	-0.012645472
211	0xbc8334ee	-0.01601645
212	0xbc177801	-0.00924492
213	0x3c4aa863	0.012369248
214	0x3c8acd1f	0.016943512
215	0x3c6c4121	0.014419825
216	0xbc9f2d6f	-0.019430844
217	0xba695f0b	-0.0008902407
218	0x3af5a373	0.0018740728
219	0xbbfd3cbd	-0.007728188
220	0x3c9a346e	0.018823829
221	0x3ca6e0ad	0.020370806
222	0x3a7226c7	0.00092373457
223	0xbb35ea94	-0.0027758228
224	0xbc579ff8	-0.013160698
225	0x3c1d1ec6	0.0095898565
226	0x3a9fb013	0.0012183212
227	0xbcee85c9	-0.029116528
228	0xbc3ab866	-0.011396503
229	0x3cfa38d6	0.03054468
230	0x3b1c02d4	0.0023805397
231	0xbc0932f6	-0.008373966
232	0x3b8b8426	0.0042576967
233	0x3c08e644	0.008355681
234	0xbbfdb861	-0.007742927
235	0xbc82bd9e	-0.015959557
236	0xbba826d7	-0.005131583
237	0xbc92c291	-0.017915042
238	0xbc6e1714	-0.014531869
239	0xbc34bdc3	-0.011031571
240	0x3b93f4a0	0.0045152456
241	0x3c49528f	0.01228775
242	0xbd4100c0	-0.047119856
243	0xbcc7a701	-0.024371626
244	0xbc962e9f	-0.018332778
245	0xbc816058	-0.01579301
246	0x3c6fd4c2	0.014638128
247	0xbcc06f10	-0.023490459
248	0xbb322dda	-0.0027187974
249	0xbcfb07b1	-0.030643316
250	0xbb46810f	-0.0030289327
251	0xbced05fb	-0.028933516
252	0xbd1a8b76	-0.037730657
253	0x3c2eb344	0.010662857
254	0xbb9d4900	-0.004799962
255	0xbcb36986	-0.021900903

discrete_action_output_shape f4 [1, 2]
0	0x40400000	3.0
1	0x40400000	3.0

network_body._body_endoder.seq_layers.0.bias f4 [128]
0	0x3d0c08e3	0.034188163
1	0xbc9179d2	-0.017758284
2	0x3c6f06be	0.01458901
3	0x3b159682	0.0022825305
4	0x3ca5b35f	0.020227132
5	0x3b0e0325	0.0021669355
6	0x3c997d2a	0.01873644
7	0x3c37dd72	0.01122223
8	0x3cd03134	0.025414087
9	0x3c7176b9	0.014737778
10	0x3bd82ae6	0.006596911
11	0x3bc11ecc	0.005893564
12	0x3ce549f6	0.027989369
13	0x3caef4c2	0.021356944
14	0x3c995f85	0.018722305
15	0x3c0894ac	0.008336227
16	0x3d14aeef	0.036299642
17	0x3c4ebbb4	0.012617994
18	0x3c91fb6f	0.017820088
19	0x3ca54531	0.020174595
20	0x3cc44cb3	0.023962354
21	0x3ca60b4f	0.020269064
22	0x3cc58430	0.024110883
23	0x3c8f9cc7	0.017530812
24	0x3c6bc655	0.014390548
25	0xbd47ddd4	-0.048795536
26	0x3c361f28	0.011115827
27	0xbc94640c	-0.018114112
28	0x3d086eb1	0.03330869
29	0x3d281a73	0.04104085
30	0xbd0b3bfe	-0.03399276
31	0x3ce6de08	0.028182045
32	0xbcc28f6e	-0.023750033
33	0x3c66cc62	0.014086815
34	0xbc82e260	-0.015977085
35	0x3ca51ce5	0.02015538
36	0x3ce7263f	0.02821648
37	0x3d19a553	0.03751118
38	0x3cd44252	0.02591053
39	0x3cd7ac02	0.026327137
40	0x3c63564a	0.013875553
41	0x39a74a35	0.0003190801
42	0x3d2381ca	0.0399187
43	0xbc622365	-0.013802384
44	0x3c76445f	0.015030949
45	0x3c69ba00	0.014265537
46	0x3ce40b13	0.027837312
47	0xbca0b46f	-0.019617287
48	0xbaef93c8	-0.0018278295
49	0x3c48ed84	0.012263659
50	0x3c69a7ef	0.01426123
51	0x3c873bb3	0.016507959
52	0x3cba6ea3	0.022757834
53	0x3c6fc58c	0.014634501
54	0x3d889e58	0.06670827
55	0x3c97ccba	0.018530238
56	0x3d83e7c3	0.064406894
57	0x3c9f1ff8	0.019424424
58	0x3cd4523e	0.025918122
59	0x3d35fd92	0.044431277
60	0xbb94ff8c	-0.004547065
61	0xbc73fdca	-0.014892051
62	0x3c6a8d55	0.014315923
63	0x3c601091	0.013675825
64	0x3c5a3816	0.013319036
65	0xbc7525ac	-0.014962595
66	0xbb71f706	-0.003692092
67	0x3d03fc22	0.032222874
68	0x3d1e395d	0.038628925
69	0x3cebdd32	0.028791998
70	0x3c59feb9	0.0133053595
71	0x3d291c81	0.04128695
72	0x3d4a78e8	0.04943171
73	0xbc17f7c4	-0.0092753805
74	0x3d0d6640	0.03452134
75	0x3cfc9a99	0.030835437
76	0x3cd477e9	0.025936084
77	0x3c513321	0.012768538
78	0x3ca85e5c	0.020552807
79	0x3c35f2dd	0.011105266
80	0x3ccfb484	0.025354631
81	0x3cd5e919	0.026112126
82	0x3cec2055	0.02882401
83	0x3da2a635	0.07941858
84	0x3c6a5d96	0.014304539
85	0xbac240a6	-0.0014820292
86	0x3d25ee35	0.040510375
87	0x3cafca13	0.021458661
88	0x3cfa085e	0.030521568
89	0x3ccdead0	0.025136381
90	0x3cffb984	0.03121639
91	0x3c9564a8	0.018236473
92	0x3c89d3d9	0.01682465
93	0x3d07b57a	0.033132054
94	0x3c31f46b	0.010861496
95	0x3d0aed4a	0.033917703
96	0x3c83597b	0.016033879
97	0x3d02eb8a	0.03196291
98	0x3c98ce99	0.018653201
99	0x3d42f8ad	0.047600437
100	0x3d4b1e52	0.049589463
101	0x3beff1a2	0.007322506
102	0x3c56c897	0.013109348
103	0xbd44c66b	-0.04804079
104	0x3d03b6b6	0.03215667
105	0x3b3a26af	0.0028404405
106	0x3d397761	0.045279864
107	0x3c39da76	0.011343589
108	0xbcc04567	-0.023470594
109	0x3c8b3efb	0.016997805
110	0x3c3ff73b	0.011716659
111	0x3c92818b	0.017884037
112	0x3caaabb6	0.020833831
113	0xbbd0f147	-0.0063764188
114	0x3c62a59e	0.0138334315
115	0x3cd963ae	0.026536789
116	0x3c73115e	0.014835684
117	0x3cee986a	0.029125411
118	0x3d52dd08	0.051480323
119	0x3c53a43e	0.012917576
120	0x3c6f750c	0.0146153085
121	0x3d080e05	0.033216495
122	0x3ca42e22	0.02004153
123	0x3d26073b	0.04053424
124	0x3d12e32b	0.035861176
125	0xbb9f3fb2	-0.004859888
126	0x3c3de409	0.011590012
127	0x3c0df301	0.008663894

network_body._body_endoder.seq_layers.0.weight f4 [128, 126]
0	0x3c8a3b30	0.016873926
1	0xbd4e087a	-0.050301053
2	0x3e25e5e5	0.16200979
3	0x3d0941a8	0.03350988
4	0xbd5cd519	-0.053914163
5	0x3caffe8b	0.02148368
6	0xbd4c01a0	-0.049806237
7	0xbc65927c	-0.014011975
8	0xbe05a284	-0.13050276
9	0xbd98822e	-0.07446705
10	0x3daddc52	0.084892884
11	0x3e1b8df6	0.15190873
12	0xbbf5ff0d	-0.007507211
13	0xba67f10a	-0.00088478683
14	0x3d3c0871	0.045906488
15	0x3d5af117	0.053452577
16	0xbe41ec6e	-0.18937847
17	0x3e6ab823	0.22921805
18	0xbda6ab74	-0.08138171
19	0x3d8fa67a	0.07014175
20	0xbd5325fb	-0.051549893
21	0xbe35fe6f	-0.1777284
22	0x3da069f9	0.07832713
23	0x3d75487c	0.05988358
24	0xbd5a431e	-0.053286664
25	0x3df7f2b1	0.121068366
26	0x3e024b29	0.12723984
27	0x3cae1a35	0.02125273
28	0xbde9a51b	-0.114084445
29	0xbdca7c1c	-0.09886953
30	0x3e5a7ec4	0.2133742
31	0xbe64ca0a	-0.22342697
32	0xbdd6a425	-0.10480527
33	0x3e0ba1b9	0.13635911
34	0x3da0713b	0.07834097
35	0x3dd9bacf	0.10631334
36	0x3d66fce2	0.05639351
37	0x3e021847	0.12704574
38	0xbe063c09	-0.13108839
39	0xbdb38eaa	-0.087674454
40	0xbd67bc04	-0.05657579
41	0x3c651892	0.013982909
42	0xbcc804b8	-0.024416313
43	0xbc222056	-0.009895405
44	0x3e1f4c38	0.15556419
45	0x3dc7016c	0.09717068
46	0xbe810c9c	-0.25204933
47	0x3e79b76b	0.24386375
48	0x3dcf6d07	0.10128217
49	0xbd60d96a	-0.054894842
50	0x3d8db233	0.069187544
51	0x3e2c6bb7	0.16837965
52	0x3ccedee4	0.025252767
53	0xbb76c89f	-0.00376562
54	0x3c39059b	0.01129284
55	0x3df8bd01	0.12145425
56	0xbd5335c0	-0.051564932
57	0x3e249e67	0.1607605
58	0xbd0da8a4	-0.034584656
59	0xbd9f5007	-0.07778936
60	0xbb1fbbb2	-0.002437335
61	0x3d5ca8fc	0.053872094
62	0xbd9ac642	-0.07557346
63	0x3e1b37bf	0.15157984
64	0xbdac1ccb	-0.08403929
65	0xbd285375	-0.041095216
66	0x3d84a2d5	0.0647637
67	0xbd3da7e8	-0.046302706
68	0x3e2bfd1b	0.16795771
69	0x3d152c4d	0.0364192
70	0x3e8cdba4	0.27511322
71	0xbd8a1883	-0.067429565
72	0x3c101b65	0.008795594
73	0xbddb409a	-0.10705681
74	0xbdaf8c8e	-0.085717306
75	0xbe04affd	-0.12957759
76	0xbca2abb0	-0.019857258
77	0x3d7a776e	0.061149053
78	0xbd338bcb	-0.04383449
79	0x3d9e4ab1	0.0772909
80	0x3aced4ee	0.0015780011
81	0xbde90f47	-0.11379867
82	0xbcbcbe2f	-0.023039905
83	0x3de6f148	0.112764895
84	0xbdc601ea	-0.09668334
85	0x3d984413	0.07434859
86	0xbd844de3	-0.06460168
87	0x3b46ef10	0.0030354895
88	0xbda70acb	-0.081563555
89	0x3c8b6523	0.017016
90	0xbe159895	-0.14608987
91	0x3db0b08d	0.086274244
92	0x3d5d92e5	0.054095168
93	0x3d11f4e0	0.03563392
94	0xbd25a28a	-0.040438212
95	0xbd0d2541	-0.034459356
96	0x3c26064e	0.010133339
97	0xbe0ee146	-0.13953122
98	0xbd9c5ffc	-0.07635495
99	0x3e07b84c	0.13253897
100	0xbccc2f9d	-0.024925048
101	0xbda080ae	-0.07837044
102	0xbda4d3fa	-0.08048244
103	0xbb36b417	-0.0027878338
104	0xbd1491ae	-0.036271743
105	0xbdce7339	-0.10080571
106	0x3db68c94	0.08913532
107	0x3d3f3a49	0.046686444
108	0xbd2fa846	-0.042885087
109	0xbe1891cc	-0.14899367
110	0x3b15120b	0.002274635
111	0xbc01adb0	-0.0079149455
112	0xbcc792f3	-0.024362063
113	0x3cc50936	0.024052244
114	0xbe22f8d1	-0.15915228
115	0x3ccefe11	0.025267633
116	0x3d2dcc35	0.042431075
117	0xbdbf15f8	-0.09330362
118	0x3dced6f3	0.10099592
119	0x3d3bbe49	0.045835767
120	0xbde99efb	-0.11407276
121	0xbcf33eb7	-0.02969299
122	0xbe28011d	-0.16406675
123	0xbd623678	-0.055227727
124	0x3d7bc0eb	0.061463278
125	0x3d3f9da5	0.0467812
126	0x3c8f105a	0.017463852
127	0xbd8b8197	-0.06811827
128	0xbbfdc962	-0.007744954
129	0x3c315602	0.0108237285
130	0xbe0ec68a	-0.13942924
131	0xbd489a6c	-0.048975393
132	0x3c55a5df	0.013040035
133	0xbd885658	-0.06657094
134	0x3d9500c2	0.07275535
135	0x3e4f14ab	0.20222728
136	0xbd163187	-0.036668327
137	0xbdc46e24	-0.0959132
138	0x3e1a0374	0.1504038
139	0xbd76ceef	-0.06025594
140	0x3dc178c7	0.094468646
141	0xbdb30089	-0.087403364
142	0x3c739546	0.0148671325
143	0xbdace1a2	-0.084414735
144	0x3d987deb	0.07445892
145	0x3d6a54ba	0.057209708
146	0xbcf6bf73	-0.030120587
147	0x3d4c1e50	0.049833596
148	0x3dc26bd5	0.094932236
149	0xbc3e0ff8	-0.011600487
150	0x3d25727d	0.040392388
151	0xbbeae7ed	-0.007168761
152	0x3d5fcb77	0.0546374
153	0x3db7a741	0.08967448
154	0x3daea09a	0.08526726
155	0xbacd4e32	-0.0015663563
156	0xbde6610b	-0.11248978
157	0x3d327b57	0.043574657
158	0xbd2afae6	-0.04174318
159	0xbd2cd5a8	-0.042195946
160	0xbd1ff12e	-0.039048366
161	0x3d333aa3	0.043757092
162	0x3dd923e4	0.10602549
163	0xbe23c1d1	-0.15991904
164	0x3e1070c8	0.14105523
165	0x3e5fef52	0.21868637
166	0xbd70e205	-0.0588093
167	0xbe1d1366	-0.15339431
168	0xbc2fc57a	-0.010728234
169	0xbd78a0f0	-0.060700357
170	0x3bae5d33	0.005321169
171	0x3dae1aef	0.08501231
172	0x3d0b83db	0.034061294
173	0xbd65207a	-0.055939175
174	0xbb252ca2	-0.0025203605
175	0x3cf6d2ae	0.030129757
176	0x3d0cba92	0.034357615
177	0x3d62b22a	0.05534569
178	0xbc253f7e	-0.0100859385
179	0x3e37b89f	0.17941521
180	0xbe1d30d4	-0.15350658
181	0xbc3ed550	-0.011647537
182	0x3d6ea7ea	0.058265604
183	0xbe203683	-0.15645795
184	0x3ab5c702	0.0013868513
185	0xbe260bd0	-0.16215444
186	0xbe519ece	-0.20470735
187	0x3d8622cc	0.06549606
188	0xbdfcd9f8	-0.12346262
189	0x3e39122f	0.18073343
190	0x3d31b62f	0.043386634
191	0x3d46fec1	0.048582796
192	0xbdae3657	-0.08506458
193	0xbe89924c	-0.26869428
194	0xbe00f47f	-0.12593268
195	0x3e16bad8	0.14719713
196	0xbe4bb217	-0.19892155
197	0xbcf78078	-0.030212626
198	0x3d5693dd	0.052387107
199	0xbc812559	-0.015764879
200	0x3cdb086a	0.02673741
201	0xbd4197f3	-0.04726405
202	0x3d57c7d4	0.052680805
203	0x3d0ec0bb	0.03485177
204	0xbe91d1fc	-0.28480518
205	0x3d258b47	0.04041603
206	0x3daee1f1	0.08539189
207	0x3d158420	0.036502957
208	0xbe5e6369	-0.2171761
209	0x3d2e1b69	0.04250661
210	0xbc83eb1e	-0.016103324
211	0xbcc66374	-0.024217345
212	0x3c3e1a11	0.011602894
213	0xbdb6dcf0	-0.08928859
214	0x3c02c3de	0.007981269
215	0xbca43064	-0.020042606
216	0xbb9af6a6	-0.00472911
217	0x3dd76348	0.10516983
218	0xbd2818bd	-0.041039217
219	0x3cda7f4a	0.026672024
220	0x3db8307a	0.08993621
221	0x3de39295	0.11111943
222	0x3c78126f	0.015141114
223	0xbcbc260c	-0.02296736
224	0x3e439fc8	0.1910392
225	0x3cd3dfa8	0.025863484
226	0xbdfe4987	-0.12416368
227	0xbe0531f6	-0.1300734
228	0x3da6ddf4	0.08147803
229	0x3df8e165	0.121523656
230	0x3e0bd5da	0.13655797
231	0xbce89b5c	-0.028394394
232	0xbca9ee41	-0.020743491
233	0x3c9591d8	0.01825802
234	0x3e93dbb6	0.28878564
235	0xbd1bf404	-0.03807451
236	0x3d98834e	0.074469194
237	0xbd64cfe9	-0.05586234
238	0x3d0fa483	0.035069
239	0xbd3c3826	-0.045951985
240	0xbd3096ba	-0.043112494
241	0xbcea6c1a	-0.028616
242	0x3b2e07f9	0.0026555045
243	0xbd465061	-0.0484165
244	0x3cc95eed	0.024581397
245	0xbdbc8702	-0.09205438
246	0x3d8d349c	0.068948
247	0x3bdee367	0.006802011
248	0xbd164b0f	-0.036692675
249	0xbcf219ed	-0.029553378
250	0x3de8c82e	0.11366306
251	0x3cca6879	0.02470802
252	0x3c68c7f2	0.014207827
253	0xbd1c4cb8	-0.038159102
254	0x3e696a10	0.22794366
255	0xbe0302da	-0.12794057

network_body._body_endoder.seq_layers.2.bias f4 [128]
0	0x3c88f9fd	0.016720766
1	0x3cda53db	0.026651314
2	0x3cb5590e	0.022137191
3	0x3ba2350f	0.0049501727
4	0x3c50286f	0.012704953
5	0x3c9922b8	0.018693313
6	0x3b92d7f1	0.0044813086
7	0x3c998acb	0.01874294
8	0x3c90e79f	0.01768857
9	0x3c4810b7	0.012211016
10	0x3d1e12db	0.0385922
11	0x3a65a2b1	0.00087598996
12	0x3c25cc95	0.010119577
13	0x3c97e915	0.01854376
14	0x3cbd905f	0.02314013
15	0x3cc72405	0.024309168
16	0x3cbdd8eb	0.023174724
17	0x3cc95782	0.02457786
18	0x3d10e361	0.035373095
19	0xbaa1dc9f	-0.0012349075
20	0x3bed4851	0.007241287
21	0x3ca2f212	0.019890819
22	0x3c76a8bf	0.015054881
23	0x3b89e1fc	0.0042078476
24	0x3c25c232	0.010117101
25	0x3cd9abd0	0.026571184
26	0x3d0c7270	0.034288824
27	0x3cb151dc	0.021645479
28	0x3bb12a57	0.0054066586
29	0x3c09fd5f	0.008422225
30	0x3d312cb0	0.043255508
31	0x3c852f04	0.01625777
32	0x3cc63035	0.024192909
33	0x3cebb88b	0.02877452
34	0x3c2576f7	0.010099164
35	0x3ba7a392	0.0051159346
36	0x3c69d505	0.014271979
37	0x3cf23839	0.029567825
38	0x3c806aff	0.01567602
39	0x3c2e0ec4	0.010623638
40	0x3ca4173d	0.020030612
41	0x3cc00617	0.023440404
42	0x3cbec714	0.023288287
43	0x3cd2e116	0.025742095
44	0x3c83ab1c	0.016072802
45	0x3b23432c	0.0024911864
46	0x3cc19769	0.023631768
47	0x3c2e949d	0.010655549
48	0x3c9ef32a	0.019403059
49	0x3d34a874	0.044105962
50	0x3d7cbc51	0.06170303
51	0x3bce100a	0.006288533
52	0x3abeab99	0.001454699
53	0x3be90167	0.007110763
54	0x3c92592c	0.017864786
55	0x3c74f127	0.014950073
56	0x3ccf6e16	0.025321048
57	0x3c86f983	0.016476398
58	0x3cbd7518	0.023127124
59	0x3c8f0303	0.01745749
60	0x3d0d1353	0.034442257
61	0x3bc0f8a0	0.0058890134
62	0x3c72d751	0.014821843
63	0x3b2edc18	0.002668148
64	0x3c94437c	0.018098585
65	0x3cbd2623	0.023089474
66	0x3c83c9d4	0.01608745
67	0x3cfe89b0	0.031071514
68	0x3cf12ed9	0.029441284
69	0x384090f5	4.591137e-05
70	0x3cc74c58	0.024328396
71	0x3d3c55a9	0.04598013
72	0x3c26397f	0.010145544
73	0x3d1465de	0.03622996
74	0x3c6bcf25	0.014392649
75	0x3bc47c4e	0.0059962636
76	0x3c4ecde8	0.012622334
77	0x3d05480b	0.03253941
78	0x3ca626ca	0.020282168
79	0x3c8c4df8	0.017127022
80	0x3c9d910b	0.019234201
81	0x3b8cab9b	0.004292918
82	0x3cf480dc	0.029846601
83	0x3cff068c	0.031131051
84	0xbbded237	-0.006799962
85	0x3d06d2a9	0.032915745
86	0xb9c418fc	-0.00037402648
87	0x3c2868df	0.0102789095
88	0x3cbbad7a	0.022909869
89	0x3c98afeb	0.018638572
90	0x3d3b5e70	0.04574436
91	0x3c5653c0	0.013081491
92	0x3bc493f2	0.005999082
93	0x3cce4e34	0.025183775
94	0x3c5c69fa	0.013453001
95	0x3bd02230	0.0063517317
96	0x3cbbb102	0.022911552
97	0x3cfb1b41	0.030652644
98	0x3c59b391	0.013287441
99	0x3b61cb6c	0.0034453524
100	0x3c8d093c	0.017216317
101	0x3ccece98	0.025244996
102	0x3d073ba5	0.033015866
103	0x3cbd00f1	0.023071738
104	0x3d30f121	0.04319871
105	0x3c91fd0b	0.017820856
106	0x3c92f1e0	0.0179376
107	0x3ccf0fce	0.025276091
108	0x3bfe5129	0.00776114
109	0x3ca1f6c5	0.01977099
110	0x3c6120d9	0.013740742
111	0x3ca39536	0.01996861
112	0x3c48f347	0.012265033
113	0x3d32c3b7	0.04364368
114	0x3c352152	0.011055307
115	0x3c04052d	0.008057875
116	0x3ca96f8a	0.020683069
117	0x3c1d1244	0.009586874
118	0x3d5c8122	0.05383409
119	0xbc0aa7ed	-0.008462888
120	0xbc2c9d35	-0.010535528
121	0x3bf25bcb	0.0073961965
122	0x3b87b7b1	0.004141771
123	0x3d1acac5	0.037791032
124	0x3c8e4bcb	0.017370125
125	0x3d2d0488	0.04224065
126	0x3c5090a2	0.012729796
127	0x3c921fef	0.017837493

network_body._body_endoder.seq_layers.2.weight f4 [128, 128]
0	0xbdd734f1	-0.10508145
1	0x3d6aa47e	0.05728578
2	0x3dc8b17a	0.09799476
3	0x3b1b7b82	0.002372474
4	0xbdf9c990	-0.12196648
5	0xbce3e5d8	-0.027819559
6	0xbe051d4b	-0.12999456
7	0xbdda7b2b	-0.10668024
8	0xbd444e6a	-0.047926344
9	0x3d7be4a2	0.061497338
10	0xbd72bf9d	-0.059264768
11	0x3d66d8e9	0.056359205
12	0x3de28da6	0.110621735
13	0xbc6d1130	-0.01446943
14	0xbdd2748c	-0.10276136
15	0xbd3fd935	-0.046838004
16	0x3df4f142	0.11960079
17	0x3d79cb99	0.06098518
18	0xbd11d877	-0.035606828
19	0xbe5cd52a	-0.2156569
20	0xbe16ce07	-0.1472703
21	0x3dc813a8	0.09769374
22	0x3d1895f0	0.037252367
23	0xbdafe79d	-0.085890986
24	0xbe22d6ea	-0.15902296
25	0xbe182f0c	-0.14861697
26	0xbc9f99dc	-0.019482546
27	0xbcb4c875	-0.022068242
28	0x3cc8d60c	0.024516128
29	0x3dffe8e0	0.12495589
30	0x3d94dfc9	0.07269246
31	0xbd28f2fe	-0.04124736
32	0x3e2dc17e	0.16968343
33	0xbd9fda68	-0.078053296
34	0x3de1656e	0.11005674
35	0x3dae4e56	0.08511035
36	0x3d17b696	0.037039362
37	0x3e371155	0.17877705
38	0xbd869446	-0.0657125
39	0xbd98d149	-0.07461793
40	0xbd719a18	-0.058984846
41	0x3df75b1f	0.12077927
42	0xbba74ccc	-0.0051055904
43	0x3de16e7a	0.110074
44	0x3e09e97e	0.13467976
45	0x3df5ee31	0.12008322
46	0xbd0b168c	-0.03395705
47	0xbca9f5f4	-0.020747162
48	0xbd395462	-0.04524649
49	0xbdc643f2	-0.09680928
50	0xbd3100eb	-0.043213766
51	0x3afc7549	0.0019261028
52	0xbe50df23	-0.2039762
53	0xbdbf687f	-0.09346103
54	0x3b617173	0.0034399896
55	0x3cc301db	0.023804596
56	0xbd079916	-0.03310498
57	0xbd1b1e6e	-0.037870817
58	0xbde807fe	-0.113296494
59	0xbc739bc9	-0.014868685
60	0x3dc84234	0.09778252
61	0xbdab53cf	-0.083655946
62	0x3d444fb8	0.04792759
63	0x3dd7866f	0.10523688
64	0x3d75b41e	0.059986226
65	0x3dd027e1	0.10163856
66	0xbcd1785f	-0.025570093
67	0xbd449d8c	-0.04800181
68	0xbd35a18e	-0.044343524
69	0x3d17ea15	0.037088472
70	0xbe1d53f2	-0.15364054
71	0x3b6ae418	0.003584152
72	0xbe5ef911	-0.21774699
73	0x3d3097d7	0.043113556
74	0xbd8b1a1c	-0.06792089
75	0xbd61a4f2	-0.055088945
76	0x3de26258	0.11053914
77	0xbdd48b2f	-0.1037811
78	0x3dcc1966	0.09965782
79	0xbe1a12e3	-0.15046267
80	0x3de6a8c0	0.11262655
81	0x3bdbbd34	0.0067059044
82	0x3d2d79e0	0.042352557
83	0xbdf13ba7	-0.11778956
84	0x3d9c11a9	0.07620556
85	0x3cf752d6	0.030190866
86	0xbda45f0e	-0.08025943
87	0x3bf50549	0.0074774367
88	0xbd990fee	-0.074737415
89	0xbd459bda	-0.048244335
90	0xbc9c6846	-0.01909269
91	0x3c9e6ac6	0.019338023
92	0xbd3d0e15	-0.046156008
93	0xbde57077	-0.112030916
94	0xbdc3c7e1	-0.09559608
95	0x3e13cea1	0.14434291
96	0x3d6d5e31	0.057951156
97	0x3db866af	0.0900396
98	0xbd965dc1	-0.07342101
99	0x3b592db9	0.0033138825
100	0xbcd882ff	-0.026429651
101	0xbe1cfc09	-0.15330519
102	0x3b00a3b0	0.0019628815
103	0xbdc2f2b8	-0.09518951
104	0x3d2a0df5	0.041517217
105	0x3d083cfe	0.03326129
106	0xbe248851	-0.16067626
107	0xbe25b496	-0.1618217
108	0x3dda7656	0.10667102
109	0x3d71851a	0.058964826
110	0xbc161260	-0.009159654
111	0x3d3003a0	0.042972207
112	0xbe3484d7	-0.176288
113	0xbd5ef3c9	-0.05443171
114	0xbe330c59	-0.17485179
115	0xbd4555d6	-0.048177563
116	0x3e2e8aea	0.17045179
117	0xbdfc2f93	-0.123137616
118	0xbd2dc1fc	-0.042421326
119	0x3dbd06cc	0.09229812
120	0xbceacd74	-0.02866242
121	0x3b69db1e	0.0035683583
122	0x3daccae6	0.08437137
123	0xbe25acdb	-0.1617922
124	0x3d1fd6f7	0.039023366
125	0xbe044cca	-0.12919918
126	0xb9f81043	-0.00047314362
127	0xbdad56b1	-0.08463801
128	0xbce41481	-0.027841808
129	0xbdaa6a1b	-0.08321019
130	0x3e3825ad	0.17983122
131	0xbdae26ac	-0.0850347
132	0x3e9cc2a3	0.30617246
133	0xbc29a026	-0.010353124
134	0x3d5706fe	0.052496903
135	0xbdd76414	-0.10517135
136	0xbcd93bd7	-0.026517792
137	0xbca3cb55	-0.019994417
138	0xbb2a0640	-0.0025943667
139	0x3df281d8	0.11841172
140	0x3d652da3	0.055951726
141	0x3c804b2e	0.015660848
142	0x3dfc7177	0.12326329
143	0xbc361e29	-0.011115589
144	0xbdcbf995	-0.09959713
145	0x3b6d3a66	0.0036198138
146	0xbd3028c9	-0.043007646
147	0x3dadce6d	0.08486638
148	0xbe02cdb5	-0.12773784
149	0x3d06a40a	0.032871284
150	0x3c46cfd3	0.01213451
151	0xbd5ed1ee	-0.054399423
152	0x3de350fd	0.11099432
153	0x3d10072c	0.03516309
154	0xbd3f33eb	-0.046680372
155	0xbd96ad7b	-0.073573075
156	0xbdeac735	-0.11463777
157	0xbccdde72	-0.025130484
158	0xbd8c3095	-0.06845204
159	0xbddee37c	-0.10883233
160	0x3e152fc1	0.14568998
161	0x3dd50596	0.10401456
162	0xbe11e80c	-0.14248675
163	0x3d0eede1	0.034894828
164	0xb9135212	-0.00014049586
165	0x3dd35d5e	0.10320543
166	0x3c785299	0.015156412
167	0x3e1e2028	0.15441954
168	0xbe5c7e17	-0.21532474
169	0x3dac742f	0.08420598
170	0x3dd23b4e	0.10265218
171	0xbd04a78c	-0.032386348
172	0x3cd41d25	0.025892803
173	0x3db6c15f	0.08923601
174	0x3d26b6bc	0.040701613
175	0x3b2aa853	0.002604027
176	0xbd891cba	-0.06694932
177	0x3e8db829	0.27679566
178	0xbd7d4277	-0.061830964
179	0xbabffcb9	-0.0014647461
180	0x3de742a4	0.112920076
181	0xbd9c3822	-0.07627894
182	0xbd253750	-0.040335953
183	0xbca2dacc	-0.019879721
184	0xbdf47e16	-0.119381115
185	0x3d963925	0.07335118
186	0x3dc0fff1	0.09423817
187	0x3d4d8985	0.050179977
188	0x3d88704f	0.06662046
189	0xbd5a473f	-0.0532906
190	0x3c282ee6	0.010265088
191	0x3d08cbb9	0.03339741
192	0x3e55c915	0.20877488
193	0xbcc14d29	-0.023596363
194	0xbd5b2663	-0.053503405
195	0xbce7694c	-0.028248452
196	0x3d50b5a9	0.050954495
197	0xbda644d8	-0.081186
198	0xbe0dad34	-0.13835603
199	0xbde10b19	-0.10988445
200	0x3d081512	0.03322322
201	0x3dac09ac	0.08400282
202	0x3e3bf088	0.18353474
203	0x3cebf976	0.028805476
204	0x3e0ccc71	0.13749863
205	0x3d9fc983	0.07802107
206	0xbd056474	-0.032566503
207	0xbdce7ae6	-0.10082035
208	0xbc3c4a7e	-0.01149237
209	0x3a2379ea	0.0006236123
210	0x3e35f4ba	0.17769137
211	0xbe0c3d56	-0.13695273
212	0x3cf03e47	0.029326571
213	0xbd89ed2a	-0.067346886
214	0xbcbda120	-0.02314812
215	0x3dce2a85	0.10066704
216	0xbd7dd8a0	-0.061974168
217	0x3d4e4af7	0.05036446
218	0x3cb94fed	0.02262112
219	0xbdde7f0a	-0.108640745
220	0xbd9ae66a	-0.07563479
221	0x3da0557e	0.07828806
222	0xbc8e8b7e	-0.0174005
223	0x3da35a16	0.07976167
224	0xb9ac59b4	-0.0003287323
225	0xbde8df57	-0.11370724
226	0x3d6b64ec	0.057469293
227	0x3c78a2e5	0.015175556
228	0xbd5aee07	-0.053449657
229	0xbd6f166b	-0.05837099
230	0x3e04c338	0.12965095
231	0x3c3098f6	0.010778656
232	0x3b970dc5	0.0046097958
233	0xbd44246e	-0.047886305
234	0xbde65647	-0.11246925
235	0xbe8e3f34	-0.27782595
236	0x3e80e013	0.25170955
237	0x3d154ea7	0.03645196
238	0x3d83b59d	0.06431124
239	0x3cfbeca1	0.030752482
240	0x3ce3916d	0.027779305
241	0x3e2619b6	0.16220745
242	0x3dd97de6	0.10619716
243	0x3de592df	0.11209654
244	0x3e1ba2f3	0.15198879
245	0xbe1d0659	-0.15334453
246	0xbd6464a3	-0.055760037
247	0x3dda305c	0.10653755
248	0x3e6202bb	0.22071354
249	0x3dea037a	0.11426444
250	0xbda400de	-0.08007978
251	0x3e678cca	0.226123
252	0xbd4f4010	-0.050598204
253	0xbe5e5327	-0.21711408
254	0x3d41f6fa	0.047354676
255	0x3d14e5be	0.03635191
